models/NeuralLVModel_upperbound_2e-07.pt (torch, 512281 bytes, 146 tensors)

weight f4 [50, 2]
00000000: bcc7 21bd 0634 253e d476 10bd 6dc3 91be
00000010: 63b4 943e 9b6b e73e 7e6a 1c3d 36d7 063e
00000020: de1a 553e 3bd5 d23e cbbf 70bd c3be 2d3e
00000030: 5496 33bc 6dfb 9e3e 2c18 99be 22bb 91bd
00000040: a9b9 943e c531 f6bd 15e9 343e 8a95 38be
00000050: 2a60 64bd e9cb 95be 512c 413e 6f7d d43d
00000060: dbcb 89bd 8013 a4be d82d d33d f267 a73d
00000070: 575b b0be 627b 04be 14a7 66bd 3f4e ee3e
00000080: 43b7 33be 7719 4abd 0ee3 3fbe b5d8 a43d
00000090: 8b0f f03e 6a29 21bf e035 88be f03c 103e
000000a0: 7849 263e 73ea 89bd 3339 84bc af1b 433f
000000b0: b497 163e 6c2e d13b 8413 933e 3968 b73e
000000c0: be22 29bd 5be3 14be 72b8 e33d ba9a c1be
000000d0: 8a74 063e dd58 50be 4619 6f3e 7228 63bd
000000e0: da07 4e3f 2b62 f33d e768 b7bc 4e29 be3d
000000f0: 5bdc 303e e7b4 bd3d f568 643d 6a10 99be
00000100: 5870 83be ac4d 9bbd 4f13 0c3e 32d1 103e
00000110: 1345 fc3d eea2 ae3c e4d8 56bd dd46 403d
00000120: 5f7c fdbe 9a4b be3d 9852 723e 826b 27bf
00000130: a6f3 fc3e 6528 083e ea4c cfbd b9b5 9bbd
00000140: 27b9 a63d d400 a13e aa36 af3e 4754 3bbf
00000150: 0294 8bbe 0ed1 363f b8e9 983c 6832 33bf
00000160: 8c07 73be 5709 283e 9f33 be3e 1322 7fbe
00000170: 38af 9abe 7515 853e d622 433e 6ce3 783e
00000180: 31ae 6f3e 5b8d 9dbd ac70 14be 1dfb a53e
-0.039497122 0.16133127 -0.035269573 -0.2846941 0.29043874 0.45199284 0.038187496 0.13168034
0.2081103 0.41178307 -0.058776658 0.16967301 -0.010961134 0.31051198 -0.29901254 -0.07115771
0.29047897 -0.120212115 0.17667039 -0.18025795 -0.05575577 -0.29257134 0.18864562 0.10375487
-0.067283355 -0.32046127 0.103114784 0.08174123 -0.34444687 -0.12937692 -0.056311682 0.46544072
-0.17550378 -0.04934069 -0.18738958 0.08049146 0.46886858 -0.6295382 -0.26603603 0.14085746
0.16238964 -0.06734171 -0.016140556 0.76214117 0.14706308 0.0063837077 0.28725827 0.35821703
-0.0412929 -0.14539854 0.111191645 -0.3781336 0.13130394 -0.20346399 0.23349485 -0.055458494
0.8048073 0.118839584 -0.022388889 0.09285222 0.17271559 0.0926302 0.055764157 -0.29895335
-0.2567165 -0.07583174 0.1367924 0.14142302 0.12317862 0.021317925 -0.052452937 0.04694258
-0.4950895 0.092917636 0.2366432 -0.6539842 0.4940464 0.1329666 -0.10122092 -0.0760302
0.08140784 0.31445944 0.34221393 -0.7317547 -0.27261358 0.7141274 0.018666133 -0.6999879
-0.23733348 0.16409813 0.3714876 -0.24915342 -0.30211806 0.25992933 0.19056258 0.24305505
0.23406292 -0.07692977 -0.14496106 0.32418147

bias f4 [50]
00000000: 9195 bb3e cb4b c23b fce4 6dbe f3ac 01bf
00000010: f7f8 27bf d0d3 95be 7aea 2fbf f3cf aebd
00000020: 61df eb3e 8e82 2abf 7c0b b2bd 67ff 01bf
00000030: b28f c4be 91fa 27bf 201e b4be b966 75be
00000040: b812 e3be 0295 7b3e 00f4 273e 84ac 9bbe
00000050: 78d8 423e 6b4b be3e 44e3 3d3e 1fe6 093f
00000060: a99b 1d3f 916d fd3c 7ba8 903e 8897 0f3f
00000070: d506 d4bd 9dc4 b2be 514b 903e 86cb 953a
00000080: c147 183f 18c4 303f 7106 083f 4346 bfbc
00000090: 47d7 af3e c350 ee3d e131 103f a38a 153f
000000a0: 88e9 b93e bb15 c43e fce1 dbbe 3903 f5be
000000b0: 66cf d1be 7ec5 0cbf 51e6 f2be 1e18 d93e
000000c0: b4e6 023f a073 28bf
0.36637548 0.0059294454 -0.23231882 -0.50654525 -0.65614265 -0.29263163 -0.6871716 -0.08535757
0.46068862 -0.6660546 -0.08693597 -0.5078034 -0.3839088 -0.6561671 -0.35179234 -0.23964967
-0.4435022 0.2456856 0.16401672 -0.30405056 0.19027889 0.37166914 0.18543726 0.5386676
0.61565644 0.030936034 0.2825354 0.56090593 -0.103528656 -0.3491563 0.28182462 0.0011428453
0.5948449 0.69049215 0.5313483 -0.023348933 0.3434393 0.11636498 0.5632611 0.5841467
0.36310983 0.3829783 -0.4294585 -0.4785402 -0.40978545 -0.5498885 -0.47441342 0.42401212
0.51133275 -0.6580143

weight f4 [50, 50]
00000000: 49da 24bc 188c 50be 2678 7d3e 276e 23be
00000010: 12d3 3abd 6f1e 16bd 473d 6b3e a56f b53e
00000020: 3b40 bc3e c149 f2be 02f2 a93c f46a 39be
00000030: 8c54 853e 4f0c b9be 75d8 1c3e db09 81be
00000040: 13ba 553d 08bd 56be 7fea e03d 778b b53b
00000050: 492d 053e ac13 0bbd c479 a3bd 263a cb3d
00000060: b470 0bbe dfe1 62bd 36c0 2dbd 1d13 86be
00000070: e76a 683e d210 d6bc 072c 57bc bdd3 723e
00000080: 12da 433e 5bf0 c63e 4103 5bbd 7b11 ab3e
00000090: db7a 803d e0d5 90be 9f5a afbe 8e42 73be
000000a0: 6972 df3c f677 aebe ef00 273e 8312 433e
000000b0: b709 6f3e d53c 893c 3dee e5bd 5260 343c
000000c0: 54da 6ebd 28f6 23be 73a7 f2bb 3196 ffbe
000000d0: 3afd 73bb 9386 9d3d d6a2 233e d6a0 2e3e
000000e0: 819f acbe 9b6f a6bd c650 043e abbc a0be
000000f0: 32f9 a03e 35cb e73d 912e 93bd 8d83 8f3e
00000100: cbb8 d03e 933b 0eba f808 0b3e dcd8 7cbe
00000110: 5474 97bd c721 833d 4a54 903e 397f 993c
00000120: d7ed 5e3e c929 013d e0fa 3dbe 46a1 6f3e
00000130: 853e fe3d f8d4 18be 13f3 033e 783d 8fbd
00000140: df14 313e 4af8 83be c877 02bf 2a6d 2c3d
00000150: 75f2 5d3d 6d4e bdbe d3d5 233d 7921 8c3d
00000160: c622 1fbe f419 e13c 4548 19be eecc d7bd
00000170: 05a6 93bc 89f2 8b3e 8231 373e 6248 893d
00000180: 48a7 803d ddaf 8cbe d3d3 8c3e adaa 703e
00000190: ce9c b33e 647a f63d 0681 243e 69fd a3bc
000001a0: 1823 8dbd e6f9 383e d768 433e 3766 3ebe
000001b0: aaef 253c de0b 063e 90db 5abc f93c db3d
000001c0: 3699 1ebd 148f aa3d 382b 243f 93b6 cabe
000001d0: b0bc 4dbe 9b40 5f3e 7ee8 17bd 0736 533e
000001e0: d42a ebbc c890 a2bd a3d7 e2bd 3a21 05be
000001f0: cc52 393e 7dff 8f3e c972 9c3e b047 0ebd
00000200: 53f5 95bc eac8 463d 633d d0bd 53c5 0fbf
00000210: 8f8f dfbb 092c bfbc 261d 63be 657b 993e
00000220: 74fa afbe 817b 0f3e 5b8e bdbe c127 b2bc
00000230: e3ed 673c 9338 f4bd ffc3 aebe 81a8 88be
00000240: 2954 3dbe b917 f8bd 1d86 88bd b53d 2dbe
00000250: d386 7d3d c67a 05be 4315 a93d efd2 4bbd
00000260: e070 de3e 9e29 cb3e b84f 223e 8a47 4b3e
00000270: 6988 803e ebab a13d 0d4f 53ba 5e17 973d
00000280: b7ad 203e 0733 a23c 6987 c6bd 09a1 18bd
00000290: b4d7 ecbc c174 9b3d 6595 d53e 804c b1be
000002a0: e0d6 96bd 1431 983b 0b1a 233e 03ed 9d3d
000002b0: 1eae 533e 877e 6f3e 5c5b 8e3d 58d1 cbbd
000002c0: 335a 90be a3a8 6dbe ee6b 15be 3fed b63e
000002d0: 472e d13d adaa a2bd 5883 02be 579d 60be
000002e0: 8b1d 903d c0a1 6ebd 0454 c5bc 57b3 8ebe
000002f0: f1c6 f2bd b1e7 043e e9b1 943d 3cb4 8fbe
00000300: 992a 483e 7f05 52be 6d0f 53be db99 3cbe
00000310: 4f5b 9e3d 1071 0f3e 861c 893d 7f98 413d
00000320: 03ef 13bd fdb2 f8bd b8d9 09be de37 223d
00000330: 07b4 aebe 76d2 223e a4ad ad3e d70e bcbd
00000340: e912 6ebc fbb8 693d 7abc 023e 3428 b03d
00000350: 87f5 ef3e 2907 7a3d 9f79 4c3e c25d fabd
00000360: 2559 1b3e f4d1 d43e 0211 babd 0a9c e43d
00000370: 26e5 f93d c971 323e 699e eebe 4933 853e
00000380: f507 723e ad0f a93e 72fe 7e3e ea94 aebd
00000390: 7b52 90bd 2ebe 023e 50ac 5e3e ab68 22bd
000003a0: 8829 a7be 66a5 953d f414 c1bd 7779 b7bd
000003b0: d2c9 03be b6de 4fbe 5fa9 123e f22c 73be
000003c0: c195 913e 6e08 d03d 95e0 173e 41ca 343e
000003d0: 78b2 2ebd bcf1 6e3e 349f 04bd 2ff0 9dbc
000003e0: cc8d 9d3e f523 043e 875e f9bc bd6e 103f
000003f0: d663 ffba d2d0 f8bd 49cb b5bc 142e 93be
-0.010061809 -0.20365942 0.24752864 -0.15959989 -0.04561145 -0.036650117 0.22972594 0.3543674
0.36767754 -0.47321895 0.020745281 -0.18107206 0.26041067 -0.36142203 0.15316947 -0.25202832
0.052179407 -0.20970547 0.109822266 0.005540307 0.13005556 -0.033954307 -0.07982209 0.099232
-0.13617212 -0.05539119 -0.042419635 -0.26186457 0.2269703 -0.026131067 -0.0131330555 0.23713584
0.19126156 0.38855252 -0.0534699 0.33411774 0.06273433 -0.28288174 -0.34248826 -0.23755857
0.027276235 -0.34075898 0.1630895 0.1905003 0.2334355 0.01675264 -0.11227081 0.011009293
-0.058313683 -0.1601187 -0.0074052154 -0.49919274 -0.0037229792 0.076916836 0.15980086 0.17053542
-0.33715442 -0.08126756 0.12921438 -0.31393942 0.3144012 0.113180555 -0.07186616 0.28030053
0.40765986 -0.00054257474 0.1357764 -0.246921 -0.07395235 0.06402927 0.28189307 0.018737422
0.21770416 0.03153399 -0.18552732 0.23401365 0.124142684 -0.14924991 0.12885694 -0.06994146
0.17293118 -0.25775367 -0.5096402 0.042096294 0.054186303 -0.36973897 0.03999884 0.06842322
-0.15540609 0.027478196 -0.14968975 -0.10537134 -0.0180235 0.27333477 0.1788998 0.06703259
0.06281906 -0.27477923 0.2750536 0.23502608 0.3508057 0.12035063 0.16064844 -0.020018296
-0.06891459 0.18064079 0.19082962 -0.1859368 0.010127941 0.13090464 -0.013358012 0.10704989
-0.038720332 0.08328071 0.64128447 -0.39592418 -0.2009151 0.21801989 -0.037086956 0.20626079
-0.028706945 -0.07937771 -0.11076286 -0.13000956 0.18097991 0.2812461 0.30556324 -0.034736335
-0.018305456 0.04853145 -0.101679586 -0.5616047 -0.0068225334 -0.023336427 -0.22179088 0.29976955
-0.34370768 0.14011957 -0.3702267 -0.021747472 0.014155838 -0.11924853 -0.34133908 -0.26691058
-0.18489136 -0.121139 -0.06666205 -0.1691807 0.061896157 -0.13035116 0.082560085 -0.04976171
0.43445492 0.3968019 0.15850723 0.19851509 0.25104073 0.07894119 -0.0008060791 0.07377504
0.15691267 0.019799722 -0.09693796 -0.03726295 -0.028911449 0.075906284 0.4171554 -0.34628677
-0.07365203 0.0046445224 0.15927903 0.07711222 0.20671889 0.2338811 0.06951019 -0.099520385
-0.28193817 -0.23208861 -0.14591953 0.3572788 0.10213905 -0.0794271 -0.12745416 -0.2193502
0.07036885 -0.058259726 -0.024087913 -0.278712 -0.11854351 0.12979008 0.07260496 -0.28067195
0.195475 -0.20509909 -0.20611353 -0.18418066 0.077322595 0.14007974 0.066948935 0.047264572
-0.03611661 -0.12143514 -0.1346196 0.03960406 -0.34121725 0.15900597 0.3392154 -0.09182518
-0.014530876 0.057061177 0.1276721 0.08601418 0.4686701 0.061041985 0.1996827 -0.12224914
0.15170725 0.41566432 -0.09085275 0.111625746 0.1220191 0.17426218 -0.46605232 0.2601569
0.23635848 0.33019772 0.2490175 -0.08524497 -0.07046982 0.1276786 0.2174542 -0.0396506
-0.32648873 0.07306938 -0.094278246 -0.089587145 -0.12869957 -0.20299801 0.14322422 -0.23747614
0.28434566 0.10157858 0.14831765 0.17655279 -0.04265067 0.23334402 -0.03237839 -0.019279568
0.30772245 0.12904342 -0.030440582 0.56418973 -0.001948471 -0.12149204 -0.02219166 -0.28746092

bias f4 [50]
00000000: 262e a13d 0666 b1bd 0891 06be 8b7e 85bc
00000010: fa55 e23d ae35 c7bc c64e afbd d13d 30bd
00000020: dc98 e9ba 8dbd 063d 4aaa 0e3e 70bd 8d3d
00000030: c8d0 643d d843 63bd 6b4f c0bd d898 8e3d
00000040: 2f5e c6bd 5604 1bbe 877c 80bd 37d8 353d
00000050: 64b2 94bd 1559 28bd 04eb 813c 24b7 c33d
00000060: ce54 523d 4431 d2bd 89c5 fdbd fa7c 15bc
00000070: f308 29bd 51c1 7f3d 55e5 00be fc54 35bd
00000080: 777e c4bc ace5 ce3c d611 153e 8061 64bc
00000090: 212b 013e 28cc 90bd ce94 9d3d a837 52bd
000000a0: cd5a 343d 5f66 5f3d e8d2 f9bd a979 083d
000000b0: 57e5 9b3d 3885 afbd feec c53d 5966 db3d
000000c0: ea69 0bbe b317 023d
0.0787013 -0.086620376 -0.13141263 -0.016295692 0.11051555 -0.024317589 -0.08559947 -0.043027703
-0.0017822045 0.032895613 0.13932148 0.06920898 0.05586317 -0.055484623 -0.09390148 0.069627464
-0.09685933 -0.15138373 -0.06273752 0.04439565 -0.07260588 -0.04110058 0.015859134 0.09556416
0.051350407 -0.10263303 -0.123911925 -0.009124035 -0.0412683 0.06244022 -0.12587483 -0.0442705
-0.023986084 0.025256 0.14557585 -0.013939261 0.12614109 -0.0707019 0.07694398 -0.05132261
0.044031907 0.054540988 -0.1219843 0.03331915 0.076121025 -0.08570331 0.09664343 0.10712881
-0.13614622 0.031760883

weight f4 [50, 50]
00000000: e327 11bc 4503 053d 86ba 093e 3a88 87be
00000010: b8a1 40be f27c 863d 65e7 00be efb9 bfba
00000020: c1e0 91bd 7a6e 563e e5de 143d 4d9a 9a3e
00000030: bfdc 1ebe 2fbe 3a3d eecb 813e befa 443e
00000040: 0aab 433e 7d0e 983e dacd bf3e 2f20 6d3e
00000050: 7f03 1d3c 7613 40be 5843 edbe 2ebd 54bd
00000060: 1d00 11be 6682 b8bb 5db6 0bbe e7f7 8c3e
00000070: 6139 aabd 17f9 23be c0c6 ac3e 88cd 023d
00000080: 278f d73d 53ba 56be 2233 48be 201f 65be
00000090: e7a6 52bd e7ca 9a3e c94e 4dbe 0c57 433e
000000a0: c98e 173c 2fc3 ac3e 402c 7a3d 3a02 0ebd
000000b0: 4baa 9d3e 04d2 373e 8aa1 763d 750b 9dbe
000000c0: 6377 c93e e3bc c8be 43e1 57be 9416 c73d
000000d0: d7ba 18bd b8a8 103e 7728 ec3d bdb2 003f
000000e0: c1b5 a23e 3351 983d 45c3 093e f2e3 7a3d
000000f0: 8101 21be a73c babd 9ab3 a93d 903a f2bc
00000100: 8657 bfbd 0952 56be eae2 8b3e aec2 17be
00000110: 5ae5 abbe 1355 2dbe 55ca 4abd 933f c3be
00000120: 5b13 dfbe 7d22 353f 5f63 193e b05d a0bd
00000130: 2472 6d3e 00c5 b4be 03e8 bd3d ec44 6fbd
00000140: 7588 10be 264d 4dbe 072f 09be 92c8 2dbe
00000150: e0a6 1c3e d02c dc3d c723 2e3e 3e8f a2be
00000160: 88cb 96be 0e78 9bbe 8278 b8be d8f1 3a3e
00000170: da75 893e 8c82 00be 9a64 6e3c 8222 e73e
00000180: ea81 a13c e194 40be 244c db3d e737 02be
00000190: 9261 003e 794d d33e 4304 92be 8edb 25bd
000001a0: cdbd a5be 3c33 c03d d1f2 6dbe bcca d33d
000001b0: 84bc 873e 531e 6abd 7f23 7b3e 2709 f33d
000001c0: 9fc8 11be 484a d6bd 40d8 5fbd 79c3 f73c
000001d0: 2460 d53d 20dd 04bd 58b0 923d 90c6 5abd
000001e0: 21aa f83b 90e9 bfbd 7ea7 84bd a676 463b
000001f0: ae02 84be c83f 033d 90b7 2dbe 8de2 2e3d
00000200: b4fc 2d3d 5fe8 2ebe 5294 9ebe be33 0dbd
00000210: 8721 fd3d 6b7b 97bb 8c35 433e 40ef 5a3d
00000220: f6fe 553e f620 01be 5823 243b 1ff7 e5be
00000230: 5f51 d5be e72d 34be 0d0c b5be 7c1e 54bc
00000240: af61 3dbe d553 7bbd ec7f 0e3e 52a6 6dbd
00000250: c89a b53e 6d46 4abe b5de 9d3e 42ce ba3d
00000260: 9b66 053d 93f2 b2bd 40e6 e53e 863b 3c3b
00000270: 886e 7e3e 4303 1bbe 529b d63d 89d5 7b3e
00000280: 2144 b0be c541 08bc a214 943c 11f4 da3e
00000290: 2b87 c6be 6538 b2be f8a1 87bd 8303 573e
000002a0: c686 4c3e 33d9 61bd 7ee2 d8bd c1d0 3d3e
000002b0: 0c04 e93e 3110 8dbe 7c54 653d 454b 213e
000002c0: 97a5 dcbd 2eb5 77bd a9d2 4f3d fdc0 12be
000002d0: a68b c9bd 3f34 babe 49a4 513e 9bdb e73d
000002e0: 2444 abbe 4a53 71bd 1894 15be 67af 37bd
000002f0: d99d 103e cd32 5cbe d64f a4be 1154 a9be
00000300: 33d7 de3d 041b 22bd 7e3b b93b ea05 af3e
00000310: 22ca c43c 6db5 a8be f516 b6bc 9c12 293e
00000320: 9314 db3c 66ff 03bd d0dc 41bd bb0c c2bd
00000330: daca de3e 3770 083e 4bb4 10bd 36ca 0c3d
00000340: 6fc4 6e3d ddc3 7fbe 5280 323e 5cd2 4a3e
00000350: 494b 1cbe cb7e 3bbd 6023 41bc f07d f83d
00000360: fb43 a33e 5022 053d 4eda 4abd 4a94 86be
00000370: 8384 8bbd 527a 24be b3a8 a4bd e2f9 76be
00000380: 0f3c a93e fdec 95bd c1d7 1fbd ce33 f1be
00000390: c9cc 57be 1b03 8c3e 051f ddbe 81e5 743d
000003a0: b4e1 98be ffb9 93be 37f1 9abd cb36 dfbd
000003b0: db14 c5be a470 8fbe c116 b4bd bd46 35be
000003c0: 536a 3d3e 6289 d03a fe63 323e 2149 e1bb
000003d0: 77c9 79bd f5a5 123e dd5f 57be 333b bb3d
000003e0: 7e62 f1bc 8788 87be 12a3 c8bd b3e2 2fbe
000003f0: eecc c4bd 89bc 9d3b c4ab 24bc e5bd 183e
-0.008859607 0.03247382 0.1345006 -0.2647112 -0.18811691 0.065668 -0.1258827 -0.0014627556
-0.071229465 0.20940581 0.03634538 0.30195847 -0.15513895 0.04559153 0.25350899 0.19236276
0.19108215 0.29698554 0.3746174 0.23156808 0.009583353 -0.18757424 -0.46340442 -0.05193823
-0.141602 -0.005630779 -0.13643785 0.27532884 -0.083117254 -0.16012989 0.33745384 0.03193429
0.10525351 -0.20969515 -0.19550756 -0.22375154 -0.0514287 0.30232927 -0.20049585 0.19076174
0.009250351 0.33742663 0.061077356 -0.034670092 0.30793986 0.17951208 0.06021265 -0.30672804
0.39348897 -0.3920661 -0.21082024 0.09721103 -0.03728756 0.14126861 0.115311556 0.5027273
0.31779292 0.074373625 0.13453396 0.06125254 -0.1572323 -0.090936 0.082862094 -0.02956894
-0.09342866 -0.20929731 0.2732156 -0.14820358 -0.3357342 -0.16926984 -0.049509365 -0.3813444
-0.43569455 0.7075575 0.14979313 -0.078303695 0.23188072 -0.3530655 0.09272768 -0.05841534
-0.14114554 -0.20048961 -0.13396846 -0.16971043 0.15298033 0.10750735 0.17005835 -0.3174991
-0.29452157 -0.30365032 -0.3602944 0.18256319 0.26847726 -0.125498 0.0145503525 0.45143515
0.019715268 -0.18806793 0.10707882 -0.12716638 0.1253722 0.41270044 -0.28518876 -0.040492587
-0.3237137 0.09384772 -0.23237158 0.10341403 0.26511014 -0.057157826 0.2452526 0.1186698
-0.14236687 -0.10463387 -0.05464959 0.030244576 0.10418728 -0.032437444 0.07162541 -0.05341202
0.0075886403 -0.093707204 -0.06477259 0.0030283122 -0.25783294 0.03204325 -0.16964555 0.042696524
0.042477325 -0.1708083 -0.30972534 -0.034473173 0.123599105 -0.004622867 0.19063395 0.053450823
0.20898041 -0.1261023 0.002504548 -0.449151 -0.41663644 -0.17595635 -0.35360757 -0.012946721
-0.18494295 -0.061359245 0.13915986 -0.058019944 0.3546965 -0.19753428 0.30833974 0.09121372
0.032568555 -0.087376736 0.4490223 0.0028722002 0.24846852 -0.15137963 0.10478844 0.24593176
-0.34426978 -0.008316462 0.018076245 0.42764333 -0.38775 -0.3480865 -0.0662269 0.20997433
0.19973287 -0.055138778 -0.10590075 0.18536665 0.455109 -0.27551416 0.055988774 0.1575137
-0.10773771 -0.06047552 0.05073801 -0.14331432 -0.09841089 -0.36367986 0.20472826 0.11321183
-0.33450425 -0.05891732 -0.14607275 -0.04484501 0.14122714 -0.21503754 -0.3209216 -0.3307195
0.1088089 -0.039576545 0.005652844 0.341842 0.024022166 -0.32950917 -0.022227744 0.16511005
0.026743209 -0.03222599 -0.047329724 -0.094750844 0.43514138 0.13324057 -0.03532819 0.03437253
0.058292802 -0.2497706 0.17431763 0.19806808 -0.15263094 -0.045775216 -0.011788219 0.12133396
0.31887802 0.032503426 -0.049524598 -0.2628501 -0.06812384 -0.16062286 -0.08039989 -0.2411876
0.33053634 -0.073205926 -0.03902412 -0.47109836 -0.21074213 0.2734612 -0.4318773 0.059789184
-0.29859698 -0.2885284 -0.07565539 -0.10899123 -0.38492474 -0.28015625 -0.087934025 -0.17702766
0.1849759 0.0015910084 0.17420956 -0.0068751727 -0.060983147 0.1432112 -0.21032663 0.09142151
-0.02946591 -0.2647135 -0.09796728 -0.17176323 -0.096094 0.004813735 -0.010050718 0.14916189

bias f4 [50]
00000000: 03a9 643d 9eb3 c53d 0743 9abd 2b5a 04be
00000010: a8b9 443d c3f8 d93d 57ee 283e 6574 0ebe
00000020: 1c93 363e 91c7 f9bd 5ce1 873d e175 f23c
00000030: 5120 993b af85 703d e6f8 b33c 4fcc 00be
00000040: 1c97 16be ed39 e73c b7be 503d 0a22 afbd
00000050: 029a 083e 969a f8bc 3272 96bd ffdf fe3c
00000060: 52f0 8d3d 6ba2 763d 4bb0 e2bc 7f5e a43d
00000070: 70b7 fd3c 541e d2bc d5e9 0c3e 2f87 fc3d
00000080: d266 a73d 304a 17be 357c 3ebd 1097 a03d
00000090: faf3 c3bd 9a96 3b3d 9336 8fbd ae8e 87bb
000000a0: 39b2 b3bd f8e4 eabd 13fa 7bbd 1671 3ebd
000000b0: ecc4 383b 05ff d8bd c852 03bd b177 1dbd
000000c0: d332 a7bd eebb 6dbd
0.055825245 0.096534 -0.07532316 -0.12925021 0.048028618 0.10643151 0.1649717 -0.13911588
0.17829555 -0.121962674 0.06634781 0.029597225 0.004673042 0.05872124 0.02196927 -0.12577938
-0.14706081 0.028225863 0.05096313 -0.08551414 0.1334 -0.03034715 -0.07346 0.031112669
0.06930603 0.060213488 -0.027671954 0.08025836 0.030971259 -0.025649227 0.13761075 0.12330472
0.08173908 -0.14774394 -0.04650517 0.07841313 -0.09568019 0.04579792 -0.06992831 -0.004136882
-0.08774228 -0.114694536 -0.061517786 -0.046494566 0.0028193546 -0.10595516 -0.03206137 -0.038444225
-0.08163991 -0.05804055

weight f4 [50, 50]
00000000: af5a 2ebd 4df6 b73d 2304 b4bd 108b cc3d
00000010: b48c 543d 9266 173f 2152 fd3d 7e79 7ebe
00000020: ca59 4e3e d5b7 cd3c a0b6 a2bb 9d03 c2be
00000030: 6286 923e eaad 383e 5318 febd fe0e 6abd
00000040: a574 8fbe 3576 ac3e acfb 8a3e 9375 a13e
00000050: c74f 06be 4999 2e3e 9319 17bd 9728 0f3f
00000060: 6b77 2ebd b9ee 5cbe 7141 1f3e abb9 113e
00000070: 88f3 c4bd 8361 7fbe 7235 34bc 6a9d 2cbe
00000080: 8e46 9ebd d588 43bd f8b2 b4bd d5ae f23c
00000090: 9e2b 943e 9944 7fbe b63e 013e 5bed be3e
000000a0: c333 bcbd d22a dabd 49be b5bd 8019 593e
000000b0: 57a6 3e3e f2df bcbc fbd7 85bd e34a 93be
000000c0: 95f5 9a3e aa0a 8e3d 00b9 0fbe 100f 94bc
000000d0: c9a0 253d 115d 6a3e 80cf 053e 1a61 cabd
000000e0: 0d90 b2be 3075 6b3e 688d a7bd 2ef7 3d3e
000000f0: 2dae c63e ff0b 673d f408 e7be 6c31 3f3e
00000100: 6d18 a0be d8c9 a6be cf03 e63d 6e0a fbbd
00000110: c594 b9be f959 be3e cbde 343e 8a15 d7bd
00000120: c3cf 043d a77a 323e 6cd5 e23e f401 953e
00000130: c3f7 c2bd d08b f5bc eeb4 4a3e 749a d0bd
00000140: aa0b b2bd 017c 13be 8c35 c3be 968f a7bd
00000150: 25f0 9f3e 779d b43c a2e7 493e 818f 8bbe
00000160: 8274 7e3d 2ec1 a93d d7e0 113e e42e 123d
00000170: 5d12 e03d 92f7 113e a864 66bd 5757 d9bb
00000180: 20c3 65bd a56b dcbd 0dc2 2bbe d3c1 e73d
00000190: 4774 93bd 5fa2 47bd dbc9 913e 3745 423d
000001a0: ee99 40bd 6135 01bd 7946 9dbe 49ef eebe
000001b0: 9408 af3d 9179 0f3e 7ff6 553e d7d6 233e
000001c0: f029 af3c d907 f23d f6e4 033e dd10 a1bc
000001d0: 46d1 bc3e 4807 c03e 7052 18be cb8a 17be
000001e0: 8f71 2ebe 443a ecbd 409a 0dbe 2d99 c23e
000001f0: 140f 4c3d 3038 49be 07d9 50be 5e30 563e
00000200: 9951 6f3e a264 7bbe 655b 26be 08f4 fb3d
00000210: b1b8 e3be 5ffb 3cbe 59e4 a2be 22e3 193e
00000220: e2eb 18be 2327 c63b 3bb7 6abe a091 fcbd
00000230: 7ad1 923e 0057 20be c318 75bb 874d 3b3e
00000240: 191c aebd 64fb f63d 2044 673c 708d d3bd
00000250: 74f6 813b e41d 2fbe eccc fe3d 2795 c7bd
00000260: a6d9 a03d d2ce 0d3e 9b82 33be 85f6 9d3d
00000270: 6c86 e0be 2c68 a93c e97d 643d d862 2fbf
00000280: 0f1d 8c3e 4fd5 c2bd 3f17 3abc 01ca 92bd
00000290: c1bd 3ebe e37f ea3c 0ac9 00be f241 12be
000002a0: 3fc7 80bd 2eaa 423e caa3 253e e136 203c
000002b0: 0108 023c 2987 f5bd 2f75 10bf a7fb 903e
000002c0: 8e60 d5bd 3571 3b3e 2298 87bd 9158 febc
000002d0: 7393 babc f062 8c3d 2146 223e dd89 f13c
000002e0: 0af5 84be a14a 2d3d b970 90be d2b4 2cbe
000002f0: 2002 263d bc0d 95be f83b 9dbe ecda 4b3d
00000300: da85 f7bd 3081 11be 94c9 5f3d e584 46be
00000310: 8190 5f3e 5e81 59bb 386f a5be c986 f43d
00000320: 04c5 aa3d 81fd 1e3e f00b 5dbe 5e3e 79be
00000330: adb5 1f3e 9431 1dbd 7e2b 40be 2576 923d
00000340: 9fa4 e33d 1b7b a5bd f0e9 84be 2b50 f33b
00000350: cb8e 49be d235 803c b459 013e 1b91 91be
00000360: 4d8d 97be b8af 0abe f073 94bc 2796 833e
00000370: bd78 93be fd63 8f3e b6a8 fd3c 579b 0fbc
00000380: ae83 053d d07f 063f a4cb a33e b506 02bd
00000390: b329 1abe cc28 3c3e a9e5 843d 1d87 843c
000003a0: 0d05 963e 6b1c 333e e607 6bbc 8710 103e
000003b0: 0385 bebe 20b1 d8be a27d 88be 5735 7f3e
000003c0: 7692 c63d 3c6c d23d 9b2c 553e 61c5 673e
000003d0: e22a 0fbf 2129 5dbd 6da3 a23d 60a1 69be
000003e0: a847 54be a44c 703e d6d3 053e 7984 82be
000003f0: 434a ae3d 46ef 533e f018 4fbe 30e9 07be
-0.04256695 0.08982525 -0.087898515 0.099874616 0.051891997 0.59140885 0.123691805 -0.24851033
0.2015144 0.025112072 -0.0049656183 -0.37893382 0.2861815 0.18035093 -0.12406983 -0.057143204
-0.2801868 0.33683935 0.27145135 0.31535015 -0.1311637 0.17050661 -0.036889624 0.5592131
-0.042594355 -0.2157544 0.15552308 0.14230983 -0.096167624 -0.24939542 -0.0109990705 -0.16856924
-0.07728301 -0.047737915 -0.08823198 0.029624382 0.28939527 -0.24928512 0.12621579 0.37290463
-0.0918956 -0.106526986 -0.08874185 0.21201134 0.18618141 -0.023056004 -0.06535336 -0.28768072
0.3026549 0.06935628 -0.14035416 -0.018073589 0.04043654 0.22887065 0.13067436 -0.09881802
-0.34875527 0.22993922 -0.08181268 0.18551323 0.3880476 0.056407925 -0.45124018 0.18671197
-0.31268635 -0.3257587 0.11231195 -0.12257849 -0.36246315 0.3717802 0.17663114 -0.10502155
0.0324247 0.174296 0.44303453 0.29103053 -0.09519913 -0.029973894 0.19795582 -0.101857096
-0.08693631 -0.14402772 -0.3812679 -0.08181684 0.31237903 0.022047741 0.19717267 -0.27257922
0.06212283 0.08288799 0.14245926 0.03568925 0.109410025 0.14254597 -0.056248337 -0.006632726
-0.05609429 -0.10762719 -0.16773243 0.11316266 -0.071999125 -0.048738834 0.28474316 0.04742929
-0.0470218 -0.031545047 -0.3071783 -0.46666935 0.08546558 0.14011218 0.20894812 0.15999924
0.021382302 0.11817903 0.1288031 -0.019661361 0.36878413 0.37505555 -0.14875197 -0.14799039
-0.17035507 -0.11534551 -0.13828373 0.3800749 0.049819067 -0.1965034 -0.2039529 0.20916888
0.23370971 -0.24550107 -0.16245802 0.12302405 -0.44476846 -0.18455265 -0.3181484 0.1502805
-0.14933732 0.006047146 -0.2292146 -0.12332463 0.28675443 -0.15658188 -0.0037398792 0.18291293
-0.08501453 0.12059668 0.014115363 -0.103297114 0.003966147 -0.17101246 0.124414295 -0.097452454
0.07854013 0.13848427 -0.17530291 0.077130355 -0.43852556 0.020679556 0.05578414 -0.685102
0.2736592 -0.09513342 -0.011358081 -0.071674354 -0.18627073 0.028625434 -0.1257669 -0.14282969
-0.06288003 0.19010231 0.16175762 0.009778709 0.007936479 -0.119886704 -0.5642881 0.28316996
-0.10418807 0.18304904 -0.06620814 -0.031048091 -0.022775387 0.06854808 0.15847065 0.029484684
-0.259682 0.0423075 -0.28211 -0.16865852 0.04052937 -0.2911204 -0.30709815 0.049769327
-0.12086077 -0.14209437 0.0546356 -0.19386633 0.21832468 -0.003318868 -0.32311416 0.11939771
0.08338359 0.15526392 -0.21586585 -0.24340197 0.15596648 -0.03837736 -0.18766591 0.071514405
0.11115383 -0.08080121 -0.2595973 0.0074253283 -0.19683377 0.015650664 0.12631875 -0.2843102
-0.2959999 -0.13543594 -0.01812169 0.25700495 -0.28803053 0.28005973 0.030964237 -0.008765063
0.032596283 0.52538776 0.31991303 -0.031744678 -0.1505497 0.18374938 0.06489117 0.016177708
0.29300728 0.1749131 -0.014345145 0.14068805 -0.37210855 -0.42322636 -0.2665835 0.24922691
0.09695904 0.1027455 0.20817797 0.22633888 -0.5592481 -0.0539943 0.07941327 -0.22815466
-0.2073046 0.23466736 0.1306909 -0.25491694 0.08510258 0.20696744 -0.20224357 -0.13272548

bias f4 [50]
00000000: 7976 2d3e 9997 873d 760c ebbd 802f ca3c
00000010: 0f0f 87bd 290f 39bc a90b 55bd 50ce ffbb
00000020: 9238 b5bb a723 2cbd 2bfb 92bd bd5d 1fbd
00000030: 8b97 c4bc 6733 623d cac7 22be 396c 803b
00000040: b8e2 84bb 3016 93bd ef03 e73c 668e 72bd
00000050: 637f b63d 2ade dbbd ad62 003d 1f63 0d3e
00000060: d006 d3bd 3fbb df3d 7e09 7fbc dcc8 c6bd
00000070: 53cc 9abd 5ecc fc3d 2e1b eebb f4e8 263d
00000080: 5ba3 c83d aabb 32be 2f73 71bd 3f9a b13d
00000090: 6e6c d3bd c233 7b3d 6e20 bf3d 2bc0 ffbd
000000a0: 65d9 f6bd 9392 bd3c a014 1ebe 35bb 513d
000000b0: dab2 aebd d76c d13d 99d5 2bbd 6fed b63d
000000c0: 96ce e13d d6ba 013d
0.16939725 0.06620712 -0.11476986 0.024680853 -0.06594669 -0.011295118 -0.052013073 -0.007806577
-0.0055304253 -0.04202619 -0.07176813 -0.038907755 -0.023998043 0.055224802 -0.15896526 0.003919151
-0.0040553473 -0.07181966 0.028200118 -0.059217833 0.08911016 -0.10735734 0.031344105 0.13807343
-0.10304034 0.10924386 -0.015566228 -0.0970628 -0.07558503 0.123436674 -0.0072664237 0.040749505
0.097967826 -0.174544 -0.05894774 0.08671998 -0.10323416 0.061328657 0.09332357 -0.12487825
-0.120531835 0.023141181 -0.15437555 0.051203925 -0.08530207 0.10225838 -0.04195175 0.089320056
0.11025731 0.03167232

weight f4 [1, 50]
00000000: aa4a 14bf c057 e53a 2b1e 303d 61b2 b1bc
00000010: 16f4 8d3e 1d2b f1bd f477 9cbd 3af9 8e3e
00000020: 26ab 5ebf 9242 17be e560 c73e fc2d d63e
00000030: a770 2b3e 0986 f33d bb32 3fbe 173c 813e
00000040: d5b1 e03c 872d b4be ab03 ebbe a6af 68be
00000050: 33a3 8d3d 9624 87bd 7b95 113f 6631 233f
00000060: ed9e 703e 7a1f da3e d6c4 dbbe c531 e5bd
00000070: fe67 8e3e 4e46 af3d 3f3a 183f 5c3c 913e
00000080: b42b 223f 5f96 cd3d 494b 613e 4f3b 5f3e
00000090: 473d bb3e cc55 0bbe a259 4fbe a7de d13e
000000a0: 6165 9d3e 7fee 883e 2b8a 453e 39d8 82be
000000b0: a273 f7bd 5f13 803e dff4 e8bd 3f02 e13d
000000c0: f34b 9bbc 0a19 703d
-0.5792643 0.0017497465 0.04299752 -0.021691503 0.27725285 -0.11775801 -0.07640067 0.2792452
-0.869799 -0.14771488 0.38941112 0.41831958 0.16742192 0.118907996 -0.18671696 0.25241157
0.027428547 -0.35190985 -0.45901236 -0.22723255 0.069158934 -0.06598775 0.56868714 0.6374725
0.23498125 0.4260214 -0.4292361 -0.111911334 0.27813715 0.085583314 0.59463876 0.28366363
0.63347936 0.10038447 0.22001375 0.21799968 0.36570188 -0.13606948 -0.20249036 0.40990183
0.30741408 0.26744458 0.19290988 -0.2555559 -0.12082602 0.2501478 -0.113748305 0.109867565
-0.018957114 0.05861763

weight f4 [50, 2]
00000000: d4a6 44be 4012 9e3e fd49 e33d aebf 25bd
00000010: ae1e 1dbe 4b20 843e cd24 9ebe bc8b c83d
00000020: 75a0 5bbe 130a c9bc 1bdb 69be 973e 88be
00000030: bc2a b3be 53c2 263e 7759 00bf dd65 68be
00000040: 3de0 1ebe ea86 19be 2368 0d3e 5249 6d3e
00000050: 5fd4 bf3e 5dd9 d23e dbe5 213d 4cf5 adbd
00000060: dde0 d7be b7f3 5b3e 1b19 b1bd ef8a f6bd
00000070: c029 00be ef1a aebe 00a1 133e 9f23 f93e
00000080: 13be afbe 7b99 26be 0415 76bf 8820 183e
00000090: a2cf 81bc b93b f23e 73fc bbbd 4036 65be
000000a0: f4ec 90bb d5dd 253f 1759 5bbf b72c bfbe
000000b0: 3955 9c3c 1492 6bbd ea6f 443f c837 013e
000000c0: 0ac4 66be 1e39 cf3d a713 90be 474b 0ebd
000000d0: d80a ddbd db4b b6be 0148 5bbd f8a9 22be
000000e0: 92d6 d8be ca5e c23c 106d 9fbc 2eb9 c53e
000000f0: 3f78 87be ac19 1b3d c9c0 be3e 5ea7 063d
00000100: 11a1 db3e 4802 21bf eddb 513e 85ad 2abc
00000110: f92d a0be 22cf 50be 0d4b 393f 1383 95be
00000120: 356d 613e f6f7 48bf 8527 843e 5475 20bc
00000130: fac1 ddbd 0b03 41be 156b d03d cf3a 00bf
00000140: f46a 1e3e 20c9 c7bd 1378 cd3d fdab 0f3e
00000150: 02e4 a43e 9967 313e 2709 9fbe 6909 be3e
00000160: 8ab6 963d 875a b83b cdcc 7b3e 40ba b5bd
00000170: d6b2 243e 48f6 6dbe a78f 4fbe bc4f 073f
00000180: 8b2c 02bf b54f 763e c703 10bf 8849 c2be
-0.19204265 0.308733 0.110980965 -0.040466003 -0.15343735 0.25805888 -0.30887452 0.09792277
-0.21447928 -0.024540937 -0.22837488 -0.26610252 -0.3499354 0.16285066 -0.5013651 -0.22695108
-0.15515228 -0.14992872 0.13809256 0.231725 0.37466714 0.4118146 0.039525848 -0.08494052
-0.42163745 0.21479689 -0.086473666 -0.12038218 -0.12515926 -0.34004924 0.14416885 0.4865999
-0.34324703 -0.16269486 -0.9612582 0.1485616 -0.015846077 0.4731119 -0.0917901 -0.22383976
-0.0044227783 0.64791614 -0.85682815 -0.37338802 0.019083606 -0.057512358 0.7673327 0.12618935
-0.2253572 0.10118316 -0.28139994 -0.03473976 -0.10793084 -0.35604748 -0.053535465 -0.1588515
-0.42351204 0.02372684 -0.019461185 0.38617843 -0.26458928 0.03786628 0.37256458 0.032874458
0.4289632 -0.62894106 0.20494051 -0.010417347 -0.31285074 -0.20391515 0.72380143 -0.29201564
0.22014315 -0.7850336 0.258114 -0.009793598 -0.10828014 -0.18848817 0.10176674 -0.50089735
0.15470487 -0.097551584 0.10032668 0.14030452 0.32205206 0.17324676 -0.3106167 0.37116554
0.07359035 0.005626026 0.24589844 -0.08873415 0.16083845 -0.2323848 -0.20269643 0.5285604
-0.5084922 0.24053843 -0.56255764 -0.37946725

bias f4 [50]
00000000: 1f08 65be ef6e 193d aeb4 b4be 520d 2a3f
00000010: 1a56 a03e 7056 75be 10ac 16bf 31ea d1be
00000020: da5d e23d 44f0 1a3f ef4e c73e 6c93 1ebf
00000030: 43f4 b53e 2c2a 65bd a0d9 6dbe 00a6 78be
00000040: 3e39 5dbc 5c35 8a3d 84c9 e53d 692e 55be
00000050: 1c4b 8cbe 452e 143f 81c8 d1be 268d 75be
00000060: d367 61be 7b36 eebe 45f6 57be ad2f cebe
00000070: fba0 373f ecb8 f6be e4b6 2d3f d113 babe
00000080: 6b17 603e 3086 9dbe 04ee 0a3f ebf3 9cbe
00000090: 1ba2 043e 3492 54be f4bc 163f e7f4 073f
000000a0: 8712 253e bf2c 49be 172d 2dbf 87e1 9e3d
000000b0: cc35 723d 2a16 1f3f 0686 2dbe eb51 683e
000000c0: 4e68 3e3e ba75 86be
-0.22366379 0.03745931 -0.35294098 0.66426575 0.3131569 -0.23958755 -0.58856297 -0.40998986
0.11053057 0.60522866 0.3892741 -0.619437 0.3553792 -0.05594842 -0.23227549 -0.24282074
-0.013502417 0.06748459 0.11220077 -0.20818485 -0.27401054 0.578831 -0.40973285 -0.23979625
-0.22012262 -0.4652594 -0.21090038 -0.4027075 0.7173001 -0.4818796 0.67857194 -0.36343244
0.21883933 -0.3076644 0.54269433 -0.30654845 0.12952463 -0.20758897 0.5888207 0.53108066
0.16120349 -0.19645976 -0.67646927 0.0775786 0.059133336 0.62143195 -0.16945657 0.22687499
0.18594477 -0.26261693

weight f4 [50, 50]
00000000: 93e5 c5be 1495 9c3d d95a 00be c72c 68bd
00000010: bdbc 0abe ef68 103e 424d 06be be49 4ebe
00000020: 9c82 4b3e 7673 82be 08ff 94bd d28f 5e3e
00000030: ab13 a1bd 07df 093e 740f 7bbd 8114 61bc
00000040: f042 e8bd c486 d03c a5db 6f3d 1b95 023e
00000050: e2f1 ca3d d613 823c 4f46 363d 17c5 a23d
00000060: 4a55 353d 32c8 353e b76d 6dbe 925d 1bbd
00000070: c93e 413e afae ea3d 6eae 30be 01e9 483e
00000080: 4f4d 2e3e 0582 173e 721c 8abd fa37 b4bd
00000090: dfc7 793d a1ac 8cbe 91c5 ac3d f07e b0bd
000000a0: 2455 c4be 0d4e c93e 4116 7b3e 2217 213e
000000b0: 1025 173e d95e 48be 5a7a 6e3e 8623 873e
000000c0: efca bebc 828b 9a3e e284 ae3e 54f3 9ebd
000000d0: 8b04 2abd 89fd 3bbd 7c22 c73e b562 f2bd
000000e0: c90b 323d 19aa c03d b254 4b3e 8d08 aabc
000000f0: d55e d53d d3d2 d9bc c691 4a3d 3d55 48bd
00000100: 0519 82bd 1f4a b03e 0eee 64bd 4a42 33be
00000110: 204a 783d b4dc 273c 1551 123e 08e0 acbe
00000120: 7439 063d 5a0b 0fbe d98e e93d d7b6 87bd
00000130: c66b 6f3e 353a 3cbe adc9 e3be 9c39 a33e
00000140: d223 8dbd 0eac 1c3d 5620 b0bc 7ca2 863d
00000150: f20c 40be 0133 94bd 9dd0 4e3e 9d41 5c3e
00000160: 985f 693c 44d4 253e db3b e43c 6a1e 643e
00000170: 805a 613e 003c 3cbd 10f1 973e ccf8 85bd
00000180: 589b 01be 3757 ce3b a099 5b3e 181a 1bbe
00000190: 4214 05be 9f8d 3cbd c573 87bd e9b2 14be
000001a0: a2e5 153c 5766 2cbd c3d1 803e 8229 b13e
000001b0: 72a0 91bc 5af6 ad3e 5688 033e 4f5b 53be
000001c0: caf4 d0be 4e80 83bc 0115 03bd 6fc1 763e
000001d0: 1cc3 54be e543 a0bc e3bf 03be dade 933e
000001e0: 2d40 093d 4f23 b8be 24cb f5bd 578c 1abe
000001f0: c671 75be 54cc 5f3e cda1 d53e 9a6d 063e
00000200: bc6c 17be 4635 723e bd61 d83d b31f ddbd
00000210: 1ac2 773e b56b 00be 6d13 40be a82b 12be
00000220: 03ac 083e a811 8f3e 584a a6be ad85 38bd
00000230: 9fe3 2c3d 210c bbbd fa02 eebc f58d 45be
00000240: 7362 e1bd f3e4 ccbe c5c5 c4bd 2d6f 70be
00000250: 29a1 213d 81fa 403e dd50 003f b24d 82bc
00000260: 4316 b33a 682c afbd 44b5 053e b483 00be
00000270: 87cc f93e fe4e 963e 8d9b 253e 9b72 92bd
00000280: 8481 fdbd c061 663d 3337 943e 71db 8cbe
00000290: 6c06 5bbe c233 2fbe 3c88 80be 9d1c cb3d
000002a0: d572 07be 4096 853e 60d2 1f3e 9760 a13e
000002b0: d169 0ebe 923f 66be 3ea2 80be c84f ecbe
000002c0: 90be 113e 705b 943e 2b04 a5bd d5d7 a13e
000002d0: 16f6 f93b aac0 51bc c808 873e b819 94bc
000002e0: be52 14be b3d5 90bc ef1a df3c 355f 34bd
000002f0: 0256 1cbf 5af5 c63d 2608 97bd c8a1 953e
00000300: 6138 d6be 4ddd 1bbe dec3 9f3e aa4f 523d
00000310: fe2b a83e a725 99be d29b 883e 0135 f63d
00000320: bf6f 33be 54bc 3bbd a656 a33e bd45 66be
00000330: 2823 aebd c8d8 2c3e e603 a13d fe77 8bbe
00000340: 7345 c4be ecdf 593e 866b 3ebe 5226 793d
00000350: 6ed4 6bbe e68a d63e 1b07 943e 8662 ff3d
00000360: 7b57 2b3e 4195 493d 1a29 5b3d 1d32 4f3b
00000370: f44d 8d3d ffbe 943e 09c0 29be 1d55 4ebd
00000380: ecaa 093c 91b1 833e 9efa 643e cc26 7c3e
00000390: 452c 873e 4531 27be f5e1 44be 7a4f afbd
000003a0: 57ed 08bd e608 573e d8f1 b43d 9649 983e
000003b0: fed8 9dbe fbb4 95be ed73 003e f0cb f7bd
000003c0: 1f88 e2bc 8af5 53bd 046b af3e 8d2e b23d
000003d0: 691a 213e 7d9d 5cbe d18d c2bd e239 a63e
000003e0: da50 5dbe f36c 2ebf c7ca c9be c43d 94bd
000003f0: 235a 33bd cf4a 8fbe 0fd4 f03d 890c 59bb
-0.38651714 0.07645622 -0.12534656 -0.056683328 -0.1354856 0.14102529 -0.13115409 -0.20145318
0.19874042 -0.25478715 -0.07275206 0.2173455 -0.078650795 0.13463984 -0.061294034 -0.013737799
-0.11340892 0.025454886 0.05855908 0.12752192 0.09909417 0.0158786 0.044500645 0.07947748
0.04427079 0.1775215 -0.23186384 -0.037931032 0.18871607 0.114590995 -0.1725404 0.19620134
0.17021678 0.14795692 -0.06743707 -0.08799739 0.060981628 -0.27475455 0.0843612 -0.086179614
-0.38346207 0.3931736 0.24520208 0.1573148 0.14760232 -0.19567432 0.23288861 0.2639429
-0.023290126 0.3018456 0.34085757 -0.07761255 -0.04150824 -0.045896087 0.38893497 -0.11835233
0.04346827 0.094074436 0.19856527 -0.02075603 0.104184784 -0.026589787 0.049455427 -0.048909415
-0.06352428 0.3443155 -0.05589109 -0.17505756 0.060617566 0.010245491 0.14288743 -0.33764672
0.032769635 -0.13969174 0.11404199 -0.06626671 0.23380956 -0.18381579 -0.44489804 0.3187989
-0.06891598 0.03825002 -0.021499794 0.0657396 -0.18754938 -0.07236291 0.20196767 0.21509404
0.014243983 0.16194254 0.027860573 0.22277227 0.2200718 -0.045955658 0.29676104 -0.06541595
-0.12656915 0.006297018 0.21445322 -0.15146673 -0.12996009 -0.046033498 -0.06613878 -0.14521374
0.009148987 -0.042089786 0.25160035 0.3460198 -0.017776702 0.33977014 0.12844977 -0.206403
-0.4081176 -0.016052391 -0.032002453 0.24097227 -0.20777553 -0.019563625 -0.12866168 0.2888096
0.03350847 -0.35964438 -0.120016366 -0.15092598 -0.23969182 0.21855289 0.41725007 0.13127747
-0.14787573 0.23653135 0.10565517 -0.10797062 0.24195138 -0.12541087 -0.1875741 -0.14274466
0.13346867 0.27943158 -0.32478595 -0.04504936 0.042209264 -0.09133173 -0.029054154 -0.19292434
-0.11005106 -0.40018424 -0.09608034 -0.2347991 0.039460335 0.1884556 0.5012339 -0.015906189
0.0013663251 -0.08553392 0.13057429 -0.12550241 0.48788854 0.2935714 0.16172619 -0.071507655
-0.12378219 0.056245565 0.28948364 -0.2751117 -0.21389169 -0.17109588 -0.2510394 0.09917567
-0.13227399 0.26091194 0.15607595 0.31519005 -0.13907553 -0.22485188 -0.2512378 -0.46154618
0.1423285 0.2897601 -0.080574356 0.3160998 0.0076282127 -0.012802282 0.26373887 -0.01807867
-0.14484689 -0.017680025 0.027234523 -0.04403611 -0.6106874 0.09714766 -0.07374601 0.29224992
-0.4183989 -0.15221138 0.31204122 0.051345505 0.32846063 -0.2991154 0.2668138 0.120218284
-0.17523097 -0.0458339 0.31902045 -0.2248754 -0.08502799 0.1687957 0.07862072 -0.27239984
-0.38334236 0.21276826 -0.18595704 0.06082756 -0.23030254 0.41902846 0.2891167 0.12469964
0.1673259 0.049214605 0.053505994 0.0031615563 0.06899634 0.29051968 -0.16577162 -0.05037414
0.008402567 0.2572141 0.22361228 0.24624175 0.26400962 -0.16327389 -0.19226821 -0.08560081
-0.03342947 0.20999488 0.088351905 0.29743642 -0.30829614 -0.2923964 0.12544222 -0.12099445
-0.027652798 -0.051747836 0.34261334 0.08700285 0.15732731 -0.21544452 -0.094997056 0.32466036
-0.21612874 -0.68134993 -0.3941252 -0.07238343 -0.043787133 -0.27986762 0.11759197 -0.0033119044

bias f4 [50]
00000000: 28ec 94bd c133 b0bd afdf ba3d e8c0 d938
00000010: 675d da3d d95a 14bc 969b b83d 605c 1abe
00000020: 0888 8cbd 59de 06be c777 f43b 9b0d b63d
00000030: 587a 77bd f087 fb3d 3a4f 24bd 3dac a83d
00000040: 0312 ba3c 60d7 f1bc 487c 37be aaa9 ff3c
00000050: d61c 16be f33b 793d 741c 043e 9bc6 1b3e
00000060: 8969 093e bb18 263d 9741 ff3d cb2f 8cbb
00000070: bb8b 64be 0aca d93d b9ad 583d 4712 34bd
00000080: 281e 143b 58a3 353e 2e4c 0f3e 319e 603d
00000090: 454a be3b bf45 dd3c 20ff 9a3d 6430 acbd
000000a0: e79a c0bc f326 04be a790 bbbb 77b3 be3d
000000b0: 9a61 843d 71dd c1bd 8622 aebc a24f 943d
000000c0: 3622 95bd bc47 633d
-0.07271606 -0.08603621 0.091246955 0.00010383298 0.10662346 -0.009054863 0.09014051 -0.15074301
-0.068618834 -0.13170756 0.0074605676 0.08889314 -0.06041941 0.122817874 -0.04011462 0.08235977
0.022713667 -0.029521644 -0.17918503 0.031208832 -0.14659438 0.060848188 0.12901479 0.1521248
0.13419165 0.04055093 0.12463682 -0.0042781583 -0.22318928 0.10634239 0.05290005 -0.043962743
0.0022600982 0.17738092 0.13993904 0.054838363 0.0058071935 0.027010797 0.075681925 -0.08407667
-0.023511363 -0.12905483 -0.005724031 0.09311574 0.064639285 -0.09466065 -0.021256696 0.07241751
-0.07281916 0.055488333

weight f4 [50, 50]
00000000: 7fdc b1be 02ce 12bd ac90 bcbb c328 c23d
00000010: 3fe5 85bd 99db d5bd c161 7dbe c94a 9a3d
00000020: db92 aebd fcba cb3e 1d90 823e c91f 883d
00000030: 7e1a 97bd 12b1 10bf 1101 aabe 38e4 d43d
00000040: f273 603d efc8 abbe 6584 25be 1abd e6bd
00000050: 05c7 bc3d 5a67 8fbd ea6c 92be 90d5 ccbe
00000060: a999 e43b 4da8 30be 665c 40be 8568 c1be
00000070: 26ff 1e3f 4c93 8bbc c9cb 1b3e 7f2f 003e
00000080: 03fb bbbd cffc 6a3d 1018 383d 919b 6abe
00000090: 8755 953d c11e 0ebe 14f4 debc ee2a 01be
000000a0: 8046 4bbe a046 bd3e 8fc8 40bd a813 063e
000000b0: 2089 163e 96f7 953e 08d3 6abd b38b 6ebd
000000c0: 5627 b23e 6dd2 35be 8c27 57be beef bc3d
000000d0: 132b b53e 32f5 0fbe 981e ae3e bda4 88bd
000000e0: e5d4 153e fa48 4f3e 4d1c 98be 7f6e 563e
000000f0: 24bf 473e 7201 9b3e 366f 13bd cf43 153f
00000100: d2ab a3be 3e2f 153e 039e 483c 5795 133d
00000110: 42a0 18be b52a 24be 3207 02be 0373 5a3d
00000120: 207b cdbd 023a 56be cfc2 b8bd 2586 363e
00000130: 5dd6 e03d 60c2 5ebe 543c ae3d 3733 0bbd
00000140: f6a2 333d 1e2c 6fbc ad2a b7bd 62e7 c5be
00000150: 9b06 90be 1d8a 933d f24b e13d 6998 c43d
00000160: f65b 213f b24c 613e 9cae 023e 4047 97bd
00000170: 4df1 cc3e d103 0a3e 3191 333d 03ad 0d3e
00000180: 473a 99bd dff8 b03e fe26 973d d16b a83a
00000190: a82c 573e 0689 85bd 4f58 34be cc5a 91bd
000001a0: cd89 57be 196e e33d 74fc c03d b366 723d
000001b0: 28ea dcbd 7b75 563e f09e afbd a7bd 6c3e
000001c0: 5eec e53e cb57 88be 1209 94bd 7399 20be
000001d0: ac39 4abd 7382 3a3e 4a12 b4bd 9058 98bd
000001e0: d989 343e c2e2 9f3e 9c3d 92be 06e8 1abe
000001f0: f464 cfbd 2e4c 433d c9fb 1dbe 1ede b9be
00000200: 79c8 49be cf3a 4c3e c1f3 f53d 0ca9 f43d
00000210: 81dc 353e 8663 a7be 9651 b8be 2c64 8b3e
00000220: c791 61bc 7a19 4d3e 95bf 86be fab2 133f
00000230: b85e 853e 4212 57bd 93b1 bb3e 239b 573e
00000240: c200 113e 20dc 29bd f9b2 4f3c 8735 20be
00000250: 6861 9f3e c926 88be 5d2c 553e 10e0 483e
00000260: 48b1 283e 118b d43e b834 14be 5ab4 5d3d
00000270: 4b2f 29be c653 49be 2703 56be ec7f 33be
00000280: f13d bcbd 0f0c 873c 4675 19bf 6dc7 e3bd
00000290: bbd1 90be bb86 acbc 7117 3b3e ef0d 2b3e
000002a0: d89e 7fbd ee6a 293b f466 13bd bc56 903e
000002b0: 517d 54bd d4f3 b83e c718 143d 2adf f03d
000002c0: fb29 42be bec6 f6bd fcb7 bf3d c3c3 343d
000002d0: 5edb 3fbe 5b4a 223e 0505 c93e b1c6 8cbe
000002e0: addf aabe 2ef9 78bc fd8b 813b 6d48 9dbe
000002f0: 39f2 593e cff8 9bbd a977 59be 3efa 99be
00000300: 90fc 293d 331c e33d c736 c63d 66b3 3f3e
00000310: c5af 1b3e 4afa 1bbe ece4 17bf fe52 743e
00000320: 6d70 6e3d a21f 9f3c 5fe2 68be 7145 8a3d
00000330: a0ac 56be 9b01 b5bd 806c 7cbe ff4e 443d
00000340: 0a18 5e3d 4b2a ddbe 2b64 40be 02d8 eabe
00000350: 99cc 6c3e 9715 86be 17af 4f3d 8edf 3ebe
00000360: c0e1 9c3d abab 2a3e d4a3 593e 6d54 a03e
00000370: de12 f1bd 9a23 5f3e 1ce6 26be 82c3 11be
00000380: f38b 91be 693e 68bd 0dfb 3d3e c96f 813e
00000390: d21d 3dbd 5ca4 843e ce44 e93e e46b 88be
000003a0: 99d0 fd3c 3dd0 c73e b44d 82bc 24b7 45be
000003b0: 665f 29bd 008d 30be fe56 963e f881 023e
000003c0: 9f27 d5bd 3b48 8c3e c07b d3bb 7bd8 7fbd
000003d0: 292d a2be 13fa 2abd d1a2 6cbe 7935 9c3e
000003e0: 2f62 d73d 90eb 973c a32d 413e b2f3 243e
000003f0: a78a 303e 5a9c 3a3e 719d c83d acdc fbbd
-0.34738538 -0.035840996 -0.005754551 0.09480431 -0.06537866 -0.104422756 -0.24744321 0.075337954
-0.08524104 0.39791095 0.25500575 0.066466875 -0.073781 -0.5652019 -0.3320394 0.10395092
0.054798074 -0.33551738 -0.16163786 -0.11266537 0.092176475 -0.070021346 -0.2859872 -0.40006685
0.0069763255 -0.17251702 -0.18785247 -0.37775055 0.62108076 -0.01703801 0.15214457 0.12518118
-0.09178736 0.057370003 0.044944823 -0.22910906 0.07291704 -0.13878919 -0.027215995 -0.12614033
-0.19851112 0.36967945 -0.047066268 0.13093436 0.14700747 0.29290456 -0.05733016 -0.058238696
0.34795636 -0.17756052 -0.2101118 0.09225415 0.35384426 -0.14058378 0.34007716 -0.06672046
0.14631994 0.20242682 -0.29709092 0.20940588 0.19506508 0.3027454 -0.03599473 0.5830659
-0.31967026 0.14568803 0.012244704 0.036031093 -0.14904884 -0.16031916 -0.12698057 0.05333234
-0.1003325 -0.20920566 -0.09021532 0.1782461 0.109783866 -0.21753836 0.085076004 -0.03398439
0.043856584 -0.014597921 -0.08943687 -0.38653094 -0.2813004 0.072040774 0.110008135 0.095993824
0.63030946 0.22001913 0.1276192 -0.07386637 0.40027848 0.13478018 0.043839637 0.1383553
-0.07481819 0.34564874 0.07380484 0.0012849515 0.21013129 -0.06520276 -0.17611812 -0.07097396
-0.2104866 0.11104984 0.094231516 0.059179973 -0.10786849 0.20943253 -0.08575237 0.23119222
0.44906896 -0.2662948 -0.072282925 -0.15683536 -0.049371406 0.18213825 -0.08792551 -0.07438767
0.1763071 0.3122769 -0.2856263 -0.15127572 -0.10126677 0.047680072 -0.1542808 -0.36302274
-0.1970538 0.19944309 0.12009383 0.11946306 0.17759897 -0.32693118 -0.35999745 0.27224863
-0.013767666 0.2002925 -0.2631804 0.5769497 0.26048827 -0.052507646 0.36658916 0.21055274
0.14160445 -0.041469693 0.012676948 -0.15645419 0.31129003 -0.2659209 0.20817704 0.19616723
0.16473877 0.4151235 -0.14473236 0.054127075 -0.16521947 -0.19660863 -0.2089964 -0.17529267
-0.09191502 0.016485242 -0.5994457 -0.11122022 -0.28285012 -0.021060338 0.18270661 0.16704534
-0.062407345 0.0025851089 -0.035986856 0.28191173 -0.051877324 0.36123526 0.036156442 0.11761315
-0.18961327 -0.12049626 0.09361264 0.044132005 -0.18736026 0.15848677 0.39261642 -0.2749534
-0.33373776 -0.015196128 0.0039534555 -0.3071932 0.21283807 -0.07615816 -0.21237053 -0.30073732
0.041500628 0.11089363 0.09678417 0.18720779 0.1520377 -0.15232196 -0.5933368 0.23859784
0.058212686 0.019424263 -0.22742604 0.06751526 -0.20964289 -0.08838197 -0.24650764 0.0479269
0.054222144 -0.4319633 -0.18788211 -0.45867926 0.23124923 -0.26188347 0.050704088 -0.18639967
0.07660246 0.16667049 0.21253902 0.31314412 -0.11771177 0.21790925 -0.16298717 -0.14234737
-0.28427085 -0.056700144 0.185528 0.25280598 -0.046171017 0.25906646 0.45560306 -0.26644814
0.030983256 0.3902606 -0.015906192 -0.19308144 -0.041350745 -0.17241287 0.29363245 0.12744892
-0.10407948 0.27398857 -0.006453961 -0.06246231 -0.3167508 -0.041742396 -0.23108985 0.30509546
0.10516774 0.018544942 0.18865065 0.16108587 0.17240392 0.18223706 0.097956546 -0.12297949

bias f4 [50]
00000000: 5697 a1bd 01db 15be 27b0 873d d7a7 debb
00000010: 9d4d c0bd 8c65 01bd 8a33 74bd 7646 f13d
00000020: 7159 b93d 0591 f9bd 5d30 0f3e 6d52 0bbd
00000030: d557 403d acd3 46bb 75a5 e0bc b06f b1bd
00000040: d133 e5bc 52a6 efbd 7ae3 35bd fbba 5d3d
00000050: 818d efbc d85b 0ebe 2cd4 ea3d cae4 f3bd
00000060: d3b2 063e 7dbb 52bd 9819 c4bd 5a1b 5dbd
00000070: b68f 2e3e 9c8e 43be 2949 b9bd 81f8 fbbd
00000080: dde7 17be 708d cabc f1d2 1c3e ec91 d8bd
00000090: d183 afbc bd30 d83d 8ff4 3c3d 4a18 003d
000000a0: ab43 a3bd b43a 45bb 11ce 083e f321 0abe
000000b0: caed b4bd 5129 0fbe 8f64 6fbd 328d 03be
000000c0: d721 e3bd 43c8 993d
-0.07890193 -0.14634325 0.06625395 -0.0067949104 -0.093898036 -0.031590983 -0.059619464 0.117810175
0.09050263 -0.121858634 0.13983293 -0.034014154 0.046958763 -0.0030338569 -0.027422646 -0.08663881
-0.02797881 -0.11701645 -0.04440639 0.054133397 -0.029242279 -0.13902223 0.1146625 -0.119088724
0.13154154 -0.051448334 -0.09575194 -0.053981163 0.17047009 -0.1909737 -0.09047157 -0.12303258
-0.14834543 -0.024725646 0.15314843 -0.105747074 -0.02142516 0.10556171 0.046131667 0.031273164
-0.07971891 -0.0030094804 0.13359858 -0.13489513 -0.08834417 -0.13980605 -0.05844551 -0.1284683
-0.11090439 0.075089
