models/NeuralLSVModel_lowerbound_1e-08.pt (torch, 973390 bytes, 255 tensors)

weight f4 [50, 3]
000000 52 9e 4c 3e 47 fb 33 3e a5 c4 20 be 5a d8 ec 3e
       0.1998227 0.17576323 -0.15700014 0.46258813
000010 87 f3 0a 3e 78 d2 ce 3e 60 a6 12 3e f5 a9 78 3e
       0.13569461 0.4039495 0.1432128 0.24283583
000020 c2 64 38 be 1f f5 75 bd c5 e4 2b 3e 22 55 21 be
       -0.18007186 -0.06004822 0.16786487 -0.15755132
000030 93 43 ff be 05 e2 f7 3d 2b fa d2 3d 2c 1f 84 3e
       -0.49856243 0.12103657 0.10301622 0.25805032
000040 e8 d5 ed bd ae ee 85 be 80 96 57 3e b5 de 71 3e
       -0.11613065 -0.2615866 0.21053505 0.23620112
000050 5b 73 c3 3d a3 50 e4 3e c1 aa 7e 3e 4a 5c 08 3e
       0.09543487 0.4459277 0.24869825 0.13316455
000060 ca 54 9a 3d 1c 04 12 3e 8a 03 df be 8a 5f e4 3e
       0.075357035 0.1425938 -0.43557388 0.4460414
000070 5b 1e 7a 3e c7 98 4e be 76 b6 77 bd 43 1b a4 3e
       0.24425642 -0.20175467 -0.060476743 0.3205205
000080 d9 36 9b 3e 43 39 2d bf 7f 51 07 3e e6 73 64 be
       0.30315283 -0.676655 0.13214682 -0.22309837
000090 df c3 a9 3d 8f 67 b8 3d 61 53 25 3e 81 ca 62 3d
       0.082893126 0.09004127 0.16145088 0.055368904
0000a0 39 f3 f0 3e 66 c5 06 3e 13 be 96 3e 1a ec 76 3d
       0.47060564 0.13161239 0.2944189 0.060283758
0000b0 b9 d4 40 be a1 57 d7 bc 29 4b aa 3e bf 2b 87 be
       -0.18831147 -0.026286902 0.33260468 -0.26400563
0000c0 3d b5 28 be e1 7c 98 be ed 00 78 3e 11 3c 42 3e
       -0.16475387 -0.29782775 0.24219103 0.18968226
0000d0 67 21 78 3e 5d a4 97 3e 11 3e 1b 3d c1 61 9a 3d
       0.24231492 0.29617587 0.037900988 0.07538176
0000e0 75 b7 db bd e9 45 28 3e e5 52 3e 3e de b2 19 bd
       -0.10728351 0.16432919 0.18586309 -0.037524097
0000f0 0a b7 f2 3d 4e 54 29 3f 45 3b ff 3d 6e 1e f8 bd
       0.11851318 0.66144264 0.12462477 -0.12115179
000100 91 ba 08 bd 21 5c f2 3c 8e b7 c2 3d c6 02 82 be
       -0.03338105 0.029584946 0.095076665 -0.2539274
000110 c4 51 09 bc b3 5e 85 3e 5c 6e af bd 36 19 b9 3c
       -0.008381311 0.26048812 -0.08565971 0.02259503
000120 ee b2 ef 3d f6 46 83 be c4 39 73 3c af 63 2b 3e
       0.1170405 -0.25640076 0.014845315 0.16737245
000130 d2 df 49 bc c3 fd 13 be 73 a6 17 be d4 3b 44 3e
       -0.012321429 -0.14452271 -0.14809589 0.19163448
000140 90 02 a8 be ee c7 27 3d 26 03 58 be f4 6f b6 be
       -0.32814455 0.040962152 -0.21094951 -0.35632288
000150 77 b7 58 be c4 d3 75 3e 4d a9 19 be 10 cd 87 bd
       -0.21163736 0.24006563 -0.1500599 -0.066309094
000160 16 61 57 3e e8 d0 1f 3e 5a c3 81 be 84 5e 29 3e
       0.21033129 0.15607035 -0.25344354 0.16539961
000170 4f db fe 3e 41 cd 97 be a5 f1 fb bc 09 8d 01 3e
       0.49776694 -0.29648784 -0.030754874 0.12651457
000180 7c 21 9a 3e c1 fb 2f 3e d9 32 c0 3c a2 4f c6 3d
       0.30103672 0.1718588 0.023461746 0.096831575
000190 1b 7c 51 be 08 ab 83 be 90 80 a6 be e3 91 b0 3e
       -0.20457499 -0.25716424 -0.3251996 0.34486303
0001a0 86 8e c7 bd 07 d5 f0 be a1 8f 3e be 36 12 c8 be
       -0.09743981 -0.47037527 -0.18609478 -0.39076394
0001b0 97 22 67 be 6c 0f a8 be bd 4d d8 be 0f 26 65 be
       -0.22571789 -0.32824266 -0.4224681 -0.223778
0001c0 25 9d a4 3e 90 79 d1 3d e4 b2 7d 3e b0 9d 9e 3d
       0.32151142 0.10228264 0.24775273 0.0774492
0001d0 3f 4e da 3e 7c 58 14 be 71 27 57 bd 17 89 d9 bd
       0.42637822 -0.14486879 -0.05252785 -0.10621851
0001e0 d4 e5 a8 3d bb 9e 8c 3e dc 80 f4 bd 43 3c 87 3e
       0.08246961 0.27464852 -0.119386405 0.26413164
0001f0 cf 50 41 3e bd 90 14 be 36 6f be 3d 8d 30 d7 3e
       0.18878482 -0.14508338 0.092985556 0.4202923
000200 e6 5f 65 3e ba c3 31 be 41 6d 5c 3e d0 73 36 3e
       0.22399864 -0.1735982 0.21526052 0.17817616
000210 5b af c7 be 31 8a a5 3e 90 10 a1 3d ca 26 bb 3e
       -0.39000973 0.32331994 0.07864487 0.3655303
000220 13 c2 38 3e fe c7 1b be 96 3f fc bd fa d8 b4 be
       0.18042783 -0.1521301 -0.123168156 -0.3532179
000230 b4 b0 10 3e 5c 31 c5 be 72 c5 2e be c9 e3 72 be
       0.14129907 -0.3851422 -0.17067507 -0.23719706
000240 55 9c 80 3b 0a 72 6d bd ce 53 16 bc 78 d1 a7 be
       0.003924886 -0.057970084 -0.009175254 -0.32777
000250 d2 65 df bc 8c 71 6c be
       -0.027270231 -0.2309019

bias f4 [50]
000000 1d 7d 03 3f b7 dd c0 3e bb 65 ff be 1a 7c fc be
       0.5136278 0.37669155 -0.49882302 -0.49313432
000010 27 60 f5 3e 57 cf fd 3e 55 f6 e8 be 7d af 3d bb
       0.4792492 0.4957225 -0.45500436 -0.002894371
000020 99 76 af 3e 0a 19 c3 3b 34 9e 31 be 2d 40 16 3e
       0.3427017 0.0059539126 -0.17345506 0.14672919
000030 d0 49 fc bd ba 12 05 3f 47 b7 72 be 6b 2f 2a 3e
       -0.12318766 0.519817 -0.23702727 0.16619651
000040 aa 09 3b 3d b7 28 8a be 53 a4 9c be 5c 9d 9f 3e
       0.045663513 -0.26984188 -0.3059412 0.31174743
000050 8f 9b 26 bc 38 92 d0 bc c4 41 12 be 1b 96 80 3e
       -0.010168924 -0.025460348 -0.142829 0.2511452
000060 8c 77 19 bf 18 99 04 be c4 c7 d8 3d 9b 87 3b 3e
       -0.5994804 -0.12949026 0.10584977 0.18313448
000070 92 59 22 bd 92 c1 59 be 06 3f 3f 3e 8b 2c f5 3e
       -0.039636202 -0.21265247 0.18676385 0.47885546
000080 dd c0 8b b9 0a 34 bc 3e 61 62 f6 3e 15 1f 29 3e
       -0.0002665584 0.36758453 0.48121932 0.16515763
000090 0d 42 d7 3e 8d 47 81 3e 7d a2 11 3d b1 f7 8b 3d
       0.4204258 0.252499 0.03555535 0.06834353
0000a0 a2 d2 ad 3e e6 8e 1d 3e 9b 21 cf bd b9 99 74 3e
       0.33949763 0.15386543 -0.101138316 0.23886766
0000b0 13 72 f6 3e 87 2d aa 3e 32 e6 0c bf c9 af 31 3e
       0.48133907 0.3323786 -0.5503875 0.17352213
0000c0 45 1b fc be 08 65 11 bf
       -0.49239555 -0.56794786

weight f4 [50, 50]
000000 47 80 53 3d 10 f7 b8 3d df 31 2e 3e 09 66 52 be
       0.051636007 0.090314984 0.17011212 -0.20546736
000010 72 5c 2a bf 56 f1 f7 3d 07 a1 d1 3c d2 30 9c be
       -0.6654731 0.12106578 0.02558948 -0.30505997
000020 7d 6a 5e 3e 0b 9b 50 3b 9a af 09 be 24 0c a4 3e
       0.2172031 0.0031830694 -0.13445893 0.32040513
000030 de 53 a8 be 9f 69 94 3d d7 b2 1c be 9e 67 de 3d
       -0.32876486 0.07246708 -0.15302597 0.10859607
000040 9a d1 ae 3e ae 01 cf bd d2 83 75 be e5 59 d5 bd
       0.34144288 -0.10107742 -0.23976067 -0.10417537
000050 32 3f 5f bc b8 cb 37 be 5e 29 90 3d e9 48 27 bd
       -0.013625907 -0.17948806 0.0703914 -0.040841017
000060 0f 79 b3 3c c2 f7 75 3e a4 de e0 bd c8 cd bf bd
       0.021908311 0.24020293 -0.10979965 -0.093654215
000070 51 81 1a be 77 7c b9 3d 6a d1 9e be 35 53 8e 3e
       -0.15088393 0.09056943 -0.31019145 0.27797857
000080 9a b9 8f 3d ee 5c 2b be 8c 33 ec 3e ec 6c a7 be
       0.070178226 -0.16734669 0.46133077 -0.32700288
000090 e2 fc e9 ba 38 08 cf 3e 55 df 38 be 2d 67 ac 3d
       -0.0017851854 0.40435958 -0.18053944 0.08418117
0000a0 6e 92 4b 3e 71 87 c6 bd 2d 0a ba be ec 15 a0 3e
       0.19880077 -0.09693802 -0.36335889 0.31266725
0000b0 96 eb d7 3e bc cc 1f be 7f d5 88 3c 54 f4 5d be
       0.42171925 -0.15605444 0.016703365 -0.21675235
0000c0 56 7f 2e 3e 64 7f 7a be ca 8e ad bd 40 58 57 bc
       0.17040762 -0.24462658 -0.084745005 -0.013143599
0000d0 55 44 b4 3d 5b 2a 8a be d1 1f 8c bf 37 93 81 bd
       0.08802096 -0.2698544 -1.094721 -0.06326907
0000e0 f6 59 9d 3e e6 d9 21 3e 31 3e 8d 3e 3d 05 57 3e
       0.30732697 0.15805778 0.2758651 0.20998092
0000f0 32 62 24 3e 34 4e d5 3c fe 63 97 3d f2 61 77 3e
       0.16053084 0.026038267 0.07392119 0.24158457
000100 d3 b0 31 bc ae d2 e3 bd e0 12 f1 bd c5 62 61 bd
       -0.010845381 -0.11124168 -0.11771178 -0.055025835
000110 b7 d3 c8 bd 45 c0 b4 3e 9b 7e c6 3d 5a 62 d8 3d
       -0.098060064 0.3530294 0.09692117 0.10565634
000120 13 00 0d 3d 3c 1a 62 3a e6 f2 21 3e cb 61 3c 3d
       0.0344239 0.0008625125 0.15815315 0.0459917
000130 6b 3e a0 bd db 6a db bd b0 b1 95 be 26 be d5 3c
       -0.07824405 -0.107137404 -0.29237127 0.026091646
000140 d3 c8 26 bf 2f a4 36 bd df 98 4a bd ff 92 55 be
       -0.65150183 -0.04459017 -0.049462195 -0.20856856
000150 93 f2 55 3d ba ac 6a bd 36 49 3e 3e 5e ad 84 be
       0.05223329 -0.05729363 0.18582615 -0.2591352
000160 0d a1 33 bd 63 d7 24 3e ed 9a b7 3d 87 a3 44 be
       -0.043854762 0.16097789 0.089650966 -0.19203006
000170 ad d9 cf bd 10 3f 49 3e 1c 3b c1 3e f1 ae 14 3e
       -0.1014894 0.19652963 0.3774041 0.1451986
000180 3a 5a 71 bd 93 58 24 3d d6 2a fa 3d 0d 7d 8c be
       -0.058923937 0.040123533 0.122152016 -0.27439156
000190 3f 33 10 3e e6 d2 e0 bb 52 2f 41 3e 98 9c ac 3c
       0.14082049 -0.0068610786 0.18865708 0.021070763
0001a0 51 98 1d 3e bf 77 03 3e a4 f4 4f 3e 3a 07 f0 bc
       0.15390135 0.12838648 0.20308167 -0.02930032
0001b0 85 41 78 be 7b 48 2c 3e 40 10 98 3b ed c3 3b be
       -0.24243744 0.16824524 0.004640609 -0.18336459
0001c0 4d 48 95 3e ca 97 9e be 8e 5a 6b 3e 9d 15 a3 bc
       0.29156724 -0.3097518 0.22983763 -0.019907767
0001d0 c0 7a 23 be 7c 0e 7d bd 66 32 b3 3b 03 08 6a 3e
       -0.15964794 -0.06178139 0.0054686544 0.22854619
0001e0 e6 d8 c9 be c7 7b b7 bd 1b 06 ff 3d 39 f1 5b 3d
       -0.39423293 -0.089591555 0.124523364 0.053696845
0001f0 27 a3 a2 3e e6 9e 8e be 8c 42 e3 3c 37 8f b3 be
       0.317651 -0.27855605 0.027741693 -0.35070202
000200 93 ec bf 3e a8 3a 44 3b ba 45 15 be 9e d5 3b be
       0.3748518 0.0029942188 -0.1457738 -0.18343207
000210 f9 40 b5 bd 82 a6 04 bc 19 13 f2 3b ec 6b c0 3e
       -0.08850283 -0.008096339 0.0073875305 0.37582338
000220 9d e5 ff be 33 54 0c be d4 ef 5f 3e 25 05 86 3e
       -0.4997987 -0.13703994 0.21868831 0.261758
000230 67 ce 2c be b4 7f 8a 3d ac 4f c7 3e 7d 04 b3 3d
       -0.16875611 0.06762639 0.38927972 0.087410904
000240 69 90 d5 bd 7c bf 3e be 22 f5 dc bc 83 71 76 be
       -0.10427935 -0.18627733 -0.026972357 -0.24066739
000250 9d d2 1f 3c fc 54 02 3f e6 93 e9 3d dc 6d 35 3d
       0.009754804 0.50910926 0.114051625 0.044294223
000260 ab 03 00 3e 29 ae c4 3c b7 fc 30 be 94 29 44 bc
       0.12501399 0.024008827 -0.17283903 -0.011972804
000270 a5 14 70 be 5b d0 05 be 64 9b 6f 3e a3 4b 85 bd
       -0.23445375 -0.13067763 0.2339912 -0.06508567
000280 6f 28 a2 3d 70 1e 3c 3e 00 66 d5 bd 5b 88 6c bd
       0.07917868 0.18370986 -0.104198456 -0.057747226
000290 5a ea e1 bd 92 7a 39 be bc 0f 56 3e 64 28 f3 3c
       -0.11031027 -0.18113163 0.2090444 0.029682346
0002a0 51 11 33 bd a3 84 2e 3e 8d 24 c5 3d b0 a2 8a 3d
       -0.043717686 0.17042784 0.09626112 0.067693114
0002b0 f5 48 87 3e 56 40 36 bd 99 9f 84 be eb a3 9b 3e
       0.2642285 -0.04449495 -0.25903013 0.30398497
0002c0 64 42 1c bd 92 41 1f bd 38 b7 16 be 0f 16 91 be
       -0.038149253 -0.038880892 -0.1471833 -0.28337142
0002d0 d3 f8 81 be 71 95 cd 3d 39 f0 9e 3e a0 0e c6 be
       -0.2538515 0.10038269 0.3104265 -0.38683033
0002e0 e4 e9 cc be bb aa 30 be 75 05 01 3e 47 f9 c0 3d
       -0.40022194 -0.17252629 0.12599738 0.09422546
0002f0 11 9c 24 be c5 bd f8 bd 55 b0 2f 3e c1 6f 06 be
       -0.1607516 -0.12145571 0.17157109 -0.13128568
000300 66 d0 77 be 7c 5c 41 3e da de 67 3e d1 87 2d be
       -0.24200591 0.18882936 0.22643605 -0.16946341
000310 0b d9 03 3d ca 2a 15 be ea 58 36 be 65 2b 85 3c
       0.03218941 -0.14567104 -0.17807356 0.016256044
000320 89 9b 1b 3e ac 5e 0b be e8 2e 82 3e 9a ea 11 3e
       0.1519605 -0.13610333 0.25426412 0.1424965
000330 3e 05 84 bf bd ba 71 3d 61 fd eb 3e 6f ad 50 3e
       -1.03141 0.059015978 0.4609175 0.2037866
000340 11 a3 5f be 3a d4 92 be f6 26 c1 3e 24 0f 73 be
       -0.21839549 -0.2867754 0.37725037 -0.23736244
000350 e7 1c 40 3d 37 8a d4 3d 78 b4 9a 3e 13 48 72 be
       0.046902563 0.10377925 0.30215812 -0.23660307
000360 a4 8d 8e 3d 92 81 31 be 9c 94 1c 3e 45 a0 b2 be
       0.069606096 -0.17334583 0.15291065 -0.348879
000370 85 65 fd bd df 55 1e be 4c 4b fa bc 9a f5 b1 3e
       -0.12372879 -0.15462445 -0.030553482 0.34757692
000380 49 d5 5b be 68 7c 90 bd d4 ff 8d bb 74 d4 63 bd
       -0.2146808 -0.070549786 -0.0043334756 -0.055622533
000390 be ed 54 3d eb 45 bf bd 5a 1e 17 bf 92 77 72 3e
       0.05198454 -0.09339508 -0.5903069 0.23678425
0003a0 0c e5 a2 bd 8d 45 0f bd c6 03 ff 3e 1c 30 fd 3d
       -0.079538435 -0.03497844 0.49807566 0.12362692
0003b0 a2 85 bf 3e d7 b8 0b 3e 65 6f 90 3d 8b 55 3f 3c
       0.3740664 0.1364473 0.07052497 0.01167811
0003c0 91 3d f5 bd ea 8c c4 3c b2 bd 1f be 7f 32 54 3e
       -0.119746335 0.023992974 -0.15599707 0.20722388
0003d0 7d 72 4f 3e 80 18 7c 3e 2a d7 11 3e 71 1a 35 3e
       0.20258518 0.24618721 0.14242235 0.17685868
0003e0 66 6d 75 3e 26 31 2b 3d dd b5 13 bd f9 c7 83 bd
       0.23967513 0.04179492 -0.03606211 -0.06434626
0003f0 a1 81 1f be fd 80 56 be 52 a3 71 bf bc 0c 58 3d
       -0.15576793 -0.20947643 -0.9438983 0.05274652

bias f4 [50]
000000 d2 ed 96 3d dd 90 d9 bc 5c be be 3b c5 fe 63 bd
       0.073695794 -0.026558334 0.0058210324 -0.05566289
000010 de 28 5f bd 60 4f 1a ba 0e 69 f6 bc d1 bb f4 3d
       -0.054482333 -0.00058864616 -0.03007939 0.11949886
000020 59 ad 40 bd 3b cb 66 3d 4b c8 1d bd e6 a4 f3 3d
       -0.047040317 0.05634616 -0.038521092 0.11896686
000030 0d ed b2 3c a9 97 de bd 3d b5 10 3d f2 6f 95 bd
       0.02184155 -0.10868771 0.035329092 -0.072967425
000040 2b 76 d5 3d 88 ff 4b bd 63 bc ad 3c c4 0d e0 bd
       0.104229294 -0.04980424 0.021207994 -0.109401256
000050 0a aa 8f 3d a5 b5 e2 3d 25 4b f9 3d 73 c9 5f 3d
       0.07014854 0.11069802 0.12172536 0.054635476
000060 fd 53 1b be 65 c1 8d bd d0 d2 f7 bd 59 74 fd bc
       -0.15168758 -0.06921653 -0.12100756 -0.030939268
000070 92 53 d7 bd c5 b9 8d bd 40 56 0d 3d d7 fd 0b 3a
       -0.10513987 -0.06920198 0.034506083 0.0005340254
000080 c9 d4 b7 bb 38 18 e1 bd 2a 5b 8f bd 1e 55 08 be
       -0.0056100828 -0.109909475 -0.0699981 -0.1331372
000090 08 d0 05 be a2 ca c3 3d 74 a5 0a 3e 82 ff 05 3b
       -0.13067639 0.095601335 0.13539678 0.0020446484
0000a0 cb c4 6e bd d9 05 99 3d 3b 88 68 3d 7b 92 81 3c
       -0.058293145 0.074718185 0.056770544 0.015816918
0000b0 c3 e4 06 3c 89 a0 e8 bd 56 3c ff 3d 9f 9e 3b 3c
       0.008233252 -0.11358745 0.1246268 0.011451392
0000c0 2f a4 22 be e4 36 76 bd
       -0.15882944 -0.06011094

weight f4 [50, 50]
000000 09 eb d2 be d3 a4 c9 bd b6 d9 d8 3d 9d 9c bd 3d
       -0.41194943 -0.09845891 0.105884 0.09258387
000010 83 65 d7 3d 19 0a a6 3d f4 00 48 3e ac 1b 2b be
       0.10517409 0.08107395 0.19531614 -0.16709775
000020 f5 96 e1 3d 4c d7 c3 be ba ec f7 3d 62 1b ec bd
       0.11015121 -0.38250196 0.12105699 -0.1152866
000030 bf ba 0b bf a4 40 38 3d f1 8b a9 3d 02 55 15 be
       -0.54581827 0.04498352 0.08278645 -0.14583209
000040 52 79 8e 3e 96 d5 32 be 56 8d c9 be 5f 67 7a bd
       0.27826935 -0.17464289 -0.39365643 -0.06113374
000050 1b 6f ae be cb 76 b7 3c e4 b6 b0 3d 24 dd 87 3e
       -0.34069142 0.022395512 0.086286336 0.26535904
000060 90 39 6b be c0 21 00 bf ad 61 c7 3d 0d 95 e0 3e
       -0.22971177 -0.500515 0.09735427 0.43863717
000070 37 3e d5 bd 17 01 07 bb 18 64 1c 3e 3d b0 52 3d
       -0.10412257 -0.0020600015 0.15272558 0.051437605
000080 8b cc 6b 3e 6e a2 6d be ab 07 22 be 8b 05 8c 3e
       0.23027246 -0.23206493 -0.15823238 0.2734798
000090 e4 af 6a bd 74 09 11 be ed 77 32 be 7a d6 43 3c
       -0.05729665 -0.14163762 -0.1742856 0.011952991
0000a0 6c 0d 14 be 7f 5b e9 3d d9 53 74 3e f8 de 4b 3e
       -0.14458245 0.113944046 0.2386011 0.19909275
0000b0 13 0c ce 3c 84 1a 8c be de 27 a4 3e 05 39 4b be
       0.025152242 -0.2736398 0.32061666 -0.1984597
0000c0 a2 b5 6b bd e9 77 f1 bd 29 9d 8c 3d 69 8c 5f be
       -0.057546265 -0.11790449 0.068659134 -0.21830906
0000d0 96 d2 5b bd 85 6c 90 bc 23 b7 65 3d 72 79 04 be
       -0.053667627 -0.017629871 0.056082856 -0.12936953
0000e0 07 c4 f7 3c 0e f1 4f be b6 fb ae 3e 2a be 32 be
       0.03024484 -0.20306799 0.34176415 -0.17455354
0000f0 5c 2c 2e 3e d1 9d 8a 3d e2 1b 2f bd 3e 41 29 bd
       0.1700911 0.06768382 -0.0427512 -0.041321985
000100 1d 63 25 3e b5 f9 80 be b5 2c 31 3d e1 c5 3b 3d
       0.1615109 -0.2519051 0.043255527 0.04584301
000110 11 88 2b be 41 5c 2b 3d d6 fa c3 bd d1 0e 0d be
       -0.16751124 0.041836027 -0.095693275 -0.13775183
000120 0b 86 81 be af be 90 bd bb 87 b5 bd 37 83 d4 bd
       -0.2529758 -0.0706762 -0.08863779 -0.1037659
000130 f2 a4 89 bd b9 7c 39 be 1d ef ee be 11 30 f3 3d
       -0.06720914 -0.18113984 -0.46666804 0.11874402
000140 35 81 80 be ef 61 a5 3d 54 b7 7b 3e b0 54 48 3e
       -0.25098577 0.0807532 0.24581653 0.19563556
000150 5b e4 8c 3e c4 66 6e be 96 28 5a 3e f8 c4 24 3e
       0.2751797 -0.2328139 0.21304545 0.16090763
000160 bf ff c1 be e0 f2 a5 3d 1c 59 27 bc 26 17 ba be
       -0.3789043 0.08102965 -0.010214116 -0.36345786
000170 1e a4 6a 3e c6 d9 e3 3c 6d 48 07 3e 0a 56 06 3e
       0.22914168 0.027813803 0.13211222 0.13118759
000180 73 20 12 3e 9d c9 06 be 6e 20 46 be a8 2f b4 3d
       0.14270191 -0.13162847 -0.19348308 0.08798152
000190 12 47 63 3e f8 ea d8 3d 15 e1 38 be 44 0c f4 3c
       0.2219508 0.10591692 -0.18054612 0.029791005
0001a0 50 4b 1d be 77 7b 1f 3e 01 f5 a1 bd 2e eb 07 be
       -0.1536076 0.15574442 -0.07908059 -0.13273308
0001b0 55 5c 52 bc c1 b6 4b 3e 19 ae 2d bc b4 e5 ea 3d
       -0.0128393965 0.19893934 -0.01060059 0.11469594
0001c0 0e 49 77 3c 4f cf 5a be 3d 69 cd 3d ea cf 78 3e
       0.015093101 -0.21368144 0.10029838 0.24298063
0001d0 1e f7 2c 3e 1e 56 1e 3d a5 47 7b bd 5b aa 5e 3e
       0.16891143 0.038656346 -0.061347622 0.21744673
0001e0 4d f4 da 3d 12 01 95 bd f7 a1 b1 bd 73 f1 6f 3e
       0.10691128 -0.07275595 -0.086734705 0.2343195
0001f0 61 3c 0e bd 3f 36 91 be 3b 1e 39 be e5 1e 70 3e
       -0.03472555 -0.283617 -0.18077938 0.23449285
000200 43 26 3c 3d a7 8e f8 3e 18 cf 65 be a1 ad 94 bd
       0.045934927 0.48546335 -0.22442281 -0.072596796
000210 bc 9b 88 3d 0d 24 07 3e 02 84 7e bc 4e 61 14 3c
       0.06670329 0.13197346 -0.015534403 0.009056402
000220 4c b5 94 be 16 97 4e 3d 6e 80 0d 3f f2 05 17 3e
       -0.2904457 0.050437056 0.55274093 0.14748362
000230 71 2f ef 3e a0 81 1f be 44 b6 a0 3e e0 79 78 3e
       0.46715882 -0.15576792 0.31389058 0.24265242
000240 83 35 9f 3e 75 02 b5 be f2 85 2d 3e b8 f9 47 3e
       0.31095514 -0.35353437 0.16945627 0.19528854
000250 6d ab 62 bd e9 f0 b3 bb 06 fd 89 3e 52 ea 4e 3d
       -0.055339266 -0.005491365 0.26950854 0.050516434
000260 92 67 62 3d cf 7b 32 3e a1 c1 b4 3e e1 a7 17 3e
       0.055274554 0.17430042 0.35303977 0.14810134
000270 db bb db bd d0 7b 67 bd ea ab bc 3e aa a7 39 3e
       -0.1072919 -0.05651456 0.3684991 0.18130365
000280 f2 22 6b be 00 1f 90 be d2 18 c0 3e 8f c9 68 3e
       -0.2296255 -0.2814865 0.37518936 0.22733139
000290 01 5f df be 16 32 c6 3c bc b5 d9 3d 17 64 98 bd
       -0.4362717 0.024193805 0.10630366 -0.074409656
0002a0 b1 bf 8f 3e 6f 5f 70 be 66 4f 8e be 2a f2 a5 be
       0.28075936 -0.23473905 -0.2779495 -0.3241132
0002b0 81 aa 2b 3d 63 7b ae bc 32 b5 c6 bc 7e 1c 29 3d
       0.041910652 -0.02129907 -0.024256323 0.041286938
0002c0 51 ec fc bd 81 ab 56 3e 34 e6 ec be 9f 96 d4 3d
       -0.12349761 0.20963861 -0.4626938 0.10380291
0002d0 2f 76 e5 3e 70 09 ea 3e a3 90 08 3e 0c 30 6c be
       0.4481673 0.45710325 0.13336425 -0.23065203
0002e0 a2 e9 d0 bd e5 4e 6d bd 04 86 b4 3d 1c 8c 71 3e
       -0.10200812 -0.057936568 0.08814624 0.23588604
0002f0 15 25 f1 3c a1 c7 9e be 7f 4b 5f 3e df 9e 83 be
       0.029436627 -0.3101168 0.21806143 -0.25707147
000300 61 98 f4 bc 4a 9b 17 3d 06 a2 9a be 34 81 b4 bd
       -0.029857816 0.03701333 -0.3020174 -0.08813706
000310 c0 c5 9b be 5f a1 7f be b6 c0 9e be f0 85 69 3e
       -0.3042431 -0.24963902 -0.31006402 0.22805
000320 2f b9 87 bd 84 fe 55 3e 68 dc 0d 3e 57 45 6e 3d
       -0.06627118 0.20897871 0.1385361 0.058171596
000330 22 51 be 3e dc b3 08 3e fe d4 27 3e 9e 34 90 be
       0.37171274 0.13349861 0.16389844 -0.28165144
000340 3a 0e 9a bd 72 3c 04 be ae dc 05 3d 77 eb 19 be
       -0.07522245 -0.12913683 0.03268116 -0.15031229
000350 4d 41 39 be b7 cd a9 be a7 e9 63 be c1 3c 37 bc
       -0.18091317 -0.3316476 -0.222571 -0.011183918
000360 a3 e1 9b 3d 04 e1 a1 3e 2b d9 8c bd 4d cc 83 bd
       0.07611396 0.31616986 -0.06877359 -0.06435452
000370 90 65 c0 3d bd c6 30 be ed 01 3a be 98 39 80 3e
       0.093943715 -0.17263313 -0.18164797 0.2504394
000380 90 40 fc 3d 66 bc bb 3e 4d 11 83 be 98 6e d6 3e
       0.12317002 0.36667174 -0.25599137 0.4188125
000390 28 86 99 bc f7 a3 f7 3d c7 2c 63 be 80 ac 84 3e
       -0.018740728 0.12091821 -0.2218505 0.25912857
0003a0 71 bb c6 3d b0 a6 01 3d 71 f4 a5 3c ab d3 61 3e
       0.0970372 0.031653106 0.02025816 0.22053401
0003b0 9d 7b 03 3e ed ad 83 bd bc 0e 4f bc d4 c6 68 be
       0.12840123 -0.06429658 -0.01263779 -0.22732097
0003c0 a7 eb 52 3e dd ce f1 bc 59 6b 27 bd 23 51 af be
       0.20597707 -0.029517585 -0.04087386 -0.3424159
0003d0 e4 eb 5f 3e 32 6f 99 be 54 a4 c5 3b 26 aa 47 3e
       0.21867329 -0.29967648 0.0060315523 0.194985
0003e0 2e a9 3c be e3 f6 31 bd ea f8 25 bd 8a 50 ac 3e
       -0.18423912 -0.04344834 -0.040520586 0.33655196
0003f0 40 f6 39 be 13 d2 04 be 00 9d 3b 3c ff 23 27 3e
       -0.18160343 -0.12970762 0.011451006 0.16322325

bias f4 [50]
000000 ac c1 e8 bd f2 18 ec 3c ec 00 e5 bc 9d 5d c7 3d
       -0.11365065 0.028820489 -0.027954541 0.09734652
000010 73 0b fa 3d ef 00 b3 3c 5f 8d 42 3d 60 98 83 bc
       0.12209215 0.021851031 0.047498103 -0.016063869
000020 92 35 7e bd b7 2e a8 3d 6a ec a3 3d bc 1d fa bd
       -0.062062807 0.08212035 0.08004077 -0.12212703
000030 7a d1 0e be 61 05 a6 3d 8f 61 f2 bd 34 db 36 be
       -0.13947096 0.08106495 -0.11835014 -0.17857057
000040 3b 48 e6 3d 9e cd 25 3d db 3a 5b bd 9c 23 ef ba
       0.112442456 0.040479295 -0.053522926 -0.0018244865
000050 0f cc 6a bd 0d 59 c7 3d 42 28 4f 3e d2 0f 9b bd
       -0.05732351 0.09733782 0.20230201 -0.07571377
000060 21 bc c8 bc 88 fb 81 bc ae bd c5 bd 05 58 0d 3d
       -0.02450377 -0.01586701 -0.09655319 0.03450777
000070 d8 e7 15 be 51 c5 39 bd 07 f4 be bd b8 a2 11 be
       -0.14639223 -0.04535419 -0.09323888 -0.14222229
000080 57 8b ed bd 9d 63 5f 3d 0d 9b b6 bd 8c d0 8a bd
       -0.115988426 0.054538358 -0.08916292 -0.067780584
000090 09 b0 8b bd e4 d0 3f bc cf d5 f0 3d 21 40 f2 3d
       -0.068206854 -0.011707518 0.11759531 0.11828638
0000a0 c1 0d 98 3b 4d 45 60 3d 25 80 88 3d 4b 62 5f 3d
       0.0046403115 0.05475359 0.06665067 0.0545371
0000b0 77 5b 18 3e 95 40 d9 3d 18 ba 10 bd 16 0d 21 be
       0.14878641 0.10608021 -0.035333723 -0.15727648
0000c0 96 0c 32 bc 47 a9 02 3c
       -0.0108672585 0.007974929

weight f4 [50, 50]
000000 44 5c 88 bd 31 b3 4f 3e d3 1d 0d 3d 0a 96 08 3e
       -0.06658223 0.202832 0.03445227 0.13338485
000010 90 1f 9f 3a 18 ad a8 3e b8 55 df 3e 95 b1 86 be
       0.0012140144 0.3294456 0.43620086 -0.2630736
000020 50 f3 e3 3e e5 50 09 be 0e 31 8e 3d 6c 1b 3a 3e
       0.4452157 -0.13409765 0.0694295 0.18174523
000030 e6 3d 91 3d 68 21 52 bd 79 44 94 3e 5e f1 06 bf
       0.07091884 -0.05130139 0.2895849 -0.5271205
000040 e1 d8 bc be ad c1 06 3d 1c 97 14 bd 4f 81 7d 3c
       -0.36884215 0.032899547 -0.03627692 0.015472724
000050 75 4b 08 bc c4 6c 5d be d0 63 a6 3e 4e 40 49 bd
       -0.008318772 -0.21623522 0.32498026 -0.04913359
000060 d5 fa 68 be 8d 1b 36 be 24 b7 75 be 8d 55 53 be
       -0.22751935 -0.17783947 -0.23995644 -0.20638104
000070 37 33 cf be ec e5 9b be 88 c1 d4 bd 5e 0c 88 3e
       -0.4046876 -0.30448854 -0.10388476 0.26571935
000080 e8 22 38 bc a8 d2 9e 3e 5e 0a e1 bd 7c 80 04 be
       -0.011238791 0.31020093 -0.109883055 -0.12939638
000090 74 4e d9 bd 6c 9b 6b be 6a 93 a0 bd 84 39 ce 3d
       -0.10610667 -0.23008507 -0.07840617 0.10069564
0000a0 14 38 db bd 7c 4c 67 be a0 d2 0e 3e 68 5d ea be
       -0.107040554 -0.2258777 0.13947535 -0.45774388
0000b0 bb 87 d6 be 6f f3 08 3c c7 8f 84 be a5 01 80 3d
       -0.4190043 0.00835882 -0.25890943 0.06250314
0000c0 e1 5f 59 be 0d 93 6e 3e ad 73 99 be b0 a4 5a 3e
       -0.21227981 0.23298283 -0.29971066 0.21351886
0000d0 c9 f6 4f 3e 48 f7 63 be 53 da 83 3d d0 9e 68 3c
       0.20308985 -0.22262299 0.064381264 0.01419802
0000e0 bc 41 4e bc 91 8d 3d be 0e fa c1 3e 17 c9 28 3e
       -0.0125889145 -0.18511035 0.3788609 0.1648296
0000f0 fb f2 34 be dc c6 6c be 78 05 63 be 10 7c 8e 3e
       -0.17670815 -0.23122734 -0.22170055 0.27829027
000100 6d 59 8f be b9 a5 5f 3e c7 b3 28 3d 2a ef a2 bd
       -0.27997914 0.21840562 0.041187074 -0.07955773
000110 7e 2e f6 be ae b4 0f be fb 5a f0 be fb 0b 1f be
       -0.48082346 -0.14033768 -0.46944413 -0.15531914
000120 d4 4d d8 be 08 78 b1 be bd ff 3c be 7a 98 43 bd
       -0.42246878 -0.3466189 -0.18456931 -0.047752835
000130 39 13 a5 be b2 ea 3e 3e 35 88 00 bf c7 53 b9 bd
       -0.32241228 0.18644217 -0.50207835 -0.090491824
000140 42 66 2e bd 5d 90 f7 bd a1 80 5e be 7a bb c8 be
       -0.04257799 -0.12088082 -0.21728756 -0.39205533
000150 20 93 d5 3d 7f 64 a7 3c a8 ef 88 3e c1 0e 46 be
       0.104284525 0.020433662 0.26745343 -0.19341566
000160 82 bf db bd 84 8f 1b bf 0b 00 26 be da f4 ed bc
       -0.107298866 -0.6076586 -0.16210954 -0.029047418
000170 e8 03 9a 3e 62 53 b6 3d e9 d7 00 bd 6c 04 8b 3d
       0.30081105 0.08902623 -0.031455908 0.06787953
000180 a9 fe 06 bf 28 36 98 bd 56 d0 f1 3e 86 65 44 3d
       -0.5273233 -0.074322045 0.4722926 0.047948383
000190 65 cd 2a be 7b 6e f3 3d e2 2e 00 bf d6 f8 9b be
       -0.16679914 0.11886307 -0.5007154 -0.30463284
0001a0 ef 84 d3 bd af 8e 2b 3e 20 b8 9b 3c d4 e3 9c be
       -0.103280894 0.16753648 0.019008696 -0.3064257
0001b0 5a 90 16 be 86 cc 94 be 4a bb 58 3e ab 1b 21 bd
       -0.14703503 -0.2906229 0.21165195 -0.039333027
0001c0 bf 81 f2 bd d4 a3 b6 3d db 0c 83 3e fd 1c c7 3d
       -0.11841153 0.089179665 0.25595745 0.09722326
0001d0 f5 70 50 be e9 fc 11 3e 51 99 02 be 07 18 92 3d
       -0.2035559 0.14256634 -0.12753798 0.07133489
0001e0 66 9b b5 3c 29 bb e3 bc 34 e4 3b bd 90 54 c3 be
       0.022168826 -0.027799206 -0.04587193 -0.38150454
0001f0 52 46 27 be 44 1f 4a 3e 8f a3 6c be f1 bb a9 3d
       -0.16335419 0.1973849 -0.23109268 0.082878
000200 96 27 3e be d1 67 86 be 94 b4 f2 3d bc 88 32 be
       -0.18569788 -0.2625108 0.11850849 -0.17434973
000210 47 a0 d4 bb e1 d0 e4 3e 48 df 35 be 20 6d b7 3d
       -0.006488833 0.44690612 -0.17760956 0.08956361
000220 c2 8a 8c be 21 56 00 be ef 72 9a bd eb 50 a3 be
       -0.27449614 -0.12532856 -0.07541453 -0.31897673
000230 e0 8d d9 be 1d 21 36 3d 5c 55 33 bd 86 e1 63 3e
       -0.42491055 0.044465173 -0.043782577 0.22253999
000240 db e5 8b be bb 3f 25 be 13 f6 98 3d 87 f2 c8 3d
       -0.27323803 -0.16137592 0.0746881 0.098118834
000250 8e d9 c0 3e 99 88 af 3d 98 37 a2 be 15 fe a5 be
       0.3766598 0.08570976 -0.3168304 -0.32420412
000260 a3 7d 6a 3b 7f 79 b1 3d 45 d8 76 3e 69 9d 52 3e
       0.0035780452 0.08665752 0.24105938 0.2056786
000270 fb 64 27 bd 57 ed 3c 3e be 3d 9e 3e 0f 28 e3 3d
       -0.040867787 0.18449913 0.3090648 0.11091625
000280 62 95 a0 bd de 1f de bd ca ab 09 3e 4d 16 17 be
       -0.078409925 -0.10845922 0.13444439 -0.14754601
000290 71 9b 8b 3c da 8b b3 3e bc ac 1b 3e 65 44 c9 3d
       0.017041894 0.35067636 0.15202612 0.09827498
0002a0 cc 87 04 be dd 40 85 be 5f 21 0d 3f d6 ed 56 3e
       -0.12942427 -0.2602605 0.55129045 0.20989165
0002b0 48 27 0a bf e3 df 68 3e 0e c8 38 3e 2a 53 4c 3c
       -0.5396619 0.22741656 0.18045065 0.012471
0002c0 84 8b 9a be 4e 63 9b 3e d6 aa b7 3d e4 71 34 be
       -0.30184567 0.303492 0.08968131 -0.17621571
0002d0 b3 a6 cf 3e 99 10 0a be 96 b6 77 3e fa 3c 46 3d
       0.4055687 -0.13482894 0.24190745 0.048397996
0002e0 af d8 96 bd 66 a4 3a 3e af 7b 63 3e a6 7b 90 be
       -0.07365548 0.18226776 0.2221515 -0.28219336
0002f0 dd 91 67 3d 3d bb 93 bd b7 ce 3b 3e d7 2a 1f 3d
       0.05653559 -0.07213447 0.18340574 0.038859215
000300 12 67 f3 3c c8 5e 1c 3e 53 97 89 bc 28 85 63 3e
       0.029712234 0.15270531 -0.01679579 0.22218764
000310 25 92 a5 3e d6 40 4f 3e f8 68 4a 3e 0e 28 da bc
       0.32338062 0.20239577 0.19766605 -0.026630428
000320 dc 72 58 3e 40 23 13 bd 82 a2 ac 3e 11 9f 61 3d
       0.21137565 -0.03592229 0.33717734 0.05508334
000330 a9 36 9f 3e 09 c9 cc 3e 1b fd 2d be 1c 05 b9 be
       0.3109639 0.39997128 -0.16991083 -0.3613671
000340 fc b0 2b 3f da 17 88 3e 1b 87 cd 3e 8b 27 b1 bc
       0.6706693 0.26580697 0.4014214 -0.0216253
000350 75 ad 92 be fe fd 7e bc 8d 85 ce 3d c5 13 c1 3c
       -0.28647962 -0.015563486 0.100840665 0.023568997
000360 c8 7d 69 3e 9e b3 ba bd d7 8b 29 3e ac b1 54 bd
       0.22801888 -0.091162905 0.16557251 -0.051927254
000370 46 7f a2 3d f9 c6 cd 3d ca 65 d7 3e 8f 9c 22 3e
       0.07934432 0.10047717 0.42069846 0.15880035
000380 6c f2 ea 3d 19 52 c7 be c9 7a 67 be e8 81 7f 3e
       0.114720196 -0.38929823 -0.22605433 0.24951899
000390 24 d8 6b 3d 1e b0 42 3e 04 61 45 bc 69 ea 01 bd
       0.057579175 0.19012496 -0.012047056 -0.03171769
0003a0 62 51 cb 3d 01 1e 3e 3e b6 d3 2d 3e 49 b3 95 bd
       0.09927632 0.18566133 0.16975293 -0.073095866
0003b0 33 7f 58 be a4 77 f1 3d 16 37 89 be 07 b9 6e be
       -0.21142273 0.11790398 -0.2679984 -0.2331277
0003c0 ae 84 2e 3e eb 17 a8 bd a8 c0 21 be 43 ab 7b 3d
       0.17042801 -0.08207687 -0.15796149 0.061442625
0003d0 2e 34 f6 3e ce 8c 64 3e 9d 3c d5 be a1 be b5 3e
       0.48086685 0.22319338 -0.41647807 0.35497
0003e0 6e 53 85 3e 2d 9d 98 3b e4 9b 69 3e 17 05 cb be
       0.26040214 0.0046574087 0.22813374 -0.3965232
0003f0 7a 66 e9 bc 91 f3 13 be 66 1f 2b be 78 af a0 3e
       -0.028491247 -0.14448382 -0.16711196 0.31383872

bias f4 [50]
000000 3d 68 f8 3d 13 ae 0b bd 48 68 75 bd ac 5d b1 bc
       0.12129257 -0.034101557 -0.059913903 -0.021651112
000010 79 58 b4 3d 5a ad 5d 3c c4 42 46 3d 97 b6 8b 3c
       0.08805937 0.0135301 0.048403516 0.017054839
000020 a5 93 f3 3c e0 e5 d8 bd 2d b3 62 3d aa e3 3c be
       0.029733488 -0.1059072 0.055346657 -0.18446222
000030 63 f7 8a 3d ea 83 91 3d 82 47 d6 bd 6e 74 90 bd
       0.067854665 0.07105239 -0.10462858 -0.07053457
000040 00 68 14 bd 20 46 49 bd d0 69 25 bc d7 4a e2 bd
       -0.036231995 -0.049139142 -0.010096028 -0.11049431
000050 2f ee ec 3d 87 f7 f8 bc 13 c8 c0 3d 16 82 86 3d
       0.115688674 -0.030391468 0.09413161 0.06567781
000060 0e 38 06 bd 10 ee 87 3d 68 ff 15 3e 24 00 f7 bc
       -0.0327683 0.06637204 0.14648211 -0.030151434
000070 58 03 87 3c f6 26 19 be ae f4 4e 3d 99 dc 11 3e
       0.016481087 -0.14956269 0.050526313 0.14244308
000080 99 a5 1f 3e fc 72 02 bd 91 c3 d9 3d fe 3b 9f 3d
       0.15590514 -0.03184794 0.106330045 0.077751145
000090 2e 87 51 bd 76 8b 89 bd 69 37 73 bd c1 bb 6f 3d
       -0.051154308 -0.06716053 -0.059379015 0.058528665
0000a0 96 90 9b bc 95 16 f0 3d fa 79 c3 bd 3d 4f d5 3d
       -0.018989842 0.11723057 -0.095447496 0.10415504
0000b0 c9 c1 c1 bd 82 f5 70 bc 18 d3 22 bd 8b f3 85 bd
       -0.0946079 -0.014706971 -0.039752096 -0.06540593
0000c0 5d ca 7d bd cf 79 a5 bc
       -0.061960567 -0.020199684

weight f4 [1, 50]
000000 40 72 3e be de b4 9a 3e 37 41 32 3e fd ea 72 3e
       -0.1859827 0.30216116 0.1740769 0.23722453
000010 dd e2 d1 be 33 24 20 3f 34 c7 b3 3d ad 3d 16 be
       -0.40993395 0.62555236 0.08778229 -0.14671965
000020 1b 9c 75 3d 14 28 53 bd 5e f0 97 be 95 ee 40 3e
       0.059963327 -0.051551893 -0.29675573 0.18841012
000030 a6 ba 42 3e 51 48 c1 3c b5 db 9e 3e 7c d3 77 3d
       0.19016513 0.023594053 0.31026998 0.06050442
000040 61 cb 0c be 9b 4f a2 3e f4 58 77 3e b1 c1 38 3e
       -0.13749458 0.3170136 0.24155027 0.18042637
000050 b2 e8 30 bf 6a 68 25 be 71 5a 79 bc 20 c1 98 be
       -0.69105065 -0.16153112 -0.015219317 -0.29834843
000060 02 ec 84 be b7 cc d8 bd 00 84 38 3f 9a 02 17 be
       -0.2596131 -0.10585921 0.72076416 -0.14747086
000070 da aa fb 3e a4 32 f4 3e 23 ba b4 3d 04 ab fc be
       0.49153787 0.47694886 0.08824565 -0.49349225
000080 33 60 23 bf 44 3c cb 3e 5c 4e b7 be ab 4e d9 3e
       -0.63818663 0.39694417 -0.3580197 0.4244283
000090 8b 36 8f 3e b3 a7 58 be f6 d3 72 3e 75 b9 de bd
       0.279713 -0.21157722 0.23713669 -0.10875217
0000a0 31 59 83 3f 1a 09 23 3d 26 f8 bb 3d 17 35 d0 be
       1.0261594 0.0398036 0.0917819 -0.40665504
0000b0 df 25 22 3e 48 f0 89 3d 69 99 f5 3e 2f c9 f9 bd
       0.15834759 0.06735283 0.47968605 -0.12196576
0000c0 d2 57 1d 3e e8 c7 04 3e
       0.15365532 0.12966883

weight f4 [50, 3]
000000 7c 82 74 be 6c c7 c0 3e 4b fe cc 3e 6b df 02 bf
       -0.23877901 0.37652147 0.4003776 -0.5112216
000010 bc 5a dc 3d 56 3b b9 bd 38 d3 93 bd d0 0c 3d be
       0.10759494 -0.090445206 -0.07218021 -0.18461919
000020 a3 5d ec be ff d9 36 3e dd 18 f9 bd de 99 11 3e
       -0.4616519 0.17856596 -0.121629454 0.14218852
000030 03 d2 d9 be f5 12 9b be 48 50 59 bd 92 ab 3e 3e
       -0.4254304 -0.302879 -0.053055078 0.18620136
000040 9c bb 2e be d9 e7 4b 3f 5e 54 5b be fa 3f 9c bd
       -0.17063755 0.79650646 -0.21418902 -0.0762939
000050 fb f8 28 3e 34 c1 c0 bd 73 9e 02 3f e9 c1 41 3e
       0.16501229 -0.094118506 0.51023024 0.18921627
000060 83 b0 0e be 0e 79 48 be 93 ee 9e be f0 00 8d be
       -0.13934521 -0.19577429 -0.31041393 -0.27539778
000070 5e f3 58 3e 9f 80 99 be 48 63 11 bd 56 e9 10 bc
       0.21186587 -0.29980943 -0.035495073 -0.008844694
000080 98 23 a5 3e 33 2d 4c be 30 46 3f 3d 36 f0 25 bd
       0.32253718 -0.19939117 0.046697795 -0.040512286
000090 ba 62 9f bd e7 93 7a 3d 60 9d 52 3d 11 5c 07 be
       -0.077825025 0.061176207 0.051419616 -0.13218714
0000a0 92 03 d9 bd ad 61 65 3e c8 a2 d1 3d 66 ab 7c 3e
       -0.10596384 0.22400542 0.10236126 0.24674758
0000b0 17 e5 df bd 3c f8 71 bf 3f 7c 3d 3e ec f1 bf 3c
       -0.10932367 -0.945194 0.18504427 0.023430787
0000c0 b6 53 ae be f8 94 38 bf 9d a8 ba 3e c9 c2 db 3d
       -0.3404824 -0.7210231 0.36456767 0.10730512
0000d0 93 e9 52 be 89 31 87 be 63 a5 fb 3e 27 e2 89 3e
       -0.20596914 -0.2640498 0.49149618 0.26930353
0000e0 47 51 54 3d d5 b8 97 bd 31 e5 b2 be 03 0e f5 bc
       0.051835325 -0.07408301 -0.34940484 -0.029913908
0000f0 de a0 06 3e 64 ef 86 be b6 24 5d 3e af ea bd be
       0.13147303 -0.26354516 0.21596035 -0.37093112
000100 44 81 f7 3e 75 99 ef 3d ea b8 0e 3f 8b 7c 91 3c
       0.4834081 0.116991915 0.55750906 0.017759582
000110 31 e5 2e be d0 25 cd bd 9f 94 49 3d 14 35 ff be
       -0.17079617 -0.10016978 0.049214 -0.49845183
000120 03 ff 38 bd 92 db 54 3e 3a 72 94 be de 68 da be
       -0.045165073 0.20786884 -0.28993398 -0.42658132
000130 99 3f a2 3e 53 3f 3c 3c 52 07 70 be 71 e2 3a bf
       0.31689146 0.011489707 -0.23440292 -0.7300177
000140 49 3c 40 be 09 36 6b 3e 3c b6 7a bd f4 a2 27 bc
       -0.18772997 0.22969832 -0.06120895 -0.010231722
000150 f3 94 f9 be e9 14 d4 3e ef f3 5f 3d af e6 28 be
       -0.48746452 0.41422203 0.054675993 -0.16494249
000160 01 94 a7 bc 7a c2 34 be 7f e5 c4 3e 65 e1 cf be
       -0.020456316 -0.17652312 0.38456342 -0.4060165
000170 cd 74 90 be 76 6a 40 be db ee bb bd 44 99 86 be
       -0.28214112 -0.18790612 -0.091764174 -0.26288807
000180 65 1b 24 be 68 a2 af bd e8 d4 ba be 15 d6 c4 3e
       -0.16026075 -0.085758984 -0.3649056 0.38444582
000190 cf 78 71 be 96 a1 e5 bc 64 58 e5 bd 48 c9 08 be
       -0.23581241 -0.028031152 -0.111985 -0.13358033
0001a0 7d 7f 79 be 75 4a 89 3e 6a f0 49 3f 46 3a 76 3e
       -0.24365039 0.2681462 0.7888247 0.24045667
0001b0 6b ce 52 be 05 1b 9f 3c 12 c0 cf bd 03 c8 41 3c
       -0.20586555 0.019422064 -0.101440564 0.011827472
0001c0 76 c9 51 be 16 ce 0f 3e 1e 93 c6 3a 34 62 70 be
       -0.20487007 0.1404346 0.0015150046 -0.23474962
0001d0 0d f1 4f be 1e b6 46 3d f6 ff cc 3d aa 68 0c 3d
       -0.20306797 0.048513524 0.10009758 0.034279503
0001e0 bf 07 0e be 1e 0a c5 3e 2b 1f 9c 3e 21 a0 87 3d
       -0.13870142 0.3848428 0.3049253 0.06622339
0001f0 52 5d d6 3c 15 2b 0a bf 84 76 e1 be 40 4e 9b 3e
       0.026167545 -0.5397199 -0.44035733 0.30333138
000200 89 a3 4b be 1d 92 86 bc b5 36 aa 3e 8a 27 75 bd
       -0.19886602 -0.016427094 0.33244863 -0.05985216
000210 26 f7 2d 3e 50 30 d5 3d 01 e2 10 3e e8 55 20 3f
       0.16988811 0.104096055 0.14148714 0.6263108
000220 aa e3 d1 bd 2d 53 b3 3d c8 c2 9f 3d 27 09 43 3d
       -0.102485016 0.08756099 0.078008235 0.04761615
000230 3f 81 91 3d e8 97 2a be 33 8d c1 be 95 9f 40 bd
       0.0710473 -0.1665951 -0.3780304 -0.04702719
000240 fd 43 7e be 42 cf 74 bd 94 28 04 bf 3c 26 7f be
       -0.24830623 -0.05976797 -0.5162442 -0.24916929
000250 12 ec 0e be 34 71 37 3e
       -0.13957241 0.17914277

bias f4 [50]
000000 4a 43 88 be 13 4a 90 3d 19 82 c7 3e 9e fb 85 3e
       -0.26613837 0.070453785 0.38966444 0.2616853
000010 8b 5c eb be 5c dc 76 3e 72 78 2a be db 46 af be
       -0.45969042 0.24107498 -0.16647509 -0.34233746
000020 e6 54 ab 3e 6b 5d b3 3e a1 97 3d 3e bc 8b fb bd
       0.3346321 0.3503221 0.18514873 -0.122825116
000030 e5 d6 76 be 5e e2 73 bd 40 59 99 3d 1f 76 b2 bd
       -0.24105413 -0.059542052 0.07487726 -0.08713936
000040 dc 1e a9 3e 03 95 00 3d 69 5c 01 bf 8f 45 50 be
       0.33031356 0.03139211 -0.5053163 -0.20339034
000050 65 b4 89 3d 3f 91 02 bf f7 c9 03 bf ce 78 ea 3e
       0.06723861 -0.5100288 -0.5148005 0.45795292
000060 08 97 bd be 3b 48 af be 1f e6 cf be 4e 30 66 be
       -0.3702929 -0.34234795 -0.40605256 -0.22479364
000070 41 ad fc 3d 07 79 66 be 3d 6f cd be b5 00 ae 3e
       0.12337733 -0.22507106 -0.4012393 0.33984914
000080 84 0e 85 3e 55 7e f5 3d a3 8c c5 bd 5b e2 cd bd
       0.25987637 0.119869865 -0.09645965 -0.100529395
000090 4a 61 fd 3d ab 40 84 3e 0c bb 09 bf 9c 19 0d bf
       0.12372072 0.25830588 -0.53801036 -0.551172
0000a0 6f c6 40 bd 3f 6b 4d 3e c7 fe 17 bd 1a e3 cd be
       -0.04706424 0.20060442 -0.03710821 -0.40212327
0000b0 70 92 30 bd f0 6c e5 3e 46 d7 9c 3e 3a d6 40 be
       -0.043108404 0.44809675 0.3063299 -0.18831721
0000c0 1f 72 1d be c6 d7 60 3e
       -0.15375565 0.21957311

weight f4 [50, 50]
000000 ab 08 45 3e f7 62 5b 3e 74 d3 0b be d2 9c 8d 3b
       0.19241588 0.21424471 -0.13654882 0.004321673
000010 f2 2e 84 bd e1 6b 32 be d1 54 68 bd 6a 63 51 be
       -0.064542666 -0.17423965 -0.056721512 -0.2044808
000020 3e 70 15 3e 6e 67 28 be d1 72 bb bd 02 2b a6 bd
       0.14593598 -0.16445705 -0.09152759 -0.08113672
000030 a9 55 4e be b6 5f 9f 3e ee 5c 4e be 60 f1 28 bd
       -0.20149864 0.3112771 -0.20152637 -0.04124582
000040 a1 4d ed be 43 31 de be 91 26 1a 3c 4a cf e6 bc
       -0.4634829 -0.4339696 0.009408609 -0.028175015
000050 f7 0a 17 be d2 d4 9a be 88 b1 cd be 8c a4 21 be
       -0.14750277 -0.30240494 -0.40174508 -0.15785426
000060 63 7e 9f 3d 89 ef 02 bf 6a d4 05 3d e9 8c e3 be
       0.07787778 -0.5114675 0.032673277 -0.44443443
000070 d0 83 30 be 16 5e 28 be 0c 28 11 bb 52 0b d7 bd
       -0.17237782 -0.16442141 -0.0022149114 -0.10500206
000080 b8 0f 30 bb 8a 49 32 be 12 46 32 be dd 5d c6 bd
       -0.0026864838 -0.17410865 -0.17409542 -0.09685872
000090 69 ea 80 be 24 68 8d be 31 01 2f 3e 0e 57 76 3e
       -0.2517884 -0.27618515 0.17090298 0.24056646
0000a0 0f c9 e0 bd 23 a3 ba be 06 40 86 3c 60 fa c6 bd
       -0.10975849 -0.36452588 0.01638795 -0.09715724
0000b0 88 57 a3 3e ac c3 0c be 2b 22 56 3e 26 0f 40 be
       0.3190272 -0.13746518 0.20911472 -0.18755779
0000c0 05 c4 ff 3d 1b 24 86 be eb 02 0a be 19 04 f0 3d
       0.1248856 -0.2619942 -0.13477676 0.117195316
0000d0 96 95 05 3e b2 88 ab be f6 b5 8f be 48 fe 88 3e
       0.13045344 -0.33502728 -0.28068513 0.267565
0000e0 22 1c bc 3e 90 71 31 3e 69 3c 92 3d 12 03 60 bd
       0.36740214 0.17328477 0.071404286 -0.054690428
0000f0 c4 f5 53 be a2 e3 d6 3d 1a a2 f0 3d 7d 61 af 3d
       -0.20699221 0.10492636 0.117496684 0.08563516
000100 f2 3d a4 bd 5a cc ad 3e 4f 33 07 be 38 73 90 3e
       -0.08019628 0.3394497 -0.13203166 0.28212905
000110 cb da 97 be 81 0a 82 be 3f 2a 56 be eb 03 b8 be
       -0.29659113 -0.2539864 -0.20914553 -0.3594049
000120 23 b9 16 be f3 34 38 3c 9b d7 8f bd d9 03 fc bd
       -0.14719062 0.011243093 -0.07023545 -0.123054214
000130 53 1c a5 be 83 3f 00 3e 02 f0 a8 3e 21 bd 14 be
       -0.32248172 0.12524228 0.3299561 -0.14525272
000140 e8 28 c7 bc d7 bf 49 be 6c 51 0a 3e 6f 74 90 3d
       -0.024311498 -0.19702087 0.13507622 0.07053458
000150 ff 39 40 be 9d 98 3b bd 34 05 27 3e a7 24 d8 bc
       -0.18772124 -0.04579984 0.16310579 -0.026384665
000160 d1 7b 17 be b5 55 92 3e 21 01 85 3e 10 d6 39 be
       -0.14793326 0.28581014 0.25977424 -0.18148065
000170 86 df 68 3e 54 3b 01 be be 6d 9c 3e 5e 55 4e be
       0.22741517 -0.12620288 0.30552477 -0.20149752
000180 44 76 e0 3e b6 d1 30 bd 81 2f 49 3e 09 d5 8a 3c
       0.4384023 -0.043168746 0.19647028 0.016947286
000190 ec 13 6e 3d f6 89 34 be 14 49 ee bd eb 4d cf bd
       0.058124468 -0.17630753 -0.11635032 -0.101222835
0001a0 42 23 5d 3e 89 10 7c 3e 0b 5d 96 be 59 93 cc bd
       0.21595481 0.24615683 -0.2936786 -0.09989042
0001b0 e0 84 91 3d 90 fe 2a be ed 99 ac bd fc 2c b4 be
       0.07105422 -0.1669867 -0.084277965 -0.3519057
0001c0 54 21 0a 3f a2 51 9a be 41 07 32 be 52 ac 4f be
       0.53957105 -0.30140406 -0.1738558 -0.20280579
0001d0 90 8b 49 be 4b c0 13 3e d1 cc 07 3e 2a a1 60 3e
       -0.19682145 0.14428823 0.13261725 0.21936479
0001e0 e2 cc 9e 3d 62 36 8c be 69 05 a4 be 9d ce ae 3e
       0.07753922 -0.2738524 -0.32035378 0.34142008
0001f0 c3 0b a0 be 27 09 b4 be 6d 29 aa 3e 29 d5 93 3b
       -0.31258973 -0.35163233 0.3323473 0.0045114947
000200 63 b7 d6 3c da 5f 2f be 89 26 b6 3e a5 aa 22 3e
       0.026210492 -0.17126408 0.35576275 0.15885408
000210 d1 68 db 3d cf 3f 12 be 30 95 90 3e 96 72 ad be
       0.107133515 -0.14282154 0.2823882 -0.33876485
000220 99 bb 95 be 8b a1 ed bd ca 16 01 3e fb 38 de bd
       -0.29244688 -0.116030775 0.1260635 -0.10850712
000230 9d 1c a7 be c3 d1 8c be 25 d0 a8 3c ca f4 3f 3d
       -0.32639018 -0.27503785 0.020607064 0.04686431
000240 ab e6 53 bd fc a8 bd be f0 6f cf bd 90 b6 0d be
       -0.051733654 -0.37042987 -0.10128772 -0.13839173
000250 89 65 92 bd 80 d2 9d bd c9 6a 5b 3d 43 de e3 bd
       -0.071482725 -0.07706165 0.053568635 -0.111263774
000260 3b 95 3f bd 06 c4 8f be a4 a8 1e 3e ec d6 b2 3d
       -0.046773177 -0.28079242 0.15494019 0.08732399
000270 67 f3 86 bc d7 46 6e 3e 69 31 ef 3d a3 04 30 be
       -0.016473485 0.23269211 0.11679346 -0.17189269
000280 e2 d4 20 3e 8c 3c 14 be c4 49 85 be 05 b3 87 3e
       0.15706208 -0.14476222 -0.2603284 0.2650377
000290 59 27 89 bd ef 01 c4 be 4e b2 c2 be 0b 74 14 be
       -0.06696958 -0.38282725 -0.3802666 -0.14497392
0002a0 a8 7e d6 be ea 7b 86 be 02 43 8a 3d 64 7b 84 bd
       -0.41893506 -0.26266414 0.06751062 -0.064688474
0002b0 15 fb 31 3f e6 d7 a9 bd fa 34 24 3e 0c 20 fa 3c
       0.69523746 -0.082931325 0.16035834 0.03053286
0002c0 05 32 86 3d f2 90 93 3e d1 84 f3 3d c7 d3 ef 3d
       0.06552509 0.28821522 0.11890567 0.11710315
0002d0 96 5e c6 be e9 3b a0 3d e1 34 0f be 61 83 d8 3d
       -0.38744038 0.07823927 -0.13985015 0.105719335
0002e0 9d 95 1f be a5 1f b9 bc cc 9f be 3e 28 6b 24 3e
       -0.15584417 -0.022598097 0.3723129 0.16056502
0002f0 97 d4 17 be 92 af ed 3d c3 d8 ed bd 96 96 85 3d
       -0.1482719 0.11605753 -0.1161361 0.065228626
000300 d8 2c 95 be 37 d6 42 3d 9d 1b 91 bd 3b 04 1a be
       -0.29135776 0.047567572 -0.07085345 -0.15040676
000310 7d b1 36 3e df fc 8d be 17 aa 85 3e e1 60 42 be
       0.17841144 -0.27731988 0.2610633 -0.18982269
000320 d0 cf 38 3c 70 eb 73 3e 71 39 7f 3e 90 72 95 3e
       0.011280015 0.23820281 0.24924256 0.29188967
000330 88 38 c3 3d e4 2f 45 be 41 07 10 be 88 dd cd 3e
       0.09532267 -0.1925655 -0.14065267 0.40208077
000340 3f 0f 9f 3e e4 47 5d bf 36 1c 83 3d 2c 8c 57 be
       0.3106632 -0.8643782 0.06401865 -0.21049565
000350 b9 87 b7 3e c4 96 75 be 83 5d 60 3d 34 1d a0 be
       0.35845736 -0.23983294 0.05477668 -0.3127228
000360 40 e2 b9 3c bd d1 4a 3e 79 68 2e bf 7d a6 71 bd
       0.022690892 0.19806571 -0.6812816 -0.058996666
000370 fb 00 bd bc 04 5c 1e 3b 66 5c 8b 3d d2 a5 3d bc
       -0.023071757 0.0024163732 0.06804733 -0.011575179
000380 f9 43 fc bc 4b 3d f7 bd 46 da 18 be ef 2a fd be
       -0.03079413 -0.120722376 -0.14927015 -0.49446818
000390 2a ac 14 3c 20 ae b8 3e 71 8d 48 3e 27 cd 02 3e
       0.00907425 0.36070347 0.19585206 0.12773572
0003a0 a6 49 25 bf 1a 1d 95 3e a0 5a 59 3e 04 4d a1 3e
       -0.64565504 0.29123765 0.21225977 0.3150407
0003b0 3c d1 c2 bd d8 bf 92 3c 7b 9a 80 3d e5 bb f3 bd
       -0.095125645 0.017913744 0.06279465 -0.119010724
0003c0 f3 91 7a bd 24 e1 ee 3d 95 93 1b 3e e2 bb 34 3c
       -0.061174344 0.11664036 0.15193017 0.011031123
0003d0 cd ce 74 3e 44 bf 4e 3c 7d 96 d8 3e 49 53 44 be
       0.23907013 0.0126188435 0.42302313 -0.19172396
0003e0 33 8d 42 bb ec 15 91 be 34 d3 64 be 55 98 a6 3e
       -0.0029686212 -0.28337038 -0.22346193 0.32538095
0003f0 28 9b 61 be 82 9f d0 3c 8c 05 03 bd 49 6d 1c 3e
       -0.22031844 0.025466684 -0.03198771 0.15276064

bias f4 [50]
000000 4d 7d 10 3e c2 f0 ec bd ce 41 59 3d 07 bb 31 3b
       0.14110298 -0.115693584 0.053041272 0.0027119534
000010 ac b7 af bd 16 4b 8c bc 27 18 96 3c 7b ec b3 3d
       -0.085799545 -0.017125648 0.018322064 0.087853394
000020 fa 91 79 3d 5f 32 97 3d 95 cd 84 3d 6a 44 5a 3d
       0.06093023 0.073826544 0.06484524 0.0532879
000030 33 e9 23 be 9c 47 2e 3d 2d 21 7c 3d 12 aa 9c 3d
       -0.16006927 0.04254876 0.061555076 0.07649626
000040 53 75 fe bd c9 6d b3 3d 6d 3a 8d bd 70 6d ad 3c
       -0.124247216 0.08761174 -0.068959095 0.021170348
000050 cf c6 a4 3d f8 2f 92 3d 37 af ca bc 3a e5 02 3d
       0.08045732 0.071380556 -0.024741752 0.03195689
000060 0f 5a 33 3d 1c 78 f5 3d 8e e6 15 3d 3a ab 81 bd
       0.04378706 0.119858 0.036596827 -0.06331487
000070 02 89 bb bc f9 dc 0a be 83 fb ee 3b 54 e8 46 3d
       -0.022892479 -0.13560857 0.007293166 0.04856141
000080 ed 21 30 be cf d4 6a bd 20 e2 c1 3d 78 b3 8b bd
       -0.17200442 -0.057331856 0.09466958 -0.0682134
000090 e3 fc e6 3d 96 ee ef bd 27 d2 c3 3d 36 04 bc 3c
       0.11278703 -0.117154285 0.09561568 0.022951227
0000a0 9f 24 a0 bc d9 57 0d 3e 5b 1d c6 bc 45 3d 19 be
       -0.019548712 0.13803042 -0.02418392 -0.14964779
0000b0 75 1f a4 bd 5d 44 8a bd 47 0d 2d 3e aa 6a dc bc
       -0.080138125 -0.067513205 0.16899596 -0.02690633
0000c0 f5 2c 9e 3c e8 42 18 3d
       0.019308547 0.03717318
