models/NeuralLSVModel_standard_4e-09.pt (torch, 972754 bytes, 255 tensors)

weight f4 [50, 3]
0.010524216 -0.09350456 -0.15155777 -0.4611105 -0.016884342 0.0792968 -0.123828664 0.24517421
-0.061692152 -0.106893 -0.30287376 0.013916888 -0.4682248 -0.07886306 0.35880497 -0.4604961
-0.14558473 0.30882296 -0.26885608 0.27698842 0.1379664 0.43508434 -0.31231448 -0.37468642
-0.37555808 -0.03963606 0.29199484 0.0021010458 -0.1590536 -0.2186962 -0.10654029 -0.19645384
-0.28658706 -0.540613 -0.08538114 -0.10607816 0.051780798 0.3272201 0.0856943 0.07164233
-0.024607563 -0.27732334 0.31806785 -0.12016139 0.187972 0.0782157 -0.1683721 0.14953978
0.21765915 -0.03843283 0.011461145 0.052693922 0.06064986 0.23754138 -0.49196446 0.37541103
-0.3513853 -0.07722052 0.2570114 0.022757115 0.20591603 0.34161714 0.42409188 -0.019071115
0.05009658 0.25111717 0.003276588 -0.36606088 -0.48438475 -0.21000907 -0.105097786 -0.57919914
0.15439002 -0.14907888 0.0030625244 0.09967117 0.3931892 -0.12141822 -0.2919569 -0.5073243
0.17451061 -0.78128195 0.20638669 0.1784901 0.3080842 0.17135517 0.07760818 -0.12987801
-0.33623752 -0.116293736 0.13549072 -0.26943165 0.031114781 -0.6417958 0.4931378 -0.08439172
-0.07827875 0.037189826 -0.032431487 0.22577253 -0.6836894 0.058500215 -0.25198454 -0.18532158
-0.08776343 0.4447102 -0.20635399 0.27336472 0.11857891 0.370477 0.09142126 0.19274844
-0.15571089 0.036277287 -0.37813887 0.16191737 0.142023 -0.5709872 -0.0930239 -0.4011754
0.23181982 -0.19897199 -0.12688878 0.042585324 -0.23104292 -0.1570923 -0.18796599 0.2751478
-0.03813578 -0.012425507 0.17891388 0.15047848 0.22407365 -0.14465545 0.17751935 -0.15123771
-0.24859895 -0.36797687 0.12671804 -0.110358454 0.18361633 0.16833386 0.04795162 -0.118981555
0.40049484 -0.2004267 0.2858334 -0.4878424 -0.12897266 -0.0500339
00000000: c36d 2c3c 527f bfbd f631 1bbe ad16 ecbe
00000010: 0851 8abc 5c66 a23d e299 fdbd f30e 7b3e
00000020: e9b0 7cbd b8ea dabd 4512 9bbe a903 643c
00000030: 29bb efbe f582 a1bd 49b5 b73e 25c6 ebbe
00000040: 2a14 15be 0b1e 9e3e 81a7 89be 6dd1 8d3e
00000050: 1047 0d3e 60c3 de3e afe7 9fbe e6d6 bfbe
00000060: 2649 c0be 6c59 22bd 5980 953e b3b1 093b
00000070: f2de 22be e6f1 5fbe cc31 dabd 322b 49be
00000080: 8abb 92be 9d65 0abf 4fdc aebd 823f d9bd
00000090: 1a18 543d 6589 a73e 7e80 af3d 37b9 923d
000000a0: cd95 c9bc 53fd 8dbe cad9 a23e 2d17 f6bd
000000b0: bb7b 403e 8e2f a03d bc69 2cbe f520 193e
000000c0: 0ae2 5e3e be6b 1dbd 87c7 3b3c 95d5 573d
000000d0: fd6b 783d 0c3e 733e c4e2 fbbe e035 c03e
000000e0: c6e8 b3be cb25 9ebd 0097 833e 216d ba3c
000000f0: a7db 523e 71e8 ae3e 9222 d93e 073b 9cbc
00000100: 1232 4d3d 6e92 803e 06bc 563b 556c bbbe
00000110: 4701 f8be 9e0c 57be 823d d7bd 6546 14bf
00000120: 6b18 1e3e 22a8 18be a2b4 483b 6620 cc3d
00000130: 1850 c93e 1eaa f8bd 607b 95be 01e0 01bf
00000140: e9b2 323e 1802 48bf 0857 533e 1cc6 363e
00000150: 36bd 9d3e bb77 2f3e 0af1 9e3d befe 04be
00000160: 5327 acbe 692b eebd 14be 0a3e f2f2 89be
00000170: 6de4 fe3c bb4c 24bf 8f7c fc3e 91d5 acbd
00000180: 9c50 a0bd 5c54 183d e1d6 04bd ea30 673e
00000190: 4506 2fbf ec9d 6f3d 1e04 81be f1c4 3dbe
000001a0: 50bd b3bd 0eb1 e33e 764e 53be 76f6 8b3e
000001b0: 80d9 f23d 29af bd3e 123b bb3d d95f 453e
000001c0: ad72 1fbe 7e97 143d 6b9b c1be abcd 253e
000001d0: 7a6e 113e 382c 12bf 5183 bebd dd66 cdbe
000001e0: 2d62 6d3e 50bf 4bbe 22ef 01be f36d 2e3d
000001f0: 8496 6cbe cedc 20be 287a 40be 2ce0 8c3e
00000200: 4334 1cbd 5b94 4bbc 3335 373e 0817 1a3e
00000210: 9073 653e 8f20 14be a2c7 353e 0fde 1abe
00000220: b990 7ebe 7767 bcbe 60c2 013e 9d03 e2bd
00000230: eb05 3c3e b65f 2c3e eb68 443d 9aac f3bd
00000240: a90d cd3e a83c 4dbe c158 923e 7bc6 f9be
00000250: 6911 04be 59f0 4cbd

bias f4 [50]
-0.22995423 0.53556967 0.050384585 -0.12662166 0.31902775 0.5248951 0.036556274 0.54010653
0.50810623 -0.3124495 0.57116807 0.40531573 -0.5169105 0.21552135 -0.33608922 0.34016216
0.5241849 0.39570507 0.28203315 -0.3800887 -0.22012314 0.5317997 0.2256306 -0.2960124
-0.14994432 0.12942123 0.21178362 0.026034627 0.098955326 0.486969 0.40096018 0.10514983
-0.48955002 -0.051416863 0.38504347 0.04618799 -0.27666274 0.431637 0.062296588 0.011981214
-0.4282213 -0.032217965 -0.51545286 -0.11554103 0.2300516 -0.20233813 0.58163595 -0.51359725
-0.3192352 -0.3357652
00000000: 1f79 6bbe 181b 093f 1160 4e3d 1ca9 01be
00000010: 9b57 a33e 865f 063f 08bc 153d 6c44 0a3f
00000020: 4013 023f 62f9 9fbe 1238 123f 8b85 cf3e
00000030: 3f54 04bf a1b1 5c3e e313 acbe bc29 ae3e
00000040: fb30 063f db99 ca3e a666 903e fc9a c2be
00000050: f667 61be 0624 083f b50b 673e f08e 97be
00000060: 018b 19be 0087 043e cedd 583e 9246 d53c
00000070: 17a9 ca3d 0054 f93e a74a cd3e cb58 d73d
00000080: 4da6 fabe 7d9a 52bd 6b24 c53e 9e2f 3d3d
00000090: bda6 8dbe 86ff dc3e b52a 7f3d db4c 443c
000000a0: d23f dbbe fcf6 03bd b8f4 03bf c7a0 ecbd
000000b0: a692 6b3e ba31 4fbe 18e6 143f 1c7b 03bf
000000c0: cc72 a3be 6be9 abbe

weight f4 [50, 50]
-0.0602609 0.43635875 -0.12628752 0.040392693 0.077764995 -0.0037289513 -0.055998635 0.18590032
0.4478532 0.006420275 0.061046835 0.05771206 0.11186706 0.18683825 -0.56167316 0.050044373
-0.06631335 0.34485495 0.120546676 -0.17730564 -0.09091439 0.20358308 0.103175074 0.078373335
-0.24005036 0.011763224 0.12672013 -0.23513576 -0.033676814 -0.08520439 -0.016002832 0.09355515
0.009728015 -0.16377035 0.081582196 0.039268687 -0.21264213 -0.10155003 -0.19040732 -0.11771272
0.07497323 0.13366966 0.028143669 0.10612761 -0.06986403 -0.10510651 -0.07453907 0.17296492
-0.18126771 0.18154539 -0.075043425 -0.10869837 -0.18040769 0.007791562 -0.012119583 -0.030007193
0.054371838 -0.37700683 0.05954195 -0.009129745 0.08157832 0.038862746 -0.29538685 0.26555187
0.031816907 0.20268017 -0.33205703 0.22857872 -0.023319116 0.15132777 0.33034799 -0.07756747
-0.25487295 -0.10044041 -0.2082523 -0.2062411 -0.16321912 0.20399494 0.08098864 0.13535635
-0.10819511 -0.105950646 -0.2537045 -0.42940792 0.12948991 0.22535706 -0.1232086 0.09487993
0.07941053 -0.034507528 -0.19104022 -0.054464713 -0.06502356 -0.4453673 0.004725414 0.2638139
0.19221775 -0.16709691 0.0049657132 0.26377988 0.101258196 0.46675467 0.3493764 -0.11156356
-0.104286455 -0.011955742 0.02305992 -0.13752164 -0.42310095 0.32383984 -0.15802503 -0.26791194
-0.30579418 -0.044121876 0.035246976 -0.27317378 0.11982198 0.18590268 0.0007846878 0.15950698
-0.1290788 -0.11110937 -0.25997457 -0.17117535 0.102842115 0.12240428 0.16305058 -0.062879845
-0.09215765 0.08563158 -0.05304617 0.11467816 0.3957516 -0.2486559 -0.053005535 -0.3469872
-0.1167921 -0.08978441 -0.32181537 0.13942124 -0.10300034 -0.36656883 0.32345173 0.19965377
-0.13403961 -0.10779681 0.28977188 0.124446906 -0.36237088 0.11550159 0.056302547 -0.029310511
0.48927495 0.1414335 0.26095015 -0.1462981 0.3407625 -0.07716602 0.30364877 -0.09728344
-0.14254239 0.2278407 -0.1633659 -0.2867722 0.28249955 -0.09592873 0.048168447 0.37631372
0.14955954 -0.22591679 -0.20956622 -0.13053373 -0.2724769 -0.044268806 0.44030428 0.055980828
0.15821914 -0.16739964 -0.0013043218 -0.31195766 -0.16124135 0.16310668 -0.31041524 -0.3122151
0.3990873 -0.06409868 -0.17505392 0.16129999 -0.08867734 0.30822474 -0.22049294 0.48332015
-0.088268645 -0.03640405 -0.045320906 -0.13749483 -0.105648555 -0.18668295 -0.32230002 0.05725013
0.5016594 0.2960101 -0.088762835 0.0152759515 0.1620907 0.20419584 0.10643713 0.021499705
-0.21453571 0.10954287 0.3313537 0.32710505 0.13249804 0.20122345 -0.47410902 0.02922802
-0.33574447 -0.08106134 0.3683995 0.287705 0.14039384 -0.07465233 -0.35059223 0.048389368
-0.56329906 0.2770193 -0.037790563 0.15493487 0.07232122 -0.35406703 -0.017171275 -0.16156992
-0.18418962 0.23190331 -0.29529738 0.30546543 0.03616004 0.09189541 -0.35454348 0.2887483
0.2977942 -0.2540758 -0.16784957 0.3678882 0.356886 0.29259092 0.12594086 -0.068282954
-0.16515216 0.12115908 -0.07663861 0.0128576085 0.4101441 0.26259768 -0.37105262 -0.011128183
00000000: 22d4 76bd 6a6a df3e 8451 01be cf72 253d
00000010: 4143 9f3d 6c61 74bb d35e 65bd a75c 3e3e
00000020: 044d e53e 2c61 d23b 3f0c 7a3d 7b63 6c3d
00000030: 8f1a e53d 8752 3f3e d0c9 0fbf 54fb 4c3d
00000040: 4bcf 87bd d490 b03e 2de1 f63d 9c8f 35be
00000050: 5331 babd 1578 503e 744d d33d 3382 a03d
00000060: c3cf 75be 8aba 403c ecc2 013e 6ec7 70be
00000070: b3f0 09bd a47f aebd 5f18 83bc d899 bf3d
00000080: 4162 1f3c 6ab3 27be 9114 a73d 34d8 203d
00000090: dcbe 59be 76f9 cfbd 23fa 42be 5e13 f1bd
000000a0: 918b 993d b3e0 083e 8d8d e63c 6f59 d93d
000000b0: df14 8fbd 1542 d7bd f1a7 98bd b71d 313e
000000c0: 3e9e 39be 09e7 393e 5eb0 99bd 409d debd
000000d0: cbbc 38be 5c50 ff3b 3791 46bc a5d1 f5bc
000000e0: 01b5 5e3d 0a07 c1be 42e2 733d ed94 15bc
000000f0: 8912 a73d 8b2e 1f3d f23c 97be 6af6 873e
00000100: 7252 023d 648b 4f3e 6103 aabe 8a10 6a3e
00000110: bb07 bfbc abf5 1a3e 5f23 a93e b2db 9ebd
00000120: b57e 82be b4b3 cdbd 1740 55be de30 53be
00000130: ea22 27be 0de4 503e 5fdd a53d db9a 0a3e
00000140: 6695 ddbd a7fc d8bd 8ee5 81be 5bdb dbbe
00000150: 0199 043e 00c4 663e ca54 fcbd 6950 c23d
00000160: fda1 a23d c457 0dbd 0ca0 43be 6416 5fbd
00000170: 122b 85bd 2f07 e4be a5d7 9a3b 9e12 873e
00000180: bbd4 443e 741b 2bbe 6cb7 a23b 280e 873e
00000190: 7560 cf3d 78fa ee3e 77e1 b23e 707b e4bd
000001a0: 2394 d5bd 04e2 43bc 28e8 bc3c 79d2 0cbe
000001b0: b0a0 d8be 56ce a53e 50d1 21be c12b 89be
000001c0: 0e91 9cbe 24b9 34bd 225f 103d 6fdd 8bbe
000001d0: 3a65 f53d 465d 3e3e 82b3 4d3a cc55 233e
000001e0: 3c2d 04be 4f8d e3bd 631b 85be 9748 2fbe
000001f0: e39e d23d 18af fa3d bbf6 263e 26c7 80bd
00000200: 26bd bcbd 9c5f af3d f146 59bd 62dc ea3d
00000210: f49f ca3e a79f 7ebe 551c 59bd 4ea8 b1be
00000220: b230 efbd e4e0 b7bd fcc4 a4be 71c4 0e3e
00000230: d8f1 d2bd e9ae bbbe 779b a53e 0a72 4c3e
00000240: ae41 09be 93c4 dcbd fb5c 943e 05de fe3d
00000250: ad88 b9be 198c ec3d 809d 663d 991c f0bc
00000260: 3f82 fa3e f2d3 103e 429b 853e 2bcf 15be
00000270: 6c78 ae3e 3809 9ebd da77 9b3e 8a3c c7bd
00000280: a2f6 11be 134f 693e 6449 27be ced3 92be
00000290: c8a3 903e 4876 c4bd 474c 453d 31ac c03e
000002a0: 2326 193e bb56 67be 8798 56be a2aa 05be
000002b0: 1882 8bbe 3553 35bd 906f e13e 274c 653d
000002c0: 3304 223e d06a 2bbe c7f5 aaba eab8 9fbe
000002d0: 741c 25be 7005 273e bfee 9ebe a8da 9fbe
000002e0: 2c55 cc3e 2b46 83bd 5641 33be d32b 253e
000002f0: 779c b5bd a2cf 9d3e e7c8 61be bd75 f73e
00000300: 31c6 b4bd 6a1c 15bd 6aa2 39bd 72cb 0cbe
00000310: 455e d8bd d129 3fbe 8204 a5be 1d7f 6a3d
00000320: c06c 003f a38e 973e 4ac9 b5bd fc47 7a3c
00000330: 1bfb 253e b718 513e b6fb d93d 2620 b03c
00000340: 40af 5bbe 0358 e03d 31a7 a93e 507a a73e
00000350: 91ad 073e 850d 4e3e 6bbe f2be 9a6f ef3c
00000360: b3e6 abbe 7d03 a6bd dc9e bc3e 124e 933e
00000370: 67c3 0f3e 52e3 98bd d380 b3be ee33 463d
00000380: 5e34 10bf 79d5 8d3e 47ca 1abd 3fa7 1e3e
00000390: 261d 943d 4648 b5be c6aa 8cbc 9672 25be
000003a0: 349c 3cbe 1078 6d3e 3831 97be f765 9c3e
000003b0: 8d1c 143d a933 bc3d b986 b5be d1d6 933e
000003c0: 7b78 983e 3916 82be c2e0 2bbe d85b bc3e
000003d0: c3b9 b63e 7ace 953e a4f6 003e efd7 8bbd
000003e0: a61d 29be 4022 f83d b4f4 9cbd b8a8 523c
000003f0: 68fe d13e 3473 863e 9cfa bdbe fc52 36bc

bias f4 [50]
-0.12460591 -0.13443 -0.10167169 0.107674584 -0.11079914 -0.09471859 -0.070900396 0.10989036
0.059232425 -0.13895114 -0.02073176 0.050642047 -0.1325113 0.14376013 0.01381818 0.11378085
-0.054014124 -0.13485736 -0.12922685 0.014240029 -0.113322504 0.1052038 0.033906065 -0.025315506
0.024809532 0.017717447 0.033343844 0.05706211 -0.019474251 -0.02603963 -0.12130444 -0.0037969423
-0.02592391 0.06960994 0.1470533 0.04924037 0.048188247 0.101999104 0.108998656 0.007155591
0.06017653 -0.0996398 -0.046145294 -0.0911798 0.033883464 -0.0785229 0.01028338 -0.07994181
0.031672463 0.06548405
00000000: 6231 ffbd 05a8 09be 3f39 d0bd 7e84 dc3d
00000010: a9ea e2bd d2fb c1bd 3a34 91bd 320e e13d
00000020: b39d 723d 3549 0ebe a7d5 a9bc 096e 4f3d
00000030: 0bb1 07be db35 133e a665 623c ef05 e93d
00000040: ea3d 5dbd 0c18 0abe 0b54 04be 034f 693c
00000050: a115 e8bd 1775 d73d 16e1 0a3d 7762 cfbc
00000060: 5c3d cb3c 2e24 913c 8e93 083d f6b9 693d
00000070: 7788 9fbc 1051 d5bc 766e f8bd 1fd6 78bb
00000080: 615e d4bc a88f 8e3d 2495 163e 45b0 493d
00000090: 0a61 453d e8e4 d03d b03a df3d 7379 ea3b
000000a0: aa7b 763d f40f ccbd d902 3dbd 7abc babd
000000b0: 63c9 0a3d 9dd0 a0bd 9f7b 283c 88b8 a3bd
000000c0: fcba 013d 801c 863d

weight f4 [50, 50]
-0.027797787 0.009605926 0.032402303 0.027190417 0.117132284 0.1465167 0.16470507 -0.0699259
0.030212874 0.26958358 -0.2367431 0.5096736 -0.21345033 -0.31788167 0.2313099 -0.27523145
-0.27297127 -0.22456695 -0.37594205 0.2757053 -0.110883355 -0.29305696 -0.25850216 0.22050342
-0.14819242 0.013486256 0.38545465 0.30628565 0.21884958 -0.12205401 -0.11479193 -0.07072571
-0.12629853 -0.21911468 -0.058456823 0.15060313 -0.21062747 0.14716801 -0.14272118 -0.055532195
0.22642483 0.21298663 -0.043040834 0.008401796 0.25171766 -0.16497731 -0.180198 0.23599574
0.13493419 0.3358357 0.123471536 -0.025839832 0.01969314 0.11669634 0.34013063 -0.16519067
0.017978806 -0.12092879 0.035201076 0.07687984 0.28437582 0.11885414 -0.1331376 -0.14807948
0.19858496 -0.06337356 -0.27009526 -0.29416505 -0.10921441 -0.19155766 -0.29431397 -0.14667587
0.043271367 -0.027142005 0.04473978 -0.2567157 0.014824219 0.104700096 0.18368673 0.04347864
0.16173936 0.22506157 0.00064924906 -0.17529295 0.15375376 0.14601235 -0.19758944 0.11534378
0.14100164 0.11359655 0.21865548 -0.15823598 0.21331592 -0.17676246 0.259996 -0.28017178
-0.41819614 0.054608297 0.33013988 0.30465168 0.0025928884 0.33928052 0.13596784 -0.41352978
-0.12645817 0.0044325297 0.31701502 0.26449695 -0.12289769 0.355065 -0.054508638 -0.01568085
0.13258559 -0.15826921 -0.06875767 0.04399275 -0.11862949 -0.12464386 0.18171427 -0.29125673
-0.2780677 0.22443768 0.1402505 -0.12412909 -0.04351322 0.19657117 -0.35069057 0.1018848
0.08120614 -0.00985512 -0.19383006 -0.20930614 0.29881456 -0.24280068 0.20522018 0.17169361
0.1530356 0.066119716 0.0030091277 -0.20820862 0.33547565 -0.16015215 -0.22229907 0.28889576
0.025238127 0.33067432 0.12413986 -0.07418576 0.13419516 -0.34394515 0.00980853 0.018652085
-0.24703762 0.14257818 -0.08920792 0.056923084 -0.14994414 0.120615624 0.07535618 0.03937551
0.23440672 -0.13135418 -0.1067897 -0.040822793 0.50271195 -0.23595756 0.19549651 0.2167876
0.31169724 -0.42477226 0.47032502 -0.11555961 0.14316204 -0.1812172 0.3762351 0.35573617
0.23363121 0.14638723 -0.41874 -0.25149444 0.15938866 0.07407927 -0.22917145 0.0857855
0.09797517 -0.2690897 -0.05193976 -0.08761892 -0.20259787 -0.21950299 -0.23238888 0.12411661
0.0995981 0.18363334 0.23408704 0.14249352 -0.22592722 0.049300473 -0.04697781 -0.020006021
0.1299226 -0.16684021 0.16397473 -0.06766138 -0.031838927 -0.5032973 0.37231323 0.22753231
-0.22445042 0.014693722 0.29306853 -0.13094527 -0.15994993 -0.19836743 -0.30983642 -0.085537806
-0.2847626 -0.124339804 -0.113678664 -0.07241196 0.41783854 0.17996183 0.09023609 0.23647803
0.1221663 0.19432038 -0.25993195 0.3008636 -0.019125663 0.14901972 -0.03624522 0.41299745
-0.04012824 0.06643622 0.036086682 0.054139074 0.101401016 -0.1152094 -0.33767024 0.24366558
-0.106530026 0.0053303977 -0.25176963 0.59998393 -0.345571 -0.04927516 -0.10534336 -0.17694797
0.08929234 0.20492166 -0.24567828 -0.041323148 -0.18418105 -0.17448635 0.053298168 -0.15711813
00000000: 2fb8 e3bc 2d62 1d3c 47b8 043d 70be de3c
00000010: 0de3 ef3d 7908 163e 72a8 283e 4f35 8fbd
00000020: fd80 f73c dc06 8a3e c96c 72be f879 023f
00000030: b992 5abe 63c1 a2be 81dc 6c3e 23eb 8cbe
00000040: e4c2 8bbe e1f4 65be 7a7b c0be 3f29 8d3e
00000050: d016 e3bd 900b 96be 655a 84be a6cb 613e
00000060: c1bf 17be 75f5 5c3c 505a c53e 79d1 9c3e
00000070: 1b1a 603e 74f7 f9bd 0818 ebbd a4d8 90bd
00000080: 6754 01be 995f 60be 6c70 6fbd b537 1a3e
00000090: baae 57be 36b3 163e 8025 12be ba75 63bd
000000a0: e9db 673e 2b19 5a3e 964b 30bd b0a7 093c
000000b0: 23e1 803e d0ef 28be d385 38be dea8 713e
000000c0: 302c 0a3e a8f2 ab3e a5de fc3d 0eae d3bc
000000d0: 8253 a13c 7efe ee3d 9a25 ae3e be27 29be
000000e0: 4a48 933c 83a9 f7bd 012f 103d 2d73 9d3d
000000f0: b599 913e cd69 f33d 3955 08be 26a2 17be
00000100: db59 4b3e ffc9 81bd ed49 8abe cd9c 96be
00000110: ceab dfbd b127 44be 52b0 96be 3332 16be
00000120: 513d 313d e958 debc 0f41 373d 3d70 83be
00000130: 48e1 723c 016d d63d 6018 3c3e a916 323d
00000140: 019f 253e 8a76 663e 5e32 2a3a ff7f 33be
00000150: a071 1d3e 4384 153e e354 4abe 5c39 ec3d
00000160: bc62 103e 4fa5 e83d 39e7 5f3e 9d08 22be
00000170: 7d6f 5a3e 3801 35be 321e 853e ad72 8fbe
00000180: ce1d d6be f3ac 5f3d 1808 a93e 4efb 9b3e
00000190: 73ed 293b 2db6 ad3e 273b 0b3e 2dba d3be
000001a0: 407e 01be c13e 913b cb4f a23e 256c 873e
000001b0: c9b1 fbbd 14cb b53e 7344 5fbd 2075 80bc
000001c0: 84c4 073e 5311 22be d2d0 8cbd be31 343d
000001d0: 05f4 f2bd 4845 ffbd 4e13 3a3e 9a1f 95be
000001e0: e45e 8ebe fed2 653e d49d 0f3e 6437 febd
000001f0: eb3a 32bd f449 493e b78d b3be faa8 d03d
00000200: 684f a63d 5f77 21bc 637b 46be 5954 56be
00000210: 39fe 983e bea0 78be 3d25 523e 73d0 2f3e
00000220: 5db5 1c3e c669 873d c934 453b a434 55be
00000230: 77c3 ab3e edfe 23be 5ea2 63be 25ea 933e
00000240: 30c0 ce3c 254e a93e 0a3d fe3d b4ee 97bd
00000250: 756a 093e 9419 b0be f5b3 203c 42cc 983c
00000260: 6ef7 7cbe 0400 123e a4b2 b6bd 2e28 693d
00000270: f58a 19be 5305 f73d 5754 9a3d 3748 213d
00000280: 5108 703e b681 06be 8fb4 dabd cd35 27bd
00000290: bbb1 003f dc9e 71be 3d30 483e 92fd 5d3e
000002a0: c896 9f3e c07b d9be 71ce f03e 84aa ecbd
000002b0: 1299 123e 0091 39be e3a1 c03e 0d23 b63e
000002c0: 053d 6f3e 89e6 153e 1765 d6be e1c3 80be
000002d0: c836 233e dfb6 973d ecab 6abe 4fb0 af3d
000002e0: 35a7 c83d 20c6 89be c9be 54bd 8c71 b3bd
000002f0: d175 4fbe 64c5 60be 5af7 6dbe d930 fe3d
00000300: 17fa cb3d 610a 3c3e 83b4 6f3e d2e9 113e
00000310: 7759 67be 4bef 493d ce6b 40bd abe3 a3bc
00000320: 6e0a 053e 29d8 2abe fee8 273e 0d92 8abd
00000330: 8969 02bd 18d8 00bf d79f be3e 3bfe 683e
00000340: 55d6 65be f0bd 703c 140d 963e 8416 06be
00000350: eac9 23be d520 4bbe e1a2 9ebe 722e afbd
00000360: 67cc 91be dea5 febd 5cd0 e8bd b94c 94bd
00000370: efee d53e ea47 383e b3cd b83d 4c27 723e
00000380: 5332 fa3d ecfb 463e cd15 85be cb0a 9a3e
00000390: 6cad 9cbc a098 183e de75 14bd 6774 d33e
000003a0: 825d 24bd b70f 883d a1cf 133d efc0 5d3d
000003b0: 56ab cf3d e8f2 ebbd 1de3 acbe 7883 793e
000003c0: 6a2c dabd 9eaa ae3b f3e7 80be 8c98 193f
000003d0: afee b0be c0d4 49bd 42be d7bd d931 35be
000003e0: e7de b63d fcd6 513e 1693 7bbe 7642 29bd
000003f0: f599 3cbe 8dac 32be 2e4f 5a3d 93e3 20be

bias f4 [50]
0.016191239 0.10213151 -0.09518363 0.055796236 -0.13275833 -0.023433093 0.09522004 0.054320384
-0.02744701 0.05064512 0.030836305 0.03228087 -0.03426571 0.038980953 0.05304465 -0.1116668
0.054353144 -0.0212409 0.13827308 -0.11767864 -0.11867509 0.08069967 0.084362596 0.03559076
0.024899831 0.010681563 0.1455661 0.032437876 0.054819565 0.11038796 0.023536667 0.12844822
0.026751028 -0.14039974 0.10035817 0.101335116 -0.13924885 -0.07631939 -0.025095386 0.10225846
0.14904709 -0.098787814 0.06143971 -0.030129697 -0.093601026 -0.09997496 0.017646411 -0.012476399
0.08885716 0.0731344
00000000: 7da3 843c 532a d13d a3ef c2bd 988a 643d
00000010: cdf1 07be c2f6 bfbc b902 c33d 0d7f 5e3d
00000020: 8dd8 e0bc 4271 4f3d 6b9c fc3c f238 043d
00000030: 335a 0cbd 7eaa 1f3d 5945 593d 90b1 e4bd
00000040: 67a1 5e3d 6501 aebc 7597 0d3e 8001 f1bd
00000050: ed0b f3bd de45 a53d 4cc6 ac3d 9ec7 113d
00000060: bbfa cb3c b901 2f3c 480f 153e 94dd 043d
00000070: 7b8a 603d 1513 e23d f8cf c03c ee87 033e
00000080: f924 db3c f3c4 0fbe 9688 cd3d c988 cf3d
00000090: 4097 0ebe 574d 9cbd d794 cdbc e26c d13d
000000a0: cd9f 183e 4451 cabd 35a8 7b3d 8ed2 f6bc
000000b0: e5b1 bfbd acbf ccbd 358f 903c cf69 4cbc
000000c0: befa b53d 7dc7 953d

weight f4 [50, 50]
-0.22032177 -0.11556522 -0.15375394 0.07507213 0.12103115 0.021069812 -0.07899377 0.16786669
-0.08795574 0.43312857 0.046133623 0.078013584 -0.10095765 -0.049261782 -0.059400342 0.0678373
-0.12893635 0.04755347 0.2193616 0.17640091 0.3122134 0.3257599 -0.1738013 0.037573244
-0.37203833 -0.19769172 0.09013521 -0.12901904 -0.07097968 0.25698432 0.2536984 0.2039488
-0.1791748 -0.107993804 -0.24870017 0.09350434 0.42517728 -0.172436 0.022409154 -0.30494994
0.11652896 -0.35294494 0.14407419 -0.082224905 -0.091852635 -0.14379948 0.17786844 -0.057605706
0.065225035 0.32712463 0.13759494 -0.10125475 -0.15509987 0.19827817 -0.1920549 -0.23376341
0.033635445 0.3521756 0.15647975 -0.05713141 -0.1394654 -0.03505991 0.24645539 -0.030709231
-0.09084507 -0.054535706 0.0380691 -0.07273495 -0.17280251 0.38575464 -0.16425966 -0.121634215
-0.0018810455 -0.09459629 -0.20964265 -0.013786963 -0.00956146 0.27837026 -0.47940052 -0.17170474
0.07526781 -0.06663489 -0.32068682 -0.09384351 0.049443096 0.03002549 0.17138147 0.18866532
0.3174224 -0.014744855 0.18783523 -0.25063974 0.19299906 0.18717396 0.15859544 0.27978364
-0.07062952 0.2656924 0.14698756 -0.11705756 0.15177375 -0.057216182 -0.07466147 -0.17792153
0.26672184 0.39855498 0.09250842 -0.021571415 0.06719204 0.12150156 -0.1711434 -0.1588563
-0.06654019 -0.4416407 -0.19108565 -0.22730826 -0.020536482 -0.06486758 0.2133592 -0.090215005
0.16525073 0.3139325 0.1835475 -0.16775168 -0.065437034 0.037288558 -0.20781817 0.013080852
-0.08139642 -0.2185752 -0.14946988 -0.058761336 -0.25628492 -0.14961796 -0.054850694 0.21537958
0.00040243872 -0.09560534 0.2226587 0.24761653 -0.04663507 -0.046449725 -0.19599614 0.11374923
0.0513304 -0.24629392 0.34528953 0.27435762 -0.59552836 -0.14277242 -0.086774066 0.045423698
-0.21885781 -0.27381766 0.022446116 0.23291674 0.20371486 0.0659907 -0.21643716 -0.13483016
0.34864134 0.11067806 0.41539297 -0.25286853 0.2989476 0.035489794 -0.046094846 0.25637847
-0.19208835 -0.2003909 0.06220112 0.07693231 -0.17169246 -0.27830425 -0.6358039 0.12478892
-0.17498684 0.23757014 0.25511914 0.062244836 0.11972538 0.3247317 -0.31842083 -0.21745233
-0.14457765 -0.2579922 0.3453125 -0.088226676 0.2658327 -0.08758386 -0.057497714 -0.2714804
-0.15148357 -0.15011686 -0.22880974 -0.25673047 0.18661965 0.06631699 -0.30269787 0.17655528
-0.17414339 0.16718371 -0.23265457 -0.077924445 -0.5786173 -0.056655437 0.13176495 0.063006856
-0.08921118 -0.14122064 0.30800837 -0.33798054 -0.28943712 0.74613094 -0.204104 -0.06822472
0.33904347 0.18041867 -0.34503913 -0.101211935 0.4307303 0.28154007 -0.031869087 -0.1586989
0.033501584 0.19418924 -0.11986601 -0.04190306 -0.17159982 -0.027042542 0.2742625 -0.067300454
0.46569827 -0.20444673 -0.17932683 -0.05819846 0.46011943 0.27070996 -0.16113299 0.038157567
0.121939674 -0.048997916 -0.5182882 -0.08512932 -0.17728019 -0.08044396 0.05901226 0.011866742
0.3672043 0.053707987 0.05504933 0.21939465 -0.285535 -0.1570665 -0.042935234 0.22727288
00000000: 089c 61be 75ad ecbd ac71 1dbe 6bbf 993d
00000010: 2edf f73d 999a ac3c 7cc7 a1bd 3fe5 2b3e
00000020: 2422 b4bd 07c3 dd3e 9cf6 3c3d 96c5 9f3d
00000030: e2c2 cebd b9c6 49bd c64d 73bd 48ee 8a3d
00000040: e407 04be 6dc7 423d 54a0 603e 71a2 343e
00000050: 6fda 9f3e 00ca a63e f8f8 31be 67e6 193d
00000060: cf7b bebe b36f 4abe cf98 b83d 911d 04be
00000070: cb5d 91bd 7393 833e c2e4 813e f4d7 503e
00000080: 9979 37be db2b ddbd 42ab 7ebe 347f bf3d
00000090: d6b0 d93e 1093 30be 6793 b73c 6622 9cbe
000000a0: bca6 ee3d 33b5 b4be 2f88 133e 8865 a8bd
000000b0: 3c1d bcbd 2c40 13be 2523 363e f6f3 6bbd
000000c0: b494 853d e17c a73e b0e5 0c3e a65e cfbd
000000d0: 80d2 1ebe 6f09 4b3e 0aaa 44be ad5f 6fbe
000000e0: 52c5 093d 5c50 b43e 3a3c 203e a002 6abd
000000f0: 05d0 0ebe fb9a 0fbd cd5e 7c3e ed91 fbbc
00000100: fb0c babd d560 5fbd 58ee 1b3d 10f6 94bd
00000110: 24f3 30be a281 c53e af33 28be 5c1b f9bd
00000120: 6a8d f6ba b3bb c1bd 90ac 56be b7e2 61bc
00000130: aca7 1cbc 8c86 8e3e fc73 f5be 5ed3 2fbe
00000140: 0226 9a3d e077 88bd 1031 a4be 0731 c0bd
00000150: d884 4a3d 04f8 f53c a07e 2f3e 7b31 413e
00000160: 3085 a23e 6894 71bc e157 403e da53 80be
00000170: 8ca1 453e 88aa 3f3e d866 223e cd3f 8f3e
00000180: 36a6 90bd d608 883e e883 163e e0bb efbd
00000190: 946a 1b3e 845b 6abd 1de8 98bd 1031 36be
000001a0: c48f 883e 660f cc3e 0e75 bd3d 89b6 b0bc
000001b0: fb9b 893d cfd5 f83d 3740 2fbe 3aab 22be
000001c0: 3946 88bd bb1e e2be f5ab 43be 7fc3 68be
000001d0: 203c a8bc 4bd9 84bd d67a 5a3e a5c2 b8bd
000001e0: 7d37 293e c3bb a03e e0f3 3b3e 19c7 2bbe
000001f0: da03 86bd e3bb 183d 49ce 54be 1251 563c
00000200: 2bb3 a6bd 2dd2 5fbe a20e 19be baaf 70bd
00000210: c737 83be 7335 19be 1fab 60bd 778c 5c3e
00000220: 69fe d239 bccc c3bd a400 643e 308f 7d3e
00000230: 6a04 3fbd 1142 3ebd 36b3 48be 5bf5 e83d
00000240: d33f 523d 7934 7cbe cac9 b03e 9a78 8c3e
00000250: 8c74 18bf ef32 12be 9ab6 b1bd 330e 3a3d
00000260: 431c 60be d431 8cbe ebe0 b73c ba81 6e3e
00000270: a19a 503e 2226 873d b4a1 5dbe eb10 0abe
00000280: 1e81 b23e 2eab e23d 63ae d43e fc77 81be
00000290: a90f 993e bf5d 113d f3cd 3cbd 0a44 833e
000002a0: cfb2 44be 4633 4dbe 9ac6 7e3d b08e 9d3d
000002b0: 26d0 2fbe e57d 8ebe 0bc4 22bf 5591 ff3d
000002c0: c02f 33be 9645 733e fa9e 823e 71f4 7e3d
000002d0: 9432 f53d 3c43 a63e 0e08 a3be d3ab 5ebe
000002e0: 2a0c 14be 8e17 84be cdcc b03e 30b0 b4bd
000002f0: 391b 883e 2b5f b3bd b982 6bbd 7bff 8abe
00000300: 821e 1bbe 3cb8 19be 1a4d 6abe 2d72 83be
00000310: 3919 3f3e 34d1 873d 37fb 9abe e8ca 343e
00000320: a552 32be 3532 2b3e 003d 6ebe da96 9fbd
00000330: 4320 14bf 880f 68bd 64ed 063e bd09 813d
00000340: 5ab4 b6bd 259c 10be 46b3 9d3e c90b adbe
00000350: 1a31 94be 7002 3f3f a400 51be 67b9 8bbd
00000360: 1b97 ad3e acbf 383e f8a8 b0be 3448 cfbd
00000370: af88 dc3e 0526 903e 2989 02bd f781 22be
00000380: f538 093d 8bd9 463e 507c f5bd 8ba2 2bbd
00000390: ddb7 2fbe 5288 ddbc 226c 8c3e d2d4 89bd
000003a0: 0170 ee3e 7c5a 51be 74a1 37be 8261 6ebd
000003b0: c694 eb3e 7f9a 8a3e 0c00 25be 1c4b 1c3d
000003c0: 82bb f93d 0ab2 48bd 89ae 04bf 4858 aebd
000003d0: f088 35be cebf a4bd d7b6 713d b96c 423c
000003e0: 3402 bc3e e8fc 5b3d 687b 613d fea8 603e
000003f0: a531 92be 0ad6 20be dbdc 2fbd 39ba 683e

bias f4 [50]
-0.10356971 0.02066603 -0.1497566 0.015103341 0.12296455 -0.11706262 0.036523726 -0.10209226
-0.078931704 -0.09751013 0.030262703 0.07852146 0.14703456 0.07454725 -0.07755005 -0.074522294
-0.12370869 0.087925084 -0.019513566 0.02459187 0.029567195 0.050349858 -0.018807948 -0.03668264
-0.05014107 0.13251434 -0.0445761 0.09340656 -0.110967 -0.04932289 0.06751645 -0.11203268
-0.123609506 -0.0018072246 -0.0669502 0.14035168 -0.025625594 -0.029736787 0.020534653 0.11094037
0.015608176 -0.11546462 -0.081994876 0.12396512 0.10450085 -0.060727622 -0.10132774 -0.07344653
-0.08867099 0.052739136
00000000: 5b1c d4bd ce4b a93c cb59 19be 0174 773c
00000010: d7d4 fb3d 87be efbd e799 153d bf15 d1bd
00000020: f2a6 a1bd 64b3 c7bd 7de9 f73c dccf a03d
00000030: 3a90 163e 3bac 983d 90d2 9ebd 259f 98bd
00000040: fb5a fdbd 1112 b43d eada 9fbc e474 c93c
00000050: e736 f23c a73b 4e3d 2013 9abc 8940 16bd
00000060: b960 4dbd d7b1 073e 6e95 36bd f04b bf3d
00000070: ab42 e3bd cc06 4abd 1146 8a3d 6471 e5bd
00000080: fb26 fdbd 65e0 ecba 301d 89bd 5ab8 0f3e
00000090: c4ec d1bc 909a f3bc 4a38 a83c b434 e33d
000000a0: 6fb9 7f3c b778 ecbd eeec a7bd 6de1 fd3d
000000b0: 8b04 d63d 87bd 78bd eb84 cfbd 226b 96bd
000000c0: 2399 b5bd fe04 583d

weight f4 [1, 50]
-0.20395035 -0.15509221 0.024987008 0.30105266 0.48076424 -0.06066849 0.025116205 -0.58617413
0.35196427 -0.119286045 0.1109174 0.048311397 -0.20437224 0.10016096 0.33622354 0.35042804
-0.3662314 0.5686055 0.7596011 0.45602 -0.09296481 0.11490558 -0.2734 -0.41875872
-0.41858467 -0.25705466 -0.14883451 0.0077391947 0.056757674 -0.041784897 -0.7209043 0.10324532
-0.2973744 0.03335055 0.25759107 -0.31412816 -0.21956874 0.006877574 -0.3771004 -0.0007354413
-0.051568802 0.2990832 0.226766 0.6540801 -0.74064237 0.27568918 0.37856486 0.08396935
-0.2640525 -0.11958209
00000000: 5cd8 50be 7ed0 1ebe 8eb1 cc3c 9323 9a3e
00000010: bb26 f63e 867f 78bd 80c0 cd3c 820f 16bf
00000020: a934 b43e 3e4c f4bd a928 e33d 2ce2 453d
00000030: f546 51be 3021 cd3d 7e25 ac3e 4e6b b33e
00000040: af82 bbbe 2190 113f 3875 423f 747b e93e
00000050: 5664 bebd 9e53 eb3d 16fb 8bbe 8b67 d6be
00000060: bb50 d6be ab9c 83be 1368 18be 1299 fd3b
00000070: bc7a 683d a426 2bbd 2f8d 38bf 4872 d33d
00000080: 7541 98be 969a 083d fae2 833e 68d5 a0be
00000090: a1d6 60be 465d e13b 4e13 c1be a1ca 40ba
000000a0: cf39 53bd 6f21 993e 5935 683e cb71 273f
000000b0: bd9a 3dbf 2227 8d3e 41d3 c13e 1ff8 ab3d
000000c0: e431 87be 74e7 f4bd

weight f4 [50, 3]
0.15083686 0.37754172 0.18601692 0.01592389 -0.6951171 -0.38805372 0.2168005 -0.19918582
0.6806198 0.18196525 -0.15612473 -0.22363369 0.020388974 -0.09585561 0.0120646525 0.1814003
-0.0413028 -0.5536367 0.05906187 -0.09932623 -0.23171642 -0.22714697 0.5686826 -0.07147302
-0.27120537 0.05732895 -0.47810125 0.049230773 -0.38943845 -0.56543213 0.1301499 0.19390038
-0.32080376 0.34850955 -0.09719836 -0.3673351 -0.297156 0.11386098 -0.10937265 0.07480895
-0.21330136 0.015298758 -0.3892695 -0.03847261 -0.39053178 0.24696496 0.32580593 0.06829346
-0.009582157 -0.0066295364 -0.07085866 0.024089564 0.09446491 -0.21763545 -0.41246644 -0.16278182
0.37337306 0.033913936 0.1975272 -0.7740508 0.26395655 0.6149839 0.06879183 0.3384293
-0.25963262 0.49835268 0.032359574 -0.10389261 0.39860058 -0.3459595 0.1514361 0.3074665
0.31260473 -0.000709543 0.07068713 0.026898779 0.020017648 0.09263517 0.12356821 -0.2615449
-0.44928804 0.40507227 0.1918911 -0.011564942 0.40693247 0.15666384 -0.16315372 0.21877335
-0.01951217 -0.06773354 -0.1292348 0.1973128 0.17341508 -0.23138222 0.34475103 -0.08632684
0.29182318 0.05382529 -0.16757059 -0.0113439495 0.25446823 0.2863828 -0.07939061 0.43352365
-0.24939573 0.07855337 0.35246524 0.019552104 -0.17971553 -0.24547635 -0.56810063 -0.2413834
0.02706968 -0.26135042 -0.42243832 -0.23446167 -0.18916474 -0.09966914 -0.122698985 -0.44755757
0.5385011 -0.20940316 0.13583943 0.15619962 -0.2574872 0.38833904 -0.13973431 -0.16394484
0.13169113 0.277726 -0.1985761 -0.48857993 0.18154399 -0.13471298 -0.33047953 -0.22682087
0.116252705 -0.24855882 -0.6367832 -0.5235859 0.17423266 -0.27392134 0.10990033 0.43113786
0.69352907 -0.0010321568 -0.19811787 0.018830216 0.18067183 0.054242894
00000000: fa74 1a3e 264d c13e 387b 3e3e d172 823c
00000010: 32f3 31bf faae c6be f300 5e3e 5ef7 4bbe
00000020: 193d 2e3f 1955 3a3e 29df 1fbe 3b00 65be
00000030: c706 a73c f24f c4bd d2aa 453c 00c1 393e
00000040: 202d 29bd 23bb 0dbf dcea 713d 8d6b cbbd
00000050: 1247 6dbe 3799 68be 2f95 113f 7260 92bd
00000060: 6edb 8abe c3d1 6a3d b0c9 f4be 35a6 493d
00000070: 7a64 c7be 29c0 10bf 0446 053e d28d 463e
00000080: 6440 a4be d86f b23e ef0f c7bd 5913 bcbe
00000090: d524 98be f22f e93d c5fe dfbd 6f35 993d
000000a0: ac6b 5abe a4a7 7a3c 554e c7be 7595 1dbd
000000b0: c8f3 c7be 62e4 7c3e 09d0 a63e 71dd 8b3d
000000c0: 7bfe 1cbc 953c d9bb 581e 91bd 7a57 c53c
000000d0: d276 c13d d4db 5ebe cd2e d3be 47b0 26be
000000e0: c12a bf3e 57e9 0a3d 9244 4a3e 3128 46bf
000000f0: 5025 873e 966f 1d3f bbe2 8c3d 9b46 ad3e
00000100: 91ee 84be 1528 ff3e 798b 043d a6c5 d4bd
00000110: 6015 cc3e 9b21 b1be 1112 1b3e 406c 9d3e
00000120: ba0d a03e a000 3aba 6ac4 903d d45a dc3c
00000130: 0dfc a33c 82b7 bd3d 5411 fd3d 37e9 85be
00000140: 1509 e6be a265 cf3e 1a7f 443e e27a 3dbc
00000150: 7459 d03e 7c6c 203e c511 27be 1f06 603e
00000160: fdd7 9fbc e2b7 8abd 2156 04be 5e0c 4a3e
00000170: b993 313e 76ef 6cbe 3583 b03e 20cc b0bd
00000180: d969 953e e877 5c3d a097 2bbe f9db 39bc
00000190: a949 823e c4a0 923e 8b97 a2bd d0f6 dd3e
000001a0: 9861 7fbe 97e0 a03d 5376 b43e bc2b a03c
000001b0: 5907 38be 275e 7bbe 0b6f 11bf 362d 77be
000001c0: 3cc1 dd3c b9cf 85be d649 d8be b816 70be
000001d0: 67b4 41be 561f ccbd 9b49 fbbd 4426 e5be
000001e0: 35db 093f c86d 56be 7e19 0b3e cbf2 1f3e
000001f0: 5dd5 83be 60d4 c63e 8316 0fbe 28e1 27be
00000200: 0ada 063e 1a32 8e3e 8857 4bbe 2627 fabe
00000210: abe6 393e 33f2 09be 9d34 a9be bb43 68be
00000220: e615 ee3d 3486 7ebe 3904 23bf ba09 06bf
00000230: 0c6a 323e 6b3f 8cbe 6d13 e13d 1abe dc3e
00000240: 1f8b 313f 6f49 87ba 69df 4abe d341 9a3c
00000250: 0902 393e cc2d 5e3d

bias f4 [50]
0.09422875 -0.21796118 -0.04219644 0.2968658 -0.2331577 0.26502514 -0.5699774 0.29490653
0.060799494 0.40345073 -0.577935 0.1801334 0.53722775 0.34023175 0.22057499 0.4369634
-0.28050107 0.32496545 0.4419737 0.05409269 0.4342182 -0.48749325 -0.5229303 0.052561596
0.3102532 0.41911554 0.30116147 -0.41568017 -0.24849242 -0.008902458 0.3048494 -0.20863925
0.4876722 -0.09911838 0.15371847 -0.32101575 -0.21361127 -0.503934 0.2990822 -0.072153024
-0.29753813 -0.2805491 0.43880698 -0.035087246 -0.54072464 0.14660767 0.0062441947 0.36277
-0.19701588 -0.45799044
00000000: 01fb c03d 3731 5fbe 2dd6 2cbd cbfe 973e
00000010: e4c0 6ebe 60b1 873e 0aea 11bf fdfd 963e
00000020: e408 793d 1891 ce3e 8cf3 13bf e474 383e
00000030: c287 093f db32 ae3e 69de 613e abb9 df3e
00000040: d69d 8fbe df61 a63e 604a e23e 4c90 5d3d
00000050: d951 de3e b798 f9be c3de 05bf d44a 573d
00000060: 82d9 9e3e 5096 d63e d631 9a3e 08d4 d4be
00000070: cc74 7ebe 9ddb 11bc 3815 9c3e 87a5 55be
00000080: 2cb0 f93e 94fe cabd 6068 1d3e 2d5c a4be
00000090: eabc 5abe d201 01bf 4d21 993e f7c4 93bd
000000a0: eb56 98be 22a4 8fbe 4fab e03e a5b7 0fbd
000000b0: ee6c 0abf 5220 163e 1a9c cc3b fdbc b93e
000000c0: 88be 49be b97d eabe

weight f4 [50, 50]
-0.08599063 -0.22627547 -0.3859727 -0.08193348 0.3944759 0.3916321 0.2954335 -0.10656433
-0.54790604 -0.09775839 0.33540916 0.2662531 0.27001387 0.13392757 -0.17857601 -0.03292054
-0.35868168 -0.28917703 0.5718677 -0.15846826 0.048321407 -0.39836875 0.033529416 0.11602546
0.2864501 0.70281255 0.20902953 -0.4836403 0.025420578 -0.3878585 0.013357526 0.4317478
0.036907274 0.0038868992 0.020754416 -0.13517755 -0.13040143 -0.024894191 0.17854443 0.031968538
-0.47431 -0.07514571 0.1275748 -0.010917975 0.11091591 -0.11327945 -0.06934073 0.20145062
0.0047509247 0.020826947 -0.020225683 -0.20759948 -0.31485966 0.3440089 0.047130894 -0.17955177
0.30324376 -0.51984173 -0.18097977 0.18819648 -0.09715851 -0.07021675 0.19130316 -0.2986888
-0.004104709 0.10383311 0.097800486 -0.26889014 -0.17214839 0.07299022 -0.062122636 0.3779609
0.14685269 -0.32725713 -0.30612338 0.05222305 -0.44206828 0.101476364 -0.32777518 -0.08768385
0.23454612 -0.041245423 -0.058992974 -0.03351801 -0.00918114 -0.0754154 -0.19282505 -0.13506116
-0.46033457 0.038352545 0.13598865 -0.08717166 -0.16111895 0.4676166 -0.22075437 0.0776475
0.48354006 0.21200152 -0.020194199 -0.06621885 -0.073031105 -0.33169523 0.1103728 0.1382966
0.2698967 0.28780782 0.34972677 -0.5120909 -0.025893133 -0.12998375 -0.12871167 0.14861074
-0.36442596 0.15503553 -0.17235458 -0.19766225 -0.0119651975 -0.1272571 0.2784745 0.35092905
-0.13289244 0.19348909 -0.13395718 -0.08125 -0.045124803 -0.38987684 -0.00086415454 -0.18604466
-0.35334364 -0.13087764 0.26313022 -0.27973512 -0.025063809 0.022920482 0.27112794 -0.1680512
-0.0394497 0.035682756 -0.14198619 0.03737384 -0.102320366 -0.05265051 -0.085129276 0.025777789
0.2783475 -0.18249707 0.0805961 0.31949615 -0.15890497 0.095166445 0.0796818 -0.1828442
-0.30305353 -0.26241618 0.19739854 0.11065207 0.033991016 0.089800075 -0.24597144 0.22371534
0.3100303 0.20186989 0.03206071 0.20744197 -0.02662072 -0.29873547 0.29343247 0.073782
0.20695332 -0.150098 -0.1746471 -0.047787786 -0.09235466 0.15640754 -0.30991566 -0.19463043
-0.39964175 -0.17805386 -0.11559467 -0.14964093 -0.1775624 0.6984084 -0.12993643 0.13187742
-0.23511337 0.06558287 -0.4146272 0.115096934 -0.26182047 0.07055206 -0.16902019 -0.336607
-0.20894843 0.07407856 0.051126227 0.12851003 0.15187901 -0.07314906 0.017701829 -0.06285141
0.10745675 -0.36283123 -0.19966927 0.17058983 -0.30282 -0.22021912 0.1086253 -0.2164926
-0.43757832 -0.1533044 0.2874797 0.37093773 0.27159974 0.16492374 -0.18534903 0.23390678
0.25372478 0.07419494 0.019745132 -0.3915767 0.175641 -0.064315386 0.022486253 -0.03009436
-0.20555983 -0.14679939 -0.37013113 -0.09755863 -0.22584106 -0.16842079 -0.018695464 -0.0148828495
0.087371364 -0.03584781 0.0068339715 0.07842936 -0.1739278 -0.13878293 -0.18928449 -0.3254713
-0.20380265 0.23118514 -0.013546458 0.24781565 0.06633702 -0.009015739 0.101891965 0.19798082
-0.17517172 0.037679367 0.11322072 -0.09666608 0.24139844 0.6648288 -0.18667105 0.05578479
00000000: db1b b0bd c2b4 67be 379e c5be becc a7bd
00000010: bff8 c93e 0184 c83e 0f43 973e 663e dabd
00000020: 9243 0cbf 8d35 c8bd c0ba ab3e 5452 883e
00000030: 423f 8a3e 4f24 093e a1dc 36be b0d7 06bd
00000040: 20a5 b7be 030f 94be ec65 123f 8145 22be
00000050: abec 453d fdf6 cbbe 2456 093d c29e ed3d
00000060: 96a9 923e 86eb 333f d60b 563e b49f f7be
00000070: d13e d03c 6495 c6be 86d9 5a3c 0c0e dd3e
00000080: 152c 173d 59bb 7e3b 2a05 aa3c fc6b 0abe
00000090: f487 05be e7ee cbbc 5ad4 363e 71f1 023d
000000a0: c3d8 f2be fee5 99bd f8a2 023e 4ee1 32bc
000000b0: e127 e33d 0eff e7bd 8302 8ebd 1249 4e3e
000000c0: a5ad 9b3b 469d aa3c 55b0 a5bc f594 54be
000000d0: 4935 a1be ef21 b03e 530c 413d 6bdc 37be
000000e0: c442 9b3e 5914 05bf c352 39be 94b6 403e
000000f0: 0afb c6bd cdcd 8fbd fae4 433e bded 98be
00000100: cb80 86bb 74a6 d43d 9f4b c83d f8ab 89be
00000110: ab47 30be e57b 953d 4e74 7ebd 1784 c13e
00000120: 8d60 163e 3f8e a7be 34bc 9cbe d6e7 553d
00000130: c656 e2be d7d2 cf3d 26d2 a7be 9793 b3bd
00000140: dc2c 703e f6f0 28bd 9ea2 71bd 2e4a 09bd
00000150: 7e6c 16bc 6473 9abd ee73 45be 794d 0abe
00000160: f9b0 ebbe 8f17 1d3d 9c40 0b3e 0e87 b2bd
00000170: 5efc 24be 716b ef3e 6f0d 62be a705 9f3d
00000180: 9092 f73e ed16 593e 4e6e a5bc c09d 87bd
00000190: 5591 95bd f5d3 a9be 220b e23d a09d 0d3e
000001a0: e62f 8a3e 8c5b 933e 630f b33e 6418 03bf
000001b0: d61d d4bc 761a 05be fecc 03be 6a2d 183e
000001c0: 0a96 babe a2c1 1e3e b87d 30be f967 4abe
000001d0: ad09 44bc af4f 02be 3694 8e3e f9ac b33e
000001e0: f514 08be 0122 463e 122c 09be 6666 a6bd
000001f0: c9d4 38bd f09d c7be 6e88 62ba 7e82 3ebe
00000200: 75e9 b4be ca04 06be 01b9 863e 7139 8fbe
00000210: 9e52 cdbc bcc3 bb3c 48d1 8a3e 9d15 2cbe
00000220: 0296 21bd 1528 123d d464 11be 5015 193d
00000230: 578d d1bd 10a8 57bd 4258 aebd f12b d33c
00000240: 9083 8e3e 83e0 3abe 910f a53d 0095 a33e
00000250: fcb7 22be a0e6 c23d 3630 a33d 833b 3bbe
00000260: d529 9bbe 6a5b 86be d822 4a3e 8d9d e23d
00000270: 2a3a 0b3d 1ae9 b73d f0df 7bbe a215 653e
00000280: 4bbc 9e3e fbb6 4e3e 1752 033d ab6b 543e
00000290: b213 dabc dbf3 98be c83c 963e 041b 973d
000002a0: 92eb 533e 4ab3 19be b0d6 32be 20bd 43bd
000002b0: 7124 bdbd 4c29 203e 44ad 9ebe 334d 47be
000002c0: d89d ccbe c053 36be e6bc ecbd 793b 19be
000002d0: ebd2 35be e5ca 323f 0e0e 05be e00a 073e
000002e0: 8fc1 70be 5050 863d 044a d4be f1b7 eb3d
000002f0: 550d 86be 997d 903d a113 2dbe c157 acbe
00000300: 94f6 55be 80b6 973d bc69 513d 2298 033e
00000310: 2c86 1b3e 2dcf 95bd 6d03 913c 3db8 80bd
00000320: 4912 dc3d 04c5 b9be 1a76 4cbe 1aaf 2e3e
00000330: 390b 9bbe 1f81 61be f176 de3d 3cb0 5dbe
00000340: 440a e0be d4fb 1cbe 8a30 933e 8deb bd3e
00000350: 1f0f 8b3e c5e1 283e 23cc 3dbe 4285 6f3e
00000360: 37e8 813e 84f3 973d 8bc0 a13c be7c c8be
00000370: 3cdb 333e c9b7 83bd 1735 b83c 7288 f6bc
00000380: 477e 52be 9452 16be d481 bdbe d2cc c7bd
00000390: e142 67be 8076 2cbe 3b27 99bc 32d7 73bc
000003a0: c2ef b23d 27d5 12bd 82ef df3b 939f a03d
000003b0: 211a 32be 1d1d 0ebe cbd3 41be 2da4 a6be
000003c0: a4b1 50be ccbb 6c3e f7f1 5dbc 63c3 7d3e
000003d0: b4db 873d c0b6 13bc bcac d03d 7cbb 4a3e
000003e0: 3760 33be ae55 1a3d 44e0 e73d def8 c5bd
000003f0: 2731 773e 3832 2a3f b226 3fbe 987e 643d

bias f4 [50]
0.12704927 -0.0027359712 0.13577591 0.008872974 -0.029202934 0.05549833 0.073108055 0.07708899
0.06839633 -0.10299933 -0.12102906 0.12682098 0.06540144 -0.11332341 -0.053691745 0.03219407
-0.06819491 0.056438494 -0.08052167 -0.12441508 -0.08594682 -0.0011265691 0.09685747 0.12910362
0.07944803 0.036437184 0.032206625 0.09563466 -0.0025143293 0.04161009 0.059617594 0.08879496
-0.04878707 0.01785982 -0.15790811 -0.058196504 -0.077372104 0.03860976 0.011646574 0.012456974
0.13719568 0.13034803 0.14083779 0.1481251 -0.07598271 0.03114497 0.0038373207 0.0027568876
0.115648106 -0.021916796
00000000: 3419 023e fb4d 33bb d708 0b3e f35f 113c
00000010: fe3a efbc 3852 633d adb9 953d d5e0 9d3d
00000020: 6013 8c3d 50f1 d2bd 15de f7bd 5cdd 013e
00000030: 31f1 853d 1b16 e8bd e0eb 5bbd eedd 033d
00000040: c6a9 8bbd 0d2c 673d 8ce8 a4bd 55cd febd
00000050: e304 b0bd 63a9 93ba 365d c63d bd33 043e
00000060: a6b5 a23d 283f 153d 18eb 033d 1bdc c33d
00000070: 72c7 24bb 576f 2a3d 9431 743d 22da b53d
00000080: f3d4 47bd c24e 923c aab2 21be 755f 6ebd
00000090: 4475 9ebd 4525 1e3d 46d1 3e3c 5618 4c3c
000000a0: 067d 0c3e f479 053e c837 103e 1bae 173e
000000b0: d39c 9bbd bc23 ff3c 8f7b 7b3b e6ac 343b
000000c0: ead8 ec3d da8a b3bc

weight f4 [50, 50]
-0.11549126 -0.1046854 0.13011582 -0.10869161 0.062302247 0.07364983 0.04519493 -0.17712966
-0.010481014 0.013185289 0.41390747 0.6926138 -0.18944353 0.1629304 0.054342024 0.023634043
-0.20360513 0.17633292 0.6046215 -0.04520207 0.24272521 -0.350835 -0.31333998 0.03153647
0.3644161 -0.20006053 -0.34000587 -0.002816593 -0.06721562 0.028518213 0.10902467 -0.04435159
0.086003855 0.14609908 -0.10305001 -0.059990935 -0.22876485 -0.037977755 -0.11715969 -0.1755057
-0.21847871 0.0129717 -0.09372026 -0.33465868 -0.33306384 0.20393543 0.13507324 0.101269186
-0.13744919 -0.27717808 -0.40291005 0.21639162 0.079628326 -0.2369278 -0.05556078 -0.20911567
-0.22344439 -0.12533133 0.04243499 -0.05871409 -0.020026587 0.065029785 0.15425551 0.0537272
-0.2511648 0.008909555 -0.06280131 -0.1508558 -0.27926135 -0.092933215 0.025270546 -0.11734078
-0.06802095 -0.0042942003 0.22304901 -0.2176657 -0.1120858 -0.43008232 0.18591617 -0.029200086
-0.017404474 -0.11475486 0.2660585 -0.13014217 0.24803881 -0.28142285 -0.04363406 -0.116928436
-0.013126495 -0.2417413 0.3285027 0.037355736 -0.095082946 0.04947964 -0.00901414 0.03561063
0.24611054 -0.21680857 0.09654615 0.12242067 -0.13491844 -0.09355134 -0.0044723405 0.24842922
-0.1681547 -0.22172068 -0.0016480287 -0.12490107 0.3601847 -0.2721719 -0.09487453 -0.2691527
0.34837776 0.3289038 -0.008832183 0.24589038 0.14817701 0.38838515 -0.113158256 0.3565724
0.43042296 -0.12833604 0.20067936 -0.08434789 0.35086924 -0.33833212 0.04820111 -0.032550763
-0.13287266 -0.15007232 0.014048364 -0.036882605 -0.3341105 0.05157528 -0.021752425 -0.014196386
-0.07186427 -0.06147695 0.1088865 0.23719774 0.20182766 -0.18678616 -0.12026097 -0.46417597
0.09576698 -0.20522502 0.16818246 0.36249137 0.17044167 0.277624 0.19007935 -0.07310187
0.07108391 0.14557537 -0.21325561 0.26010394 -0.087009124 -0.43217263 -0.06605711 0.17580667
0.089044675 -0.20524408 -0.3663978 -0.4081759 0.066100895 -0.15520126 -0.39333332 0.16368616
0.17171252 -0.4683394 -0.115009286 -0.0031501788 0.43881065 0.33037958 0.26920372 -0.14971586
-0.21090528 0.120582 0.22077799 0.06604001 -0.090189114 -0.08733751 -0.25150675 0.05933684
0.08265854 -0.09696591 -0.34458232 -0.019515315 -0.3079509 -0.09310723 -0.17799371 0.34560236
-0.15543206 0.22993588 -0.31878436 0.2367952 -0.006397419 0.005568092 -0.30750194 -0.20512933
0.28571227 -0.04081526 -0.25021836 0.04339356 -0.037719727 0.4239264 0.17197077 -0.17624277
-0.09330144 0.7417124 0.060893003 0.26312616 0.17136218 0.09216269 0.29265586 0.25159544
-0.22838098 0.24078014 0.0578807 0.09182637 0.10160521 0.298903 -0.3809679 -0.006188704
-0.33122844 -0.092061944 -0.09190462 -0.15969491 -0.26347318 -0.012281925 -0.12392242 0.13184462
0.19764596 -0.03915946 -0.08548226 0.010574244 -0.27286252 0.16223186 0.36130464 -0.03095868
-0.18071677 -0.27174383 0.07002838 0.32285142 -0.24095903 -0.30551785 -0.22194701 -0.41432133
-0.055193163 -0.2127499 -0.28724065 -0.18570451 0.024188127 0.18620409 -0.0707678 0.54430974
00000000: af86 ecbd 4d65 d6bd 153d 053e b599 debd
00000010: a430 7f3d b9d5 963d 521e 393d 7a61 35be
00000020: 8fb8 2bbc 1c07 583c aeeb d33e 234f 313f
00000030: 7cfd 41be 3ad7 263e be95 5e3d 2e9c c13c
00000040: dd7d 50be 9e90 343e 7ac8 1a3f ce25 39bd
00000050: f58c 783e a5a0 b3be 196e a0be 632c 013d
00000060: bf94 ba3e abdc 4cbe 4015 aebe 9796 38bb
00000070: 58a8 89bd 079f e93c 5448 df3d 03aa 35bd
00000080: ca22 b03d ff9a 153e e20b d3bd 0eb9 75bd
00000090: 5541 6abe 908e 1bbd 6bf1 efbd c4b7 33be
000000a0: e2b8 5fbe 4187 543c 68f0 bfbd 6258 abbe
000000b0: 5887 aabe 73d4 503e a450 0a3e 3866 cf3d
000000c0: 7bbf 0cbe 49ea 8dbe 3a4a cebe c495 5d3e
000000d0: 2d14 a33d 349d 72be b393 63bd 6b22 56be
000000e0: 9bce 64be db56 00be 50d0 2d3d 307e 70bd
000000f0: cc0e a4bc 562e 853d 28f5 1d3e 0d11 5c3d
00000100: ac98 80be 62f9 113c f99d 80bd f179 1abe
00000110: 58fb 8ebe c553 bebd 2d04 cf3c 5d50 f0bd
00000120: 914e 8bbd 5db6 8cbb f666 643e c2e3 5ebe
00000130: 3d8d e5bd c033 dcbe cf60 3e3e 0535 efbc
00000140: d493 8ebc 9904 ebbd d238 883e fd43 05be
00000150: e3fd 7d3e a816 90be a1b9 32bd 2d78 efbd
00000160: 8310 57bc 088b 77be 8231 a83e 5402 193d
00000170: d9ba c2bd 2aab 4a3d 0bb0 13bc 74dc 113d
00000180: 6704 7c3e 1103 5ebe fdb9 c53d b0b7 fa3d
00000190: 0f28 0abe d897 bfbd b68c 92bb 3b64 7e3e
000001a0: bf30 2cbe bf0a 63be ab02 d8ba 22cc ffbd
000001b0: 216a b83e 1e5a 8bbe 944d c2bd 62ce 89be
000001c0: 925e b23e 1466 a83e dcb4 10bc b0ca 7b3e
000001d0: b7bb 173e 6bda c63e 84bf e7bd a890 b63e
000001e0: 6660 dc3e 866a 03be e47e 4d3e 96be acbd
000001f0: 22a5 b33e de39 adbe 876e 453d f353 05bd
00000200: c50f 08be 8fac 19be 1c2b 663c 3712 17bd
00000210: 8810 abbe 9a40 533d 2432 b2bc f597 68bc
00000220: 932d 93bd 41cf 7bbd e3ff de3d f7e3 723e
00000230: e9ab 4e3e df44 3fbe 624b f6bd 79a8 edbe
00000240: 7a21 c43d 8226 52be 0638 2c3e 7898 b93e
00000250: 4388 2e3e bc24 8e3e 29a4 423e 6fb6 95bd
00000260: 7194 913d b611 153e ae5f 5abe 582c 853e
00000270: d731 b2bd bb45 ddbe f348 87bd aa06 343e
00000280: 0e5d b63d 812b 52be 7e98 bbbe 6efc d0be
00000290: e85f 873d 14ed 1ebe fc62 c9be 589d 273e
000002a0: 68d5 2f3e 2fca efbe fd89 ebbd 3b73 4ebb
000002b0: caab e03e 8327 a93e 12d5 893e 1d4f 19be
000002c0: 8ef7 57be b2f3 f63d a013 623e fc3f 873d
000002d0: 12b5 b8bd 02de b2bd 7ec5 80be 300b 733d
000002e0: e148 a93d 1096 c6bd 186d b0be 95de 9fbc
000002f0: beab 9dbe 01af bebd fc43 36be cbf2 b03e
00000300: 9529 1fbe 5074 6b3e b437 a3be 717a 723e
00000310: 71a1 d1bb 8b74 b63b e570 9dbe 6c0d 52be
00000320: e148 923e e72d 27bd 9f1c 80be 72bd 313d
00000330: 0080 1abd e20c d93e 1b19 303e fc78 34be
00000340: d314 bfbd dde0 3d3f f16a 793d 79b8 863e
00000350: 9179 2f3e cbbf bc3d fdd6 953e 1ed1 803e
00000360: b4dc 69be 128f 763e 5014 6d3d 770f bc3d
00000370: 6416 d03d d009 993e 390e c3be 9dca cabb
00000380: c696 a9be f98a bcbd 7d38 bcbd 1087 23be
00000390: f5e5 86be 213a 49bc 0acb fdbd 4702 073e
000003a0: b463 4a3e ac65 20bd 5311 afbd 983f 2d3c
000003b0: a3b4 8bbe 1c20 263e ecfc b83e 0f9d fdbc
000003c0: d10d 39be 0222 8bbe 0a6b 8f3d c84c a53e
000003d0: f7bd 76be d66c 9cbe 1446 63be ed21 d4be
000003e0: 3a12 62bd 1cdb 59be 3511 93be 5329 3ebe
000003f0: 2e26 c63c 49ac 3e3e b5ee 90bd e257 0b3f

bias f4 [50]
0.093873516 -0.088226944 -0.14679295 0.042135287 -0.007542971 0.043284934 0.12184742 -0.0074409973
0.12806726 0.1374864 -0.120988555 0.12368949 0.07029735 0.0861674 -0.076024905 -0.068951435
-0.15254486 -0.118857116 0.071710646 -0.105803125 -0.07322256 -0.0150367515 -0.08523461 0.029771658
-0.16618197 -0.043204665 -0.044398114 0.044061914 0.04295777 -0.043507166 -0.13542941 -0.019551033
0.10655981 -0.10521247 -0.10729123 0.007295665 -0.113710366 -0.075495206 0.057477772 -0.08272596
0.013469493 -0.0439445 0.08195596 0.08683889 -0.025979873 0.19956626 -0.1233741 -0.09526932
-0.12974599 0.13106258
00000000: c240 c03d 54b0 b4bd e450 16be 0d96 2c3d
00000010: 072b f7bb 8b4b 313d 248b f93d 9cd3 f3bb
00000020: 1024 033e 3cc9 0c3e d9c8 f7bd ea50 fd3d
00000030: 0ff8 8f3d 8978 b03d f2b2 9bbd 6936 8dbd
00000040: b834 1cbe 5c6b f3bd 08dd 923d 4faf d8bd
00000050: b6f5 95bd b55c 76bc 7c8f aebd b1e3 f33c
00000060: 9b2b 2abe 60f7 30bd ccda 35bd 447a 343d
00000070: 7df4 2f3d 9234 32bd 02ae 0abe 7d29 a0bc
00000080: 083c da3d a379 d7bd 81bb dbbd 7910 ef3b
00000090: fbe0 e8bd 3b9d 9abd d06d 6b3d 3a6c a9bd
000000a0: 26af 5c3c 26ff 33bd 87d8 a73d 97d8 b13d
000000b0: bed3 d4bc 195b 4c3e 8fab fcbd 901c c3bd
000000c0: 22dc 04be 4535 063e
