models/NeuralLVModel_standard_1e-08.pt (torch, 511891 bytes, 146 tensors)

weight f4 [50, 2]
000000 b6 54 d2 be c9 38 9d 3e f2 f3 b1 3e bf 90 da be
       -0.41080254 0.30707386 0.34756428 -0.42688558
000010 88 9d 1f bf f5 0f dd bd fa a9 9e 3e a4 8c 87 bb
       -0.6234975 -0.10794059 0.30989057 -0.0041366387
000020 64 a4 f8 3e ef 12 07 3f 4e 5c 42 be 33 91 64 be
       0.4856292 0.52763265 -0.18980524 -0.22321014
000030 9f f3 99 bd 80 44 11 be 55 fe b6 3d b4 b6 d1 bd
       -0.0751717 -0.14186287 0.08935229 -0.10239926
000040 b4 16 aa be d3 f0 d4 3d 28 3d 9b 3e 10 7b e2 3d
       -0.33220446 0.10397496 0.30320096 0.110586286
000050 00 07 34 be fb fb 38 be b0 aa 86 be 96 05 16 3e
       -0.17580795 -0.18064873 -0.263021 0.14650568
000060 d2 1e 2e 3e ee 43 a1 3e 6f 47 8e be 0c 47 71 be
       0.17003945 0.3149714 -0.27788875 -0.23562258
000070 55 35 0d 3e 29 c8 b8 be bf 5e 03 3e 1f 41 89 be
       0.13789876 -0.3609021 0.12829112 -0.26807496
000080 37 d6 20 3e 75 a3 fe be ca 82 b2 3e 6e 0c 87 3e
       0.15706716 -0.49734083 0.3486541 0.2637667
000090 af 2a b0 be 72 0d ab bd 72 4a 09 bf 94 13 78 3d
       -0.34407565 -0.08352174 -0.5362922 0.060565546
0000a0 c7 b2 96 bc e3 e9 24 be 9d cb c3 3d 52 72 f9 bd
       -0.018395795 -0.16104846 0.095603205 -0.12180008
0000b0 7a f6 b0 3e d7 23 5d be 7b 41 6d be 41 9b a5 be
       0.34563047 -0.21595703 -0.2316951 -0.32345012
0000c0 4e 58 3d be 21 87 75 3e 44 7b 06 3f e0 9d 1a bd
       -0.18490717 0.23977329 0.5253184 -0.037748218
0000d0 b1 57 a4 3e 00 da 35 3e 15 b2 ff 3e 62 4b 66 3d
       0.32098153 0.17758942 0.49940553 0.056224234
0000e0 69 c6 b2 3e 1f 17 38 3c 8b 13 bd 3d 84 ce 39 3d
       0.34917 0.011235981 0.09232243 0.045362964
0000f0 fc c5 29 3d 30 ba 35 3e bb f0 92 bd 63 e5 63 be
       0.04144858 0.17746806 -0.07174822 -0.22255473
000100 62 84 ca bd 8e d2 2d be 50 a6 af 3e 6f 5a 59 bd
       -0.09888531 -0.16974851 0.34306574 -0.05306476
000110 81 9e 18 3f 22 b5 86 be e5 03 85 be 78 94 09 3e
       0.5961686 -0.26310068 -0.25979534 0.13435543
000120 13 ee bb be af 77 12 3f 25 5f df be 2d 54 cb be
       -0.36705074 0.5721387 -0.43627277 -0.3971266
000130 7e 4a 8d 3d 7c 7c b7 3e 3e 85 fb bd 26 06 17 bd
       0.06898974 0.35837162 -0.12281273 -0.036871098
000140 a8 28 26 bf ad f9 04 bf f1 f8 0f bf 00 ba 94 3e
       -0.64905787 -0.51943475 -0.5623923 0.29048157
000150 ec 16 12 3e 65 ad 90 be f4 01 0a 3f b9 bf 28 3e
       0.14266557 -0.2825729 0.5390923 0.16479386
000160 e8 48 1e bd ad 63 4f 3f e8 2d 8d be 42 c0 87 3e
       -0.038643748 0.8101147 -0.27574086 0.2651387
000170 0f c5 87 be fb 33 b7 bd b0 47 9b be 85 fc a0 be
       -0.2651753 -0.08945461 -0.3032813 -0.31442657
000180 c0 a0 93 3b 13 40 25 3d 84 65 5c be e3 28 22 3e
       0.004505247 0.04034431 -0.215231 0.1583591

bias f4 [50]
000000 9d a8 d0 bd 69 3f 0b 3f 34 d1 4c 3d aa f7 7d 3e
       -0.101884104 0.5439363 0.0500042 0.24801508
000010 c1 5b ed 3e af f2 93 be 8a d3 0d 3f 17 61 f1 bd
       0.46359065 -0.2889609 0.5540091 -0.117860965
000020 66 eb 0c bf c9 88 8f 3d 3d 50 89 3e 3a 4e 99 3e
       -0.5504669 0.070085116 0.2681903 0.29942495
000030 bf 65 71 3e 91 de a3 bd cf db 49 3e 39 77 8e 3e
       0.2357397 -0.080014355 0.19712757 0.27825335
000040 64 c7 50 bd 8c 77 2f 3f 3a b8 41 3d 7a 3b 26 be
       -0.050971404 0.6854179 0.047294833 -0.16233626
000050 dd 4a c7 3e 49 09 10 3f a1 22 4d 3d 93 a1 0c 3e
       0.38924304 0.5626417 0.050081853 0.1373351
000060 be 54 09 3f 8a 42 19 3e 7b fe 35 3f 6c ce da 3d
       0.5364493 0.14966789 0.7109143 0.10683903
000070 31 e9 1a 3e aa cb 8a 3d 81 4a 29 3d 3a f0 8c 3d
       0.15128018 0.06777127 0.041330818 0.06881757
000080 a0 5e 6f 3e 9b 82 b2 3d d1 ac 14 3f ae cd 0e 3f
       0.2337594 0.08716317 0.58076197 0.5578259
000090 91 20 b0 3e 82 51 0b bf a4 05 33 3d c6 c2 47 3e
       0.34399846 -0.54421246 0.04370655 0.19507894
0000a0 09 36 e6 be 36 e2 88 3e 3d c1 a6 be 27 91 ea be
       -0.449631 0.26735085 -0.32569304 -0.45813867
0000b0 7c 88 84 be e7 9f 79 3c a4 47 fc 3e 91 df d9 3e
       -0.2588538 0.015235878 0.49273407 0.4255338
0000c0 00 79 ec bd ab 29 71 3e
       -0.115465164 0.23551051

weight f4 [50, 50]
000000 a5 86 5d 3d 71 8c 8b bd 35 3a a1 3e 45 fb 66 3e
       0.054083485 -0.068138964 0.3148972 0.22556789
000010 0f ea bb bd 60 4d 89 be 63 6d 06 bd b7 a9 29 3d
       -0.091755025 -0.26816845 -0.032819163 0.04142162
000020 39 0e ab 3d 20 c7 36 3d ee 6f 2b 3e 9f c3 7d 3c
       0.08352322 0.044623494 0.16741917 0.015488534
000030 1b d2 9a bd d3 20 4f 3d cb 48 af bd a5 06 5c 3e
       -0.07559606 0.050568413 -0.08558806 0.2148691
000040 77 3b 69 3d c5 92 76 be 45 b9 49 be c2 e7 46 3e
       0.056941476 -0.24079426 -0.19699581 0.19424346
000050 25 e0 41 be f4 70 b3 be 2e 1c 79 3d b5 81 94 3e
       -0.1893316 -0.35047114 0.06081789 0.2900521
000060 c0 9e c0 bd 1f 46 7c 3e 97 f0 83 bd fd 14 39 3e
       -0.09405279 0.24636124 -0.06442373 0.18074413
000070 07 eb 61 bd 02 0e 69 3e 3e 19 5d be b9 1a 5a 3e
       -0.05515578 0.2275925 -0.2159166 0.21299256
000080 18 b7 b2 be b7 f0 6c be 73 26 a6 bc 61 c9 08 be
       -0.34905314 -0.231387 -0.020282006 -0.1335807
000090 cc 74 9c 3e d6 d7 24 be fd 63 85 3e 88 43 dc bd
       0.3055786 -0.1609796 0.26052848 -0.10755068
0000a0 3c 33 a3 bd 6e c3 0a 3e b3 4e 45 be 7b 28 5b bd
       -0.079687566 0.13551113 -0.19268303 -0.053505402
0000b0 a8 fb b2 3e 26 cc 96 bc 99 6e 0e be f5 df 23 be
       0.34957623 -0.018407892 -0.13909377 -0.16003402
0000c0 ef 3a ec 3d 85 41 25 be aa 57 20 3e fd 45 23 bd
       0.11534678 -0.16138275 0.15658441 -0.039861668
0000d0 22 71 2b 3e 04 9e 3b 3e ea d6 51 bd 11 cc 85 be
       0.16742375 0.18321997 -0.05123035 -0.26132253
0000e0 e0 29 97 3e 4f 69 01 3f 71 8b 24 3c 75 41 c7 3e
       0.29524136 0.50551313 0.010043011 0.38917127
0000f0 cc 4f c8 3d 3f 25 55 be bf e4 16 be 71 7b ae bb
       0.09780845 -0.2081499 -0.14735697 -0.005324774
000100 a5 d4 81 bd 88 54 ed 3c 59 9b b7 3e b9 38 74 3e
       -0.06339387 0.028970972 0.35860708 0.23849763
000110 70 41 8e be 07 37 6e bd 98 91 a1 3d 56 39 a5 be
       -0.277843 -0.058157947 0.07889098 -0.32270306
000120 8f af 50 3d 85 77 9f be b3 28 b2 3a 85 f3 50 3e
       0.050948676 -0.31145874 0.0013592452 0.20405395
000130 58 1d a3 bc 70 79 a7 3e 4b bd b8 bd 11 a3 94 3e
       -0.019911453 0.32709837 -0.0902048 0.2903066
000140 07 fe 93 3e 20 fb 4b bd 2a b9 e0 3e 3e aa 36 3c
       0.28904745 -0.04980004 0.4389127 0.011148987
000150 71 e3 47 be 3a e2 86 3d 8c 48 e0 3d aa 3e 77 3d
       -0.19520356 0.06586118 0.10951337 0.060362495
000160 17 08 10 be 58 f7 99 be a0 17 f1 be 15 62 38 3e
       -0.14065586 -0.3007152 -0.47088337 0.18006165
000170 74 ed 45 3d 85 89 99 3e 6f 90 20 3e c9 d3 70 3e
       0.048322156 0.29987732 0.15680097 0.2351829
000180 ea 56 ef 3d f4 2e 89 bd c1 cb 00 3e a5 e8 0a bd
       0.116864994 -0.06698409 0.12577726 -0.033913273
000190 3f 6d ac be ac a1 0c be a8 2d 81 3e 95 fd 31 3d
       -0.33677098 -0.13733548 0.25230145 0.043454725
0001a0 c2 dd f0 3e fe 69 a6 3e 3a a9 d9 bd 75 4a aa 3d
       0.47044188 0.3250274 -0.106279805 0.08314983
0001b0 af c5 af 3d d5 71 1e be 41 c4 51 be 33 b5 5b be
       0.08582627 -0.15473111 -0.20485021 -0.21455841
0001c0 55 5f b9 3e 02 d2 86 bd ed 30 3e 3e 5f da d5 be
       0.36205545 -0.065830246 0.18573351 -0.41768166
0001d0 99 41 07 3e d5 39 56 3d e7 f0 00 3e 6a cf 30 3e
       0.13208617 0.052301247 0.12591897 0.17266622
0001e0 fe 80 71 3d a3 3e 7d 3d 84 78 e4 3e 6b af de be
       0.058960907 0.061827313 0.44623196 -0.43493208
0001f0 64 a2 35 3e 1e 89 03 be 29 61 7e be 93 c4 e4 be
       0.17737728 -0.12845275 -0.24841751 -0.44681224
000200 39 e4 31 bc 5e f2 92 bc 43 43 9b 3d 67 5e 51 be
       -0.010857635 -0.017937835 0.075811885 -0.20446168
000210 8f a1 63 bd c4 24 6d 3d 48 88 67 3e 85 88 a2 be
       -0.055573996 0.05789639 0.22610581 -0.3174478
000220 77 1b 14 bf 41 f8 49 bd b4 29 01 3e e8 99 d3 3d
       -0.5785441 -0.04930902 0.12613565 0.1033209
000230 8f e9 a5 3c 12 52 c3 bd 12 84 17 3e 23 61 2c 3e
       0.020252971 -0.09537138 0.14796475 0.1683393
000240 23 17 14 3e 0e 60 39 be fb 11 b5 be 55 a4 1b be
       0.14461951 -0.18103048 -0.3536528 -0.15199406
000250 0e 01 44 3e 05 01 f2 3d 3d 17 8b 3e ac 56 98 be
       0.19141027 0.11816601 0.27166167 -0.29753625
000260 a4 46 81 be 65 ed 1d bd 65 c0 5f be 7e 0f 65 bd
       -0.25249207 -0.038556475 -0.21850736 -0.055922978
000270 dc 23 96 3e 56 07 18 be fc 4b 81 3d 20 2d 96 3e
       0.29324234 -0.14846548 0.06313321 0.29331303
000280 c6 6c ac be a7 89 d7 bd 75 0b 72 3d 86 0c b7 bc
       -0.33676738 -0.10524302 0.059092958 -0.022344839
000290 b3 f7 c2 3e a8 c2 df bc 91 a6 88 be 1a 61 ab 3e
       0.38079605 -0.027314499 -0.2668958 0.3347252
0002a0 47 64 e8 bd 77 9c e0 bc 42 82 af 3d c5 31 3e be
       -0.113472514 -0.027418358 0.085697666 -0.18573673
0002b0 f2 0f 7b 3d de f8 20 3e c5 46 0e be 0d b3 95 be
       0.061294504 0.15719935 -0.13894184 -0.29238167
0002c0 7f 07 b1 3c 15 99 1d bd 38 70 c6 be eb 73 5a be
       0.02161002 -0.03847607 -0.3875749 -0.21333282
0002d0 75 02 96 3d 6a 66 5c be df f1 8d bd 77 f2 98 bd
       0.073246874 -0.21523443 -0.06930899 -0.074681215
0002e0 ad 56 8a 3b c6 bd a8 bd ed 18 9b 3d a0 3d 53 3d
       0.0042217583 -0.082393214 0.075731136 0.051572442
0002f0 2e 38 30 3e 74 7b 8a be 8e 01 39 3e 32 3a 0d be
       0.17208931 -0.27047312 0.18067 -0.13791731
000300 76 fd c0 be fc 17 a1 3d a3 a2 5f bd 22 86 2c 3e
       -0.37693375 0.07865903 -0.05459846 0.16848043
000310 08 27 cd 3b 57 55 92 bd 6a 6c 78 be 35 97 98 bd
       0.0062607564 -0.071451835 -0.24260107 -0.074507155
000320 41 88 e4 bd 53 75 bd be 9f b4 a1 3d fe 96 16 be
       -0.11158801 -0.37003574 0.07895779 -0.14706036
000330 95 7e 47 be d9 7f 03 bc 19 9f 03 3e ab 7a c2 bd
       -0.19481881 -0.008026087 0.1285366 -0.09496053
000340 57 47 91 be 45 a0 76 3d d4 5c 93 bd b1 77 91 bb
       -0.2837474 0.06021144 -0.0719544 -0.004439317
000350 bd e9 8c be 60 5c c0 3d db 30 9c bd b9 98 80 bd
       -0.27522078 0.09392619 -0.07626506 -0.062791295
000360 f0 9b bd 3c d5 c3 f7 bd 15 b8 0c 3d 33 97 86 3c
       0.023145646 -0.12097899 0.03435524 0.01642952
000370 73 c3 1d 3b 1a 78 22 bd 6e dd d7 bd d6 a6 af 3d
       0.0024072796 -0.03966532 -0.10540281 0.08576743
000380 04 aa b9 be 0d 2c a1 bd 3a 40 71 be 26 a9 2d be
       -0.36262524 -0.0786973 -0.23559657 -0.16959056
000390 ea 46 4c 3e 3e 60 c6 3d b8 00 22 be e5 1c e8 bd
       0.19948927 0.096863255 -0.15820587 -0.11333636
0003a0 fc 6d a6 bd 6b d4 34 3e 2f 61 2f 3e 04 75 d1 3c
       -0.081264466 0.17659156 0.17126916 0.025568493
0003b0 6c f5 ec 3d b4 1d c6 3e 0c 9b 02 3e 7c c7 33 be
       0.11570248 0.38694537 0.12754458 -0.17556566
0003c0 07 72 e6 3e a3 39 b5 3d c8 a2 38 3e 05 97 34 bd
       0.4500887 0.08848884 0.18030846 -0.044089336
0003d0 85 7f 8b be 95 0d 34 3e 91 a8 9b 3e d8 b7 4a 3e
       -0.27245727 0.17583306 0.30402043 0.19796693
0003e0 b9 fe ac be 50 bb 77 bd 5d b5 52 3e 96 9c a1 3e
       -0.33788088 -0.06048137 0.20576997 0.31564778
0003f0 26 2b d5 3d 31 4e 4b 3e 4f 0f 04 3c 40 cc da bb
       0.104086205 0.19854046 0.0080602905 -0.0066771805

bias f4 [50]
000000 4d 26 f4 bb cb d3 26 bc 50 ef 71 3c af 71 b8 bd
       -0.007450855 -0.010182331 0.014766529 -0.090060584
000010 ee 43 df bd 27 1c 97 bd ec 92 5f bc 98 10 35 3d
       -0.109016284 -0.073784165 -0.013645869 0.04420528
000020 dc ae b1 3d b3 6b 77 bd 38 cc b9 bd 0d 40 f0 3d
       0.0867593 -0.060405444 -0.09072155 0.11730967
000030 8f ce c9 bd 73 5a ce 3d e5 d3 8c bc fd e5 40 bc
       -0.09853851 0.100758456 -0.017190883 -0.0117735835
000040 c3 ed 32 3d 6b cf 19 bd a4 24 18 be 88 09 15 be
       0.04368378 -0.037551325 -0.14857727 -0.14554417
000050 30 f7 8e 3d 65 bc 02 3e c4 0f e8 3d a0 e7 b3 3d
       0.06980741 0.1276718 0.11331132 0.08784413
000060 d5 01 34 bd 66 a7 88 3d 05 3a ac bc 05 e8 c4 3c
       -0.04394706 0.06672554 -0.02102376 0.024036417
000070 01 cc 01 be cb 9c ce bd 48 57 03 3d fc 0b 08 bd
       -0.12675478 -0.100885 0.03206566 -0.033214554
000080 88 72 73 3d d5 ac 89 3d 3a 52 a8 3d 63 11 c0 bd
       0.059435397 0.06722418 0.082188085 -0.09378316
000090 c1 31 97 bc bb 35 74 bc 9e 18 f2 bc 02 99 99 bc
       -0.018456342 -0.0149053885 -0.029552754 -0.018749718
0000a0 c3 2d c8 3c b1 ac d6 bc a7 5b 56 bb ac a5 af 3d
       0.024435883 -0.026205393 -0.0032708438 0.08576521
0000b0 4b 92 6e 3d ab 8b 07 be a5 28 a7 3c 48 6b c0 bd
       0.058244985 -0.13236873 0.020405123 -0.09395462
0000c0 e3 79 10 3e 91 2b e5 3d
       0.14108996 0.1118995

weight f4 [50, 50]
000000 90 35 85 3e ee 1f 62 3e 32 e7 80 3b 74 12 2f 3e
       0.26017427 0.22082493 0.0039338106 0.17096883
000010 69 d3 20 bc 0a 1a 8f 3b 2a 9a 69 3d bc 0c 50 3c
       -0.009816029 0.004367118 0.057031788 0.012698349
000020 d5 ae 02 bd 22 b3 3c be 54 43 2a 3e 08 05 0f bd
       -0.031905014 -0.18427709 0.16627246 -0.034916908
000030 89 b0 f3 be 8f bf b4 3e e5 ec dd 3d 0d 7c f5 3e
       -0.47595623 0.35302398 0.108362 0.47946206
000040 38 30 d6 3c 69 17 10 3e f1 7b e7 3e 6d ef cf 3d
       0.02614604 0.1407143 0.45211747 0.10153089
000050 b3 de 95 3d 0c 57 44 3e 07 ec dc be 93 e0 74 3e
       0.07317867 0.19173831 -0.43148825 0.23913793
000060 18 45 d9 be b0 80 16 be e3 55 bf bb c1 8e 27 be
       -0.42435527 -0.14697528 -0.005839096 -0.1636305
000070 02 f4 88 bd 16 a2 cb 3d 60 00 b2 3d 08 fb 68 be
       -0.06687166 0.09943025 0.08691478 -0.22752011
000080 a8 d1 e6 bd 82 8b 95 3b 60 d2 17 3b 59 51 3c bc
       -0.112704575 0.00456375 0.0023166165 -0.011494004
000090 40 2a c2 3d ad cf 59 be 48 2e 2c 3e f3 a9 40 be
       0.09480715 -0.21270628 0.1681453 -0.1881483
0000a0 2a 83 98 be db 00 b9 3e 78 9a 84 3e 8e 6f b8 be
       -0.2978757 0.36133465 0.258991 -0.3602261
0000b0 e4 cd af 3d a8 b8 38 bd b5 61 87 3e 11 44 53 bd
       0.085841924 -0.045097977 0.26441732 -0.051578585
0000c0 5b 1e a1 be 8c 22 0a 3e 0c 59 13 be a4 55 6a 3d
       -0.31468472 0.13489741 -0.14389437 0.05721058
0000d0 a0 dd 65 3e 23 1e bb bd 61 46 c5 be 82 b3 da 3d
       0.22447824 -0.091366075 -0.38530257 0.1067877
0000e0 22 fe 83 be fd ce b3 bd be 6f a2 3e 96 c3 43 3e
       -0.25779825 -0.08779714 0.31725878 0.19117579
0000f0 7a bb d4 3d e8 3b 80 be 98 33 36 3d 38 b3 e4 3e
       0.10387321 -0.25045705 0.044482797 0.44667983
000100 6e 24 98 3e 21 a3 a0 bd e5 62 86 3d aa f9 ae 3e
       0.29715294 -0.07843614 0.065618314 0.34174854
000110 26 ba b5 3e 44 7c 90 be 4c 8a 22 be 3e c2 e5 3e
       0.35493582 -0.28219807 -0.15873069 0.44874758
000120 c6 e8 d7 bd 24 d4 96 3e 23 05 0c be 13 7f 38 be
       -0.10542445 0.29458725 -0.13673835 -0.18017225
000130 29 54 9d 3d 76 92 98 bd ae f0 15 3e b6 54 11 3e
       0.07682068 -0.0744981 0.14642593 0.14192471
000140 c8 91 ad 3e 14 8e f9 3d 42 c7 d6 bd bd 7e 21 3e
       0.33900285 0.121853024 -0.10487224 0.15771003
000150 13 83 33 3d d3 d7 3d bc e9 a8 33 be e6 f4 8e be
       0.043826174 -0.011587101 -0.17544903 -0.27921218
000160 51 51 f7 3d 80 38 94 bb 68 61 bd bd a3 14 d6 be
       0.12076057 -0.004523337 -0.092470944 -0.4181262
000170 46 e6 43 3e 22 70 3c 3e a7 44 dc bd 88 b3 a6 3e
       0.19130811 0.1840215 -0.10755282 0.32558846
000180 42 43 55 3e 75 27 26 be 27 bc 86 bd d1 3e 1c 3e
       0.20826438 -0.16225989 -0.06578856 0.15258338
000190 f9 a4 30 3e 83 bd 57 3e 00 bb 84 3d f2 ef ca 3d
       0.17250432 0.21068387 0.0648098 0.09909047
0001a0 7a a8 48 be d8 10 cc 3d 88 57 4c bd 76 bd 8c 3e
       -0.19595519 0.0996415 -0.049888164 0.27488297
0001b0 a6 bc 5d 3e 86 78 73 bd 1c e0 98 3d 84 3d 26 3b
       0.21653995 -0.059441112 0.074646205 0.0025366256
0001c0 84 46 9e be d9 72 d1 3d 6a 60 13 be ff 86 07 bd
       -0.30913174 0.102269836 -0.14392248 -0.033087727
0001d0 1d 4d 87 be 42 f9 01 bb a4 8c da be f5 c4 1d be
       -0.2642602 -0.0019832407 -0.42685425 -0.15407164
0001e0 f0 54 c2 3e bb c1 98 3d 06 03 c1 3e 82 ba 00 be
       0.37955427 0.07458826 0.3769762 -0.12571147
0001f0 94 e5 ba 3c bd c7 21 3e af 6c d1 3e 56 fb 1d be
       0.02281455 0.1579885 0.40903232 -0.15427908
000200 76 b7 38 bc d8 ec 64 be fb 7c 64 3e bf 64 7a bd
       -0.011274209 -0.22355974 0.22313301 -0.061131235
000210 45 1c f8 3d 8d dc db be a2 a7 cc 3d b5 8c 26 be
       0.12114767 -0.42941704 0.09992911 -0.16264613
000220 07 0e 72 bd b6 d7 23 be 48 f3 4e be 89 ff 27 bc
       -0.05909541 -0.16000256 -0.20209992 -0.010253795
000230 cc c7 70 3e d6 df 71 be 62 06 95 be f7 3f 65 bd
       0.23513716 -0.23620543 -0.29106432 -0.055969205
000240 80 ec ae be e1 e2 5e be 06 1e 0b bf 4c bd 26 be
       -0.3416481 -0.21766235 -0.5434269 -0.16283149
000250 0b 77 9c 3e 94 63 d7 3e 2e 2d 81 be 15 4e e0 bd
       0.30559573 0.4206816 -0.25229782 -0.10952393
000260 4d 7b a3 be f3 25 3f be b7 3d 47 3e 91 b2 88 3d
       -0.3193001 -0.1866682 0.19457136 0.06674684
000270 95 2d ba 3e bc f9 49 3d db f6 3d 3e 28 78 4b 3e
       0.363629 0.04931043 0.18551199 0.19870055
000280 bf 1d 68 be 30 16 b0 be 67 5a 1c 3f 69 29 8f 3d
       -0.22667597 -0.34391928 0.61075443 0.0699032
000290 a0 d4 13 bd 42 cf 94 3d 17 3f 95 3c da 9c 7b 3d
       -0.036091447 0.07266094 0.01821856 0.061428882
0002a0 fd 35 d6 bc 68 5f b1 bc 18 c5 a9 3e 1c 94 0b be
       -0.02614879 -0.021651939 0.33158183 -0.13630718
0002b0 43 0d 6f 3d b6 38 20 3e 88 9d 5c be aa bf 37 be
       0.058362257 0.15646634 -0.21544468 -0.17944208
0002c0 4f 52 8b be 53 c7 a2 bd 47 92 cb 3e 9a d2 e1 3c
       -0.27211234 -0.07948174 0.39760038 0.027566243
0002d0 eb 2d 9f 3d 43 98 8e be b6 1e 8a be 11 8e cb bd
       0.0777243 -0.2785054 -0.26976556 -0.099392064
0002e0 37 0b 78 3e 20 ae dc 3e c0 63 ac 3e 79 a6 86 be
       0.24223028 0.43101597 0.33669853 -0.26298884
0002f0 73 68 e8 bd 8c 03 51 3e 07 fe 02 bd 0e 44 db bd
       -0.11348047 0.2041151 -0.03198054 -0.1070634
000300 0e 7d d6 3d fa 6f 3e 3e 22 a5 b7 3e 02 cb a5 3d
       0.10473071 0.18597403 0.35868174 0.08095361
000310 b5 a0 06 be 56 51 c8 3e 7e 31 4c 3d 63 5f 43 3e
       -0.13147242 0.39124554 0.049851887 0.19079356
000320 04 14 8f bd 52 52 b9 3e 98 e8 ce be a9 09 69 bd
       -0.069862396 0.36195618 -0.4041183 -0.05689398
000330 98 0f 8e be b2 c6 28 be 5e ec 7b 3e 6b 96 a9 be
       -0.27746272 -0.16482046 0.24601886 -0.33122572
000340 11 e9 48 bd d9 37 02 be dc 64 40 be e1 e8 92 bd
       -0.049050394 -0.12716617 -0.18788475 -0.071733244
000350 42 c6 8e 3e a3 19 b9 bd 4a a6 b9 3e e8 d2 74 bb
       0.27885634 -0.09038093 0.3625968 -0.0037357155
000360 42 7c 0e bd d6 c2 fd 3d 3b af 86 3e 7a 91 c4 3e
       -0.03478647 0.12390678 0.26305565 0.3839224
000370 35 0e 97 bd 16 57 24 be ae 3a ef 3c 32 ed 89 3e
       -0.07375757 -0.16048846 0.029202785 0.26938778
000380 fd f0 1b bf bf 34 91 be 9f db 02 bd c8 32 e9 bd
       -0.60914594 -0.28360555 -0.03194773 -0.11386639
000390 2a 2d 80 3d d6 16 be 3b 6b 10 d4 3d af ea 53 be
       0.06258614 0.005801062 0.10354694 -0.20694993
0003a0 93 45 8b b9 5f ce a5 be 09 b9 99 be 9e 30 22 be
       -0.00026563983 -0.3238401 -0.30023983 -0.15838858
0003b0 6d 43 2c 3e fd 2a 97 3d a7 fc d1 bd a6 3b c3 3c
       0.16822596 0.07381246 -0.10253268 0.023832154
0003c0 f3 54 b7 3d a3 74 62 3e 9a ee 23 3e af b2 01 3e
       0.0895175 0.22114806 0.16008988 0.12665819
0003d0 36 82 17 3e b5 ee 66 be c0 f9 b2 be f6 57 81 be
       0.14795765 -0.22551997 -0.3495617 -0.2526242
0003e0 15 5c c4 3d 5d 76 da bc 8a 0d 27 be 9d ee 9b 3e
       0.09587876 -0.026667768 -0.16313758 0.30455485
0003f0 aa e8 23 be 48 36 47 bd aa 4c 0d bf e5 a4 c9 be
       -0.16006723 -0.04863575 -0.55195105 -0.39383617

bias f4 [50]
000000 af 1f b9 3d c9 6c d2 3d 07 8a 49 3d 2a 1e aa 3d
       0.09039246 0.10274655 0.0492039 0.083065346
000010 25 14 e2 bd db f4 a5 bd 7f cf 16 be 52 b1 85 3d
       -0.110389985 -0.08103343 -0.14727591 0.06527962
000020 18 e9 83 3d d7 a8 6c bc f3 65 b5 bd 58 90 9a bd
       0.064409435 -0.014444551 -0.08857336 -0.07547063
000030 cf 19 03 be 1d 48 e8 3c b8 e3 ac 3d 6a 02 0b 3e
       -0.12802814 0.028354699 0.084418714 0.1357514
000040 c3 ae d7 bc f8 78 f9 bd d5 54 bf 3d b8 65 bf 3d
       -0.02632845 -0.12181276 0.09342352 0.09345573
000050 b4 2d 08 be dd 8f dd bd 9b 90 96 bc ee 4c 32 3d
       -0.13298684 -0.10818455 -0.0183795 0.043530397
000060 88 74 1a be 87 0c 15 3d fc 23 37 bd d3 bf ed 3d
       -0.15083516 0.0363889 -0.04471205 0.11608853
000070 c8 53 c8 bd e1 e9 32 3d 88 c9 ba bc 63 68 ba bd
       -0.09781605 0.043680076 -0.022801176 -0.091019414
000080 bb 57 15 3e 4a 85 23 3c f5 84 e0 3d 72 46 07 3e
       0.14584248 0.009980509 0.109628595 0.13210467
000090 35 20 f7 bd 0a cd f9 3d 81 78 bf 3d 47 03 e1 bc
       -0.1206669 0.12197311 0.09349156 -0.027467383
0000a0 86 f6 f8 bd d9 1f 76 3d d3 82 05 3e dd eb 4e 3c
       -0.121563956 0.060088966 0.13038187 0.012629476
0000b0 0f 9f e1 bd 03 4f 6a 3d 7b 3a e0 bd fd 51 1c be
       -0.11016666 0.057204258 -0.10948654 -0.15265651
0000c0 2f 90 4a 3d 43 fc fa bd
       0.04945391 -0.12255146

weight f4 [50, 50]
000000 de 66 94 3e 2b 67 cc be f9 65 8e 3e f2 b2 06 be
       0.2898473 -0.3992246 0.27812174 -0.131542
000010 03 7d a7 bd 78 a3 8d be 0f 8c 32 3e 4f c0 b8 3e
       -0.08178141 -0.2766378 0.1743624 0.3608422
000020 ef 92 57 3e 04 51 79 3e 51 1e 97 3e bf 6c b3 be
       0.21052144 0.24347311 0.29515317 -0.35043904
000030 03 87 22 be 6f b6 15 3e b2 b5 8c be 0d 67 ba bb
       -0.15871815 0.14620374 -0.27482373 -0.005688554
000040 ac 5b 5d bd 71 1e 0d be 3e f7 95 bd 0b 1d 38 bc
       -0.054042503 -0.13781144 -0.07322548 -0.011237393
000050 11 a0 44 3d eb 03 28 be 84 88 11 3e 75 2d 2e be
       0.048004214 -0.16407745 0.14212233 -0.17009528
000060 9d 85 08 bd cd ef ef 3d 5f af 3c 3e 19 0c 4f 3d
       -0.03333055 0.1171566 0.18426274 0.050548647
000070 d3 1f c8 3e f9 60 e7 bd 54 6d da bd d4 55 31 3e
       0.3908678 -0.11297793 -0.10665384 0.17317897
000080 f4 4c 94 bd 3b 59 51 be db da e9 bd 7b ce 62 bd
       -0.0724124 -0.20444195 -0.114186965 -0.055372696
000090 9d 4e 50 3d c0 17 41 3d 56 c7 8d 3e e5 8f 2f 3e
       0.05085622 0.04714179 0.27691144 0.17144735
0000a0 63 6d c1 be 22 d1 7c 3b e5 0b 5a be 3c 13 3f 3e
       -0.37778768 0.0038576801 -0.212936 0.18659681
0000b0 11 62 f0 3e 87 f4 a8 be 20 9d 80 be 05 0c bb be
       0.4694982 -0.3299906 -0.25119877 -0.36532608
0000c0 e3 c4 e0 3e 94 c7 32 3e d0 8b 44 3e 52 4f 4a bd
       0.43900213 0.17458946 0.19193959 -0.049392052
0000d0 34 3f a6 bd 9d 9b a3 bd ef 30 68 be cd 8f 5c 3d
       -0.08117524 -0.07988665 -0.22674917 0.053848077
0000e0 18 91 8f 3e be de 20 3e cf 9a c3 3d 81 97 d8 3c
       0.28040385 0.1570997 0.09551012 0.02643943
0000f0 4c 65 e8 bd 51 9f c7 3e 2a 75 02 bf 25 41 9a be
       -0.11347446 0.38988736 -0.5096003 -0.30127826
000100 ca e6 c8 3e be 18 9e 3d 7c f0 19 3e 34 db e2 bb
       0.39238578 0.07719563 0.15033144 -0.0069231037
000110 3d bf 2f 3e 85 d3 eb 3d 02 05 28 3c 15 0a 68 be
       0.17162795 0.115149535 0.0102551 -0.22660096
000120 a5 63 b2 be 2d b4 34 bd 5a 5d bf be 4d f8 14 3d
       -0.34841648 -0.04411714 -0.3737591 0.03636961
000130 4e ff bd be aa 2c 6e 3e ba 4c ad 3c 8a a4 a9 bd
       -0.37108845 0.23259225 0.02115475 -0.082833365
000140 d7 0b 4a bd 9a 6f 86 3e 12 f1 58 3e 13 fb 3a be
       -0.049327698 0.2625702 0.21185711 -0.1825984
000150 c9 6c 0f bd b7 46 a0 bd 93 79 a0 3b f0 10 48 3e
       -0.035015855 -0.07825988 0.0048973053 0.19537711
000160 da 07 ab bb d3 db b4 bd d2 bf 92 3d bd 9b 81 be
       -0.005219442 -0.08830991 0.07165493 -0.2531413
000170 e2 93 40 be d8 7e 26 3e c7 63 14 3d fd 7a 20 be
       -0.18806413 0.16259325 0.036227968 -0.15671916
000180 58 8f 51 3e 06 88 81 3e 2d cc 1a 3e b6 0c 53 3e
       0.20464838 0.2529909 0.1511695 0.20610318
000190 1f 2d 9a be 52 b4 03 bc 4a 44 8b 3e 8a 9b 1b 3e
       -0.3011255 -0.008038597 0.27200538 0.15196052
0001a0 8e 94 77 3e f2 2d 06 3c 0a e5 a8 3e bd 94 6c bc
       0.24177763 0.008189665 0.32987243 -0.014439759
0001b0 e9 2e 10 be d2 c5 c6 be 18 26 f8 3e 85 bc a0 be
       -0.14080395 -0.388228 0.48466563 -0.3139383
0001c0 b5 66 5b 3e 92 fc 74 3e f1 6d f6 bd 80 ac 44 bd
       0.21425898 0.23924473 -0.120326884 -0.04801607
0001d0 0f 25 0f 3e 57 c6 ce 3d cf b9 24 be 04 ea 65 be
       0.1397898 0.10096424 -0.16086505 -0.22452551
0001e0 d1 e5 30 be 41 0d 22 be 8b e4 3b 3e 7d 93 21 bd
       -0.17275168 -0.15825368 0.18348901 -0.039447296
0001f0 ff fa 11 3e 8e f5 b5 39 03 41 6c 3e b5 15 93 3b
       0.14255904 0.00034705963 0.23071675 0.0044886717
000200 f6 b4 51 3e 1e ea 99 be 26 32 31 3e f3 ca 79 3d
       0.20479187 -0.3006143 0.17304286 0.060984563
000210 75 1e 22 bd e0 f1 71 bd c4 3a 04 3d 54 01 01 3e
       -0.039579827 -0.05906856 0.032282606 0.12598163
000220 48 22 ab 3d 5d 39 8b be ab 65 89 bb 17 3b af be
       0.08356148 -0.27192202 -0.004193028 -0.3422477
000230 80 4b 69 be 31 f4 8d 3e 56 49 2d 3d f7 f9 2f 3e
       -0.22782707 0.27725366 0.042306267 0.17185198
000240 4d 70 90 be 26 69 2a 3d cb f6 2a 3c 11 27 af be
       -0.2821068 0.041604184 0.010434817 -0.34209493
000250 a2 a1 39 be cc 3f c2 bd f7 4d 65 3e 11 af 7e 3e
       -0.18128064 -0.094848245 0.22393022 0.2487147
000260 bf ff 48 3b b4 84 3a be 43 2e b7 3e f0 54 fe bb
       0.0030670015 -0.18214685 0.35777482 -0.00776159
000270 75 bd e6 bd b8 5d b3 3e f4 7f 3c be 44 3a 51 be
       -0.11266605 0.3503244 -0.18408185 -0.20432383
000280 68 bd 48 3d 81 13 bd be 36 b3 50 3e b7 59 8b bd
       0.049008757 -0.36928943 0.20380864 -0.06804221
000290 ba ee af be 9b 2e ba 3b 61 30 0f 3f d6 cd 0e 3f
       -0.3436182 0.0056818253 0.55933195 0.5578283
0002a0 1f 41 73 be 7e 55 54 be 0d 60 33 3e c8 d3 52 3d
       -0.2375531 -0.20735738 0.17517109 0.0514715
0002b0 78 80 d9 ba 00 8d 8e 3e 4c e1 d4 be 50 bb 70 be
       -0.0016594073 0.2784195 -0.41578138 -0.23508954
0002c0 d2 a3 1a be 6b d9 d4 bd b7 13 82 be 6d c9 21 be
       -0.15101555 -0.10393032 -0.25405666 -0.15799494
0002d0 95 de 31 be bc 28 8f bd 02 69 2d 3c c9 87 57 3e
       -0.17370065 -0.06990191 0.010584118 0.21047892
0002e0 d4 b7 45 be 5c 52 c5 bd 8a cc 81 3e fb 5f 0b bf
       -0.19308406 -0.096348494 0.25351363 -0.5444333
0002f0 66 4f 05 3f 17 42 42 3f b4 1d 75 bd 15 45 14 3d
       0.5207428 0.75882095 -0.05984278 0.036198694
000300 14 67 eb be b8 2f c2 3d 8c 62 0c bd 31 88 4d be
       -0.4597708 0.09481758 -0.03427367 -0.20071484
000310 b4 29 2f 3b 07 b6 61 3e 0f 93 77 bf 3d 66 d8 3d
       0.0026727738 0.22042094 -0.9670877 0.105663754
000320 7c 61 7e bd 28 75 8d 3d 2d d1 87 be 53 15 ca 3e
       -0.062104687 0.069071114 -0.26526776 0.39469394
000330 cb 59 54 3d 67 67 bf 3d 45 3e d3 bd e8 fa 0e bd
       0.051843446 0.09345894 -0.10314611 -0.03490725
000340 83 bd d6 3c e2 7e 5c 3e 8c d3 fa 3d 1a e0 f6 be
       0.026213413 0.21532777 0.122473806 -0.4821785
000350 d5 3c 4d 3e eb 4f 96 be 02 b5 28 3e 2d 7e 14 bd
       0.20042737 -0.29357848 0.16475299 -0.036253143
000360 1e e9 d7 bd 64 ce 9d bd 8d 47 d4 ba 25 a5 87 be
       -0.105425104 -0.077053815 -0.001619564 -0.26493183
000370 8c 2e a2 3e 34 10 bc 3e 36 54 92 3e f9 af cd bb
       0.31676137 0.36731112 0.28579873 -0.006277081
000380 b1 2b 9b 3e c3 5f fa bd 8d 5c d7 bc 46 d2 28 3e
       0.3030677 -0.12225296 -0.026289249 0.16486463
000390 0e f2 97 3e 9e 7a 0e 3d c3 f9 91 3e 6a 01 ed bd
       0.2967686 0.034784906 0.28510866 -0.11572535
0003a0 ab 0a 18 3e 77 6b 86 be 7e 32 c4 3c 86 28 a1 be
       0.1484782 -0.26253864 0.023949858 -0.3147623
0003b0 f8 87 9c bd a7 dc b7 bd ae 02 30 bd b7 c5 ab 3e
       -0.076431215 -0.08977633 -0.042971306 0.33549282
0003c0 0d bf 33 be 26 ff c4 3e 69 00 5d 3e b9 41 99 be
       -0.17553349 0.38475913 0.21582188 -0.29932955
0003d0 37 b5 f8 3e fa 84 ab 3e cd ea 23 be cf 8b 82 bd
       0.48575756 0.3349989 -0.16007538 -0.063743226
0003e0 57 c3 e1 3d 7e de 58 3d 50 6f b9 bd 28 20 9c 3d
       0.11023586 0.05294656 -0.09054434 0.07623321
0003f0 de ce bc 3d ff 28 ca be 3e b2 90 be 5b aa 01 be
       0.09219144 -0.39484403 -0.28260988 -0.12662642

bias f4 [50]
000000 64 0e eb 3d f6 8e a7 3d 41 8a b1 bd 0c 20 1a bd
       0.11477354 0.081815645 -0.08668948 -0.03762822
000010 97 29 04 be 6a 90 e5 bd 91 cd 2b bd 9e be d7 3d
       -0.1290649 -0.112091854 -0.04194409 0.10534404
000020 a4 46 ee bd d8 1a 02 be f5 dc b4 bd 1a 6b 29 3d
       -0.116345674 -0.12705553 -0.08831207 0.041361906
000030 d7 03 f3 bd 03 a4 bc 3d 25 30 bb bd 8c 48 86 bd
       -0.11865967 0.0921097 -0.09140042 -0.06556806
000040 15 1b a3 3b 09 71 47 3d 0b af f6 3b a0 bc cd bc
       0.0049775937 0.048691783 0.007528191 -0.025114357
000050 9d 25 c7 3d 4f c6 da 3d a6 ca fd bd 90 3c 89 3b
       0.09723971 0.106823556 -0.12392168 0.004188128
000060 be 66 77 3d b7 df 55 bc 9a c5 12 bc ff 8b 45 3d
       0.060400717 -0.013053826 -0.008958245 0.048229214
000070 4f bf c2 bd 12 c0 b6 3d 72 c2 d7 3d c2 54 eb bc
       -0.095091455 0.08923353 0.105351344 -0.02872694
000080 87 09 e6 3d 15 41 ec bd 46 f3 8c bc bd 15 af 3d
       0.11232286 -0.11535851 -0.017205846 0.08549068
000090 8b de b9 bd 06 e8 89 3d 61 21 fa 3d 75 a3 a0 bd
       -0.0907565 0.06733708 0.12213398 -0.07843677
0000a0 31 6e e1 bd 2f c2 f6 bd b6 3f c2 3d 1d dd 9c 3d
       -0.110073455 -0.12048756 0.09484808 0.076593615
0000b0 8f a4 92 3d de b2 28 bd c6 96 4b bd ff 7b 7f 3d
       0.07160293 -0.041186206 -0.049704336 0.06237411
0000c0 16 65 9b 3d 8b 33 5a bd
       0.0758764 -0.05327181

weight f4 [1, 50]
000000 4b 68 70 3e a9 2a 1d be 0d 68 8e 3c 3e 73 f2 3f
       0.23477285 -0.15348305 0.0173836 1.8941419
000010 19 fa 10 bf 07 40 7c be e0 2c bd be ce 27 00 bf
       -0.5663162 -0.246338 -0.369483 -0.5006074
000020 3e a4 30 be dc f9 ed be bf 80 a4 3e 85 05 96 be
       -0.17250153 -0.4647969 0.32129475 -0.29301086
000030 c8 69 31 be fd f3 cb 3e 5b 84 14 be 5d 79 26 bd
       -0.17325509 0.39834586 -0.14503615 -0.040643085
000040 b7 b5 26 be 7c cb 84 3d 84 c5 76 bc 5e ef 57 be
       -0.16280256 0.06484124 -0.01506174 -0.21087405
000050 bc 2a 93 be 16 80 8b 3e 4d 90 c9 bc da e5 85 38
       -0.2874354 0.2724616 -0.02460494 6.3847474e-05
000060 ea a0 b5 bd a8 c6 67 3f 0f b9 65 3e 4c ea be bc
       -0.088685825 0.905375 0.22433876 -0.02330508
000070 6a 9f 9d be 8c be be be 09 c6 66 3d e3 99 08 3e
       -0.30785686 -0.3725475 0.056341205 0.13339953
000080 ea e3 82 3e 48 a8 5d be 76 18 f0 bc 60 96 61 3e
       0.2556451 -0.21646225 -0.029308539 0.2203002
000090 3d bf 1d be 5b 50 19 3d 49 11 c4 3d 6e 08 b7 3e
       -0.15404983 0.03743015 0.095736094 0.3574862
0000a0 61 66 64 be b0 c5 62 bd d5 e6 86 3e 7b e3 9e 3e
       -0.2230468 -0.05536431 0.26347986 0.3103293
0000b0 1c 0e 4a bc 26 27 01 bf 4c a1 8a 3d bc 0a b5 3d
       -0.0123324655 -0.5045036 0.06769046 0.08839938
0000c0 b1 3d 1e be 48 34 ea 3e
       -0.15453221 0.45743012

weight f4 [50, 2]
000000 31 c8 20 bd 6e ed 99 be 73 78 c3 3d dd c7 d2 3e
       -0.039253417 -0.30063957 0.09544458 0.4116811
000010 50 c1 37 3e 06 29 cb 3e b8 f7 b3 be fb de 35 3e
       0.17944837 0.39679736 -0.35149932 0.17760842
000020 11 78 c6 bd 87 6b 27 be 86 c8 38 3d 9a 63 81 3e
       -0.096908696 -0.16349612 0.04511311 0.25271302
000030 3f 50 a2 be cc aa ac bd 59 b0 07 bf 71 43 80 be
       -0.31701848 -0.084310144 -0.5300346 -0.25051454
000040 42 11 cf 3e 43 0b a6 3d 95 c8 17 bd 99 c3 a6 be
       0.40442854 0.08107617 -0.037056524 -0.32571104
000050 a7 c8 b7 be 06 28 b9 3e 7f 56 8e 3e 71 9b 9c 3d
       -0.35895273 0.36163348 0.27800366 0.076468356
000060 f4 39 26 be 1c 56 49 3e 1a 85 cf be 47 ab 70 bd
       -0.16233045 0.19661754 -0.40531236 -0.058757093
000070 b9 51 99 3d 06 a2 93 be 2a 1c 5c be 0d de 7f be
       0.074862905 -0.28834552 -0.21495119 -0.2498705
000080 ae 6e d0 3d 0c 51 0a bf 4b 9e a3 3e 6f 99 16 be
       0.101773605 -0.5402992 0.31956705 -0.14706968
000090 a5 de 51 be a3 35 45 be 6f a6 78 3e 1c 47 d8 3e
       -0.20495088 -0.19258742 0.2428224 0.42241752
0000a0 bd b0 53 3e 7e 8a 1b 3e 47 dd e8 be 41 eb 19 3e
       0.20672889 0.1518955 -0.4548132 0.15031148
0000b0 aa a0 11 bf e2 ae 00 bf 92 9d 13 3f 66 b0 bb 3c
       -0.5688578 -0.5026685 0.5766231 0.022911262
0000c0 22 2b 60 3e e1 68 e1 be c5 d0 b0 3e dd 11 aa 3e
       0.21891454 -0.4402533 0.3453428 0.33216754
0000d0 64 c9 c8 bd 2e 3a 38 3e 27 da 54 be c5 2f 82 3e
       -0.09804037 0.17990944 -0.20786344 0.2542707
0000e0 05 f3 c7 be c3 45 95 be f6 eb 2d be c2 99 87 3d
       -0.39052597 -0.29154786 -0.16984543 0.06621124
0000f0 5d 7f a7 be 7f 9b a5 3e 8e 41 5d 3e b5 78 3d 3f
       -0.32714358 0.32345197 0.21607038 0.7401231
000100 63 b8 2e be c6 18 1e 3e 93 6c 1a 3e d7 24 99 be
       -0.17062525 0.15439138 0.1508048 -0.2991092
000110 6b a3 38 3f fa a8 e2 3c ac 02 ad bb 6c 4c a6 3e
       0.72124356 0.027668465 -0.0052798595 0.3248018
000120 66 a1 11 3f 5b ac b9 3d 61 04 5c be 99 21 6c 3e
       0.568869 0.09066077 -0.21486045 0.23059691
000130 dc 19 fb be 7c 01 d8 3e 2a ba 8e bd ab e4 f6 3d
       -0.49043167 0.42188632 -0.06969102 0.12055334
000140 c1 1c d5 3e 7a 27 c0 be a3 42 06 3e 41 e8 8d 3d
       0.416235 -0.37530118 0.13111357 0.069290645
000150 b5 f1 63 3e 80 7b 39 be 96 5d 72 3e d4 f6 c9 3e
       0.22260173 -0.18113518 0.23668513 0.39446127
000160 70 fb a3 3e dc 1c 41 be 3d 74 25 bf 39 15 34 3e
       0.3202777 -0.18858665 -0.6463049 0.17586221
000170 ff 10 80 be d9 49 51 be b5 5c 3b 3d 5f 6a 98 be
       -0.25012967 -0.20438327 0.04574271 -0.29768655
000180 c1 d4 aa 3e da 5a 8c be 2d 4a dd 3c 27 46 22 be
       0.33365443 -0.27413064 0.027012909 -0.15847073

bias f4 [50]
000000 ac 72 6e be 19 7c c1 3e 8e 61 2b 3f 46 e5 c5 be
       -0.23285931 0.37789991 0.6694573 -0.38651484
000010 f3 2a d4 3e 2d ad 45 bd 3d 6c 02 bf d2 1c 16 3f
       0.41439018 -0.048260856 -0.5094641 0.58637726
000020 dc 9e cd 3e f4 eb 11 3f 4e c5 85 3e 0c 84 f8 be
       0.40160263 0.5700066 0.26127094 -0.48538244
000030 41 9f 63 bd 0c 6e 99 be 44 eb 2a bf 5c e4 f6 3e
       -0.0555718 -0.29966772 -0.66765237 0.482211
000040 da 98 30 bf 96 88 14 3d 92 9d 02 bf cd 7a b3 be
       -0.6898323 0.03626307 -0.51021683 -0.35054627
000050 ec 9c 1e 3e 18 87 17 3f 6d 2b dc be 54 3b f9 3e
       0.15489548 0.5919051 -0.4300188 0.48678076
000060 0f a7 55 3e 7d 25 ce 3e 2f f6 d5 3e 59 0b 59 3e
       0.20864509 0.40262976 0.41789386 0.21195735
000070 14 fc 0d bf a1 1c be 3e f9 7a 05 bf de 11 73 3e
       -0.55462766 0.37131217 -0.52140766 0.23737285
000080 30 ed d7 3e 1a 60 59 be bf a8 57 3e 63 2c 8a be
       0.42173147 -0.21228066 0.21060465 -0.2698699
000090 22 33 2a 3e 99 c9 28 3f cf a6 1d bf e3 21 61 be
       0.16621068 0.65932614 -0.61582655 -0.21985583
0000a0 24 45 e7 be fc 3b 55 3e 8b 1b b0 3c b5 df c1 bd
       -0.45169938 0.20823663 0.021497509 -0.09466497
0000b0 f7 0c fd be bd 08 d5 be 74 00 d0 be 74 f0 2b 3f
       -0.49423954 -0.4160823 -0.40625346 0.6716378
0000c0 5a df 85 be 0e 13 55 3d
       -0.26146966 0.052020125

weight f4 [50, 50]
000000 9b 89 99 3c f7 58 01 3d 9d f6 b8 3e 09 8c 22 3e
       0.018742373 0.031578984 0.3612565 0.15873732
000010 da 1d 6d be 26 89 66 bd c0 c5 f2 bd 56 fc 48 be
       -0.23155919 -0.05628314 -0.11854124 -0.19627509
000020 f6 0b b8 3e 4c 36 20 3e 88 73 35 3e 1b 97 f0 be
       0.35946625 0.15645713 0.17719853 -0.46990284
000030 be 13 53 3e 33 f4 72 3e a9 37 8b bd 39 36 50 3d
       0.20613 0.23725967 -0.06797726 0.05083296
000040 9e 29 e3 3c 79 83 1a be d2 c6 48 3e 72 52 55 3d
       0.027729806 -0.15089215 0.19607094 0.05208058
000050 d2 38 de 3d 36 9c 89 be d7 ab 68 3e d8 94 43 3e
       0.10850681 -0.26876992 0.22721802 0.19099748
000060 ac 0f aa 3e 97 b8 2e bd 67 ad 70 3c 9d d5 e7 3d
       0.33215082 -0.042656507 0.01468978 0.113200404
000070 5d 09 37 bb bc 7a 9f 3d aa 83 36 3e b7 6a 71 3e
       -0.0027929165 0.077870816 0.17823663 0.23575865
000080 ba 25 51 be b9 b4 c1 3c ea 91 69 bc ec e6 e9 bc
       -0.20424548 0.023645746 -0.01425598 -0.028552495
000090 9f 51 7f 3d 97 54 f1 3d 7b fa b4 bd 5a b6 c2 3d
       0.0623337 0.11783712 -0.08836838 0.09507437
0000a0 84 55 d8 bc a7 87 ac be 58 6b 5c be 4d bd 99 be
       -0.026407965 -0.33697245 -0.21525323 -0.30027238
0000b0 b9 a9 09 3d 92 5e 52 3e 32 d8 bc be 80 5e 72 3e
       0.033609126 0.20543888 -0.36883694 0.23668861
0000c0 88 8b a9 be 74 13 43 be c3 d9 c9 3c 67 69 aa bb
       -0.33114266 -0.1905039 0.02463997 -0.005200553
0000d0 5e 0d 46 be 6e b5 c4 3d 6b d2 02 3e a0 42 ba 3e
       -0.19341037 0.096049175 0.1277558 0.36378956
0000e0 d0 4a fd be fc 79 a4 3e 53 42 a1 3e f8 14 3f 3e
       -0.4947114 0.32124317 0.31495914 0.18660343
0000f0 27 b3 c9 bc 68 01 df be fb 65 9f 3e 32 09 1a bd
       -0.02462156 -0.4355576 0.31132492 -0.037606426
000100 e3 6f f2 bc 4a 07 39 be e8 ab 98 be 4a 53 92 be
       -0.029594367 -0.18069187 -0.29818654 -0.2857917
000110 77 ea 11 3f 9d 3e 80 bd 3b 44 a6 3d 8e d1 88 3e
       0.5699839 -0.062619425 0.08118483 0.26722378
000120 d8 b4 10 3f be e3 34 be e5 bd 2c 3d 02 08 03 be
       0.56525946 -0.17665002 0.042173285 -0.12796023
000130 95 93 54 3e 37 a5 7e be 3b c1 e1 be f0 85 98 be
       0.20759423 -0.24867712 -0.44092736 -0.29789686
000140 36 37 95 3e 46 55 60 3e ca dc 7b be 41 24 02 3d
       0.29143685 0.21907529 -0.24595943 0.031772856
000150 16 24 78 be 8f 24 f0 bc 49 8f bb be 4f df 4a 3d
       -0.24232516 -0.029314307 -0.36632755 0.04952937
000160 56 c1 ae be 94 d7 44 be 5c d6 8c 3d c3 b4 03 3e
       -0.3413188 -0.19222862 0.06876823 0.12861924
000170 2a 5f 08 be 83 fd 11 3e fa 35 03 3f 4a da 01 be
       -0.13317552 0.14256863 0.51254237 -0.12680927
000180 0c 5d ee bc c8 4b ea 3d d7 7a e2 3d df ad 06 bf
       -0.029097103 0.114402354 0.11058586 -0.52609056
000190 64 10 c5 bd d7 36 c3 bd fe 98 da bd 9b ec fc 3d
       -0.09622267 -0.09531944 -0.10673712 0.123498164
0001a0 2d 77 76 3e 71 d5 f7 3c fa c0 ae be 0a b9 fb 3f
       0.240689 0.030253144 -0.34131604 1.9665844
0001b0 55 04 08 3c 5c 24 2f be df b8 d6 3e 48 23 cc be
       0.008301814 -0.17103714 0.4193792 -0.39870667
0001c0 c4 9a b8 be 33 cd 23 3e da 2d b0 3e 12 b8 0f be
       -0.36055577 0.15996246 0.34409982 -0.14035061
0001d0 e2 03 18 3e 94 86 c2 bb e2 de 4f bd 54 e4 a9 3e
       0.14845231 -0.005936453 -0.050749667 0.33182013
0001e0 bb f1 04 be e5 81 3a bd a9 89 61 be 27 95 bf bd
       -0.12982838 -0.045534033 -0.2202517 -0.093546204
0001f0 df 8c 11 3d 02 0f 15 be 13 1f f2 bd 90 48 24 be
       0.035534736 -0.14556506 -0.11822333 -0.16043305
000200 9e 74 82 3e 73 98 45 be 2a 10 5a be b5 48 7f 3e
       0.25479597 -0.19296436 -0.21295229 0.2493008
000210 b7 57 8b 3d 45 5e b0 bc 77 1f a2 3e c4 1c a4 3d
       0.0680384 -0.021529326 0.3166463 0.08013299
000220 c0 c9 0e be c3 f3 44 be 56 1b 5e bd f8 2c 49 bd
       -0.13944149 -0.19233613 -0.05422529 -0.04911515
000230 86 26 f2 be b1 2f 19 3f 6c 0c 04 3d a3 e8 a6 bd
       -0.47295016 0.59838396 0.03223841 -0.08149841
000240 55 ab 1b 3e a3 db 04 3e 59 ed 66 be 68 2b d7 3e
       0.15202077 0.1297441 -0.22551478 0.42025304
000250 42 c2 ac 3e b4 cb 36 be da c5 27 bc e9 e6 bb ba
       0.33741957 -0.17851144 -0.010240043 -0.0014335784
000260 b5 2a 9f be cc fb ff bd cf e8 00 3e 3c 6a aa bd
       -0.3108727 -0.12499198 0.1258881 -0.08321044
000270 1b f6 22 be 38 60 3b 3d 9f b0 23 be c7 73 f2 bd
       -0.15914194 0.04574606 -0.15985344 -0.11838489
000280 a5 1a 27 3d a6 02 f1 bd a7 b1 77 bd 6b c6 a2 3e
       0.040796895 -0.11768083 -0.060472157 0.31792006
000290 6d 04 59 be b9 e4 a0 bb 3f 54 24 bd c4 c2 9e be
       -0.21193095 -0.0049100784 -0.040119406 -0.3100797
0002a0 bf 89 1f bd 60 72 ed 3c a5 72 72 be 73 f8 08 bb
       -0.038949724 0.028985202 -0.23676546 -0.002090004
0002b0 51 3b 4f 3d 95 9d bb 3d ab e3 13 3d d7 34 94 3e
       0.050593678 0.09160916 0.036105793 0.28946564
0002c0 55 43 9e bd 98 33 66 bd c5 ff 82 be a3 c2 1f bd
       -0.07727686 -0.056201547 -0.25585762 -0.03900398
0002d0 53 65 c8 be a8 1c bb 3d a4 e2 78 3e 0e 4f 08 bd
       -0.39139804 0.09136325 0.24305207 -0.033278517
0002e0 22 fb b8 bd bb 3e 98 3c eb 5e f7 3d f3 51 20 3e
       -0.09032275 0.0185846 0.12078651 0.15656261
0002f0 75 4e 03 3d e8 ac 11 3d 78 a9 27 3f ed 80 13 3e
       0.032057244 0.035565287 0.65492964 0.1440465
000300 de 6d 87 3e 2d fe 76 3e cf 65 bc be 2c 5a 8e bd
       0.2645101 0.24120398 -0.36796424 -0.06950793
000310 5d d9 e5 3d f3 57 c3 be 32 f8 92 3b 32 a4 1b 3e
       0.112230994 -0.38153037 0.0044851536 0.15199354
000320 3b c8 8f 3e 07 54 54 be 81 1a 6e be 4c 97 f4 3e
       0.2808245 -0.20735179 -0.23252298 0.4777168
000330 ac 54 c7 bd b5 6b cb 3e 75 f4 8d be 9f 57 ae 3e
       -0.09732947 0.3973061 -0.27725568 0.34051225
000340 89 5f ad 3e 12 8c 68 be b7 55 dd 3d a4 43 fa bd
       0.3386195 -0.22709683 0.108073644 -0.12219933
000350 c7 58 dd 3d cd 18 9d be 74 6f 08 3e 48 c3 43 3e
       0.108079486 -0.30682984 0.13323766 0.19117463
000360 13 6d ef be 96 65 2e 3c dd e2 cb bd 67 04 44 be
       -0.46762905 0.010644337 -0.0995538 -0.19142304
000370 69 cf bc bd 06 f9 a5 3e a1 cf 15 be 8b 93 29 3e
       -0.09219248 0.32416552 -0.14629985 0.1656019
000380 d2 83 35 3e 81 37 a9 3d 05 bd 9c be 70 6e e9 3d
       0.17726067 0.0826254 -0.3061296 0.113980174
000390 2c c3 47 bd 4e f2 84 3e 93 28 03 be 4c 30 90 3e
       -0.048770115 0.25966114 -0.12808447 0.28161848
0003a0 08 88 6e 3e 0b 47 9c bd 04 51 0b bf da 2d 55 be
       0.2329408 -0.07630738 -0.54420495 -0.20818272
0003b0 3c 5d e4 bd 99 ba 1f 3e 71 70 ce be 19 b3 86 be
       -0.111505955 0.15598525 -0.4032016 -0.26308516
0003c0 77 4e 27 3e 42 5c b9 3d b0 06 cc be 86 64 bc 3d
       0.16338526 0.090508 -0.39848852 0.09198861
0003d0 70 5c 8f bb f4 6e f2 3e a4 47 35 bd 68 ae 8d 3d
       -0.004375033 0.47350276 -0.044257775 0.06918031
0003e0 1d 46 26 3e 41 df ac be b0 71 92 bd 91 bf 9a 3e
       0.16237684 -0.3376408 -0.071505904 0.3022428
0003f0 49 19 81 be d6 6c 4d be d5 5d 9f be 8d 22 fe 3c
       -0.25214604 -0.20061049 -0.31126276 0.031022334

bias f4 [50]
000000 57 9e 99 3d 0b 68 e5 3c ea f7 5f bd 04 48 0d bd
       0.07500904 0.028003713 -0.05467979 -0.034492508
000010 46 02 cb bd dc 78 7d bc be c3 9e bd da 78 a4 3d
       -0.09912543 -0.01547071 -0.077521786 0.08030863
000020 c9 40 a3 bd 9a 63 91 3d b0 59 66 3d 03 15 f1 3d
       -0.07971341 0.070990756 0.056237876 0.11771586
000030 62 63 92 3d a3 28 9d 3d 77 23 5a 3d 55 ec 9e bd
       0.07147862 0.076737665 0.05325648 -0.077599205
000040 7a b7 0c be a0 52 94 bd 72 00 f9 3d 4b 3d d2 3b
       -0.13741866 -0.07242322 0.12158288 0.006415998
000050 59 6d 5b bd dd 1e d0 3d 13 cc ae bd 90 ed c1 bc
       -0.05357108 0.10162137 -0.08535018 -0.023672849
000060 79 a6 d3 ba 61 dc 4d bd 5e 4c bc bc 79 97 eb bc
       -0.0016147635 -0.050258998 -0.022985633 -0.028758751
000070 93 ce 02 bd a2 1c ea bd b2 29 67 3d b7 38 b0 bd
       -0.031935286 -0.114312425 0.056436248 -0.086045675
000080 56 1c 8a 3d 43 0c ff bc e6 b0 c1 bd 85 a1 f2 3c
       0.06743686 -0.031133777 -0.09457569 0.029618034
000090 c7 e2 92 3d 85 44 c7 3d 4f 01 c4 3d 8f 09 6b bd
       0.071721606 0.09729866 0.09570562 -0.057382163
0000a0 87 06 4d 3c 8b 74 13 3e 3f 00 e8 3d 43 b0 b0 bb
       0.012513763 0.14399926 0.11328172 -0.005392106
0000b0 97 14 c7 bd 69 28 db bd 06 a5 48 3d 44 93 f3 3d
       -0.09720724 -0.10701067 0.048985504 0.11893323
0000c0 ff 24 b9 bb b0 0a f4 3d
       -0.005650162 0.11916101

weight f4 [50, 50]
000000 91 32 82 3d 04 c0 17 be 13 97 a1 3e 9e 36 5b 3e
       0.06357301 -0.14819342 0.31560573 0.21407554
000010 9d f2 b5 be 2c ac 1a be 09 39 dc 3c 93 ea 6b ba
       -0.35536662 -0.15104741 0.026882665 -0.0008999493
000020 fc a5 6b bd ef 63 9f be e1 f7 2d bd 45 66 a0 be
       -0.057531342 -0.3113093 -0.042472724 -0.31328025
000030 27 0a 91 bc f3 2b 81 3e 46 0a 1a be 5b df 35 3e
       -0.017705036 0.25228843 -0.15042982 0.17760985
000040 f4 4d 52 be 39 bd 88 be f3 52 c4 be 31 29 32 3e
       -0.2053755 -0.26706865 -0.38344535 0.17398526
000050 7f f8 eb be 0a ed 7f be fc 4c ec 3e bc 87 b5 bd
       -0.46088025 -0.24992767 0.46152484 -0.0886378
000060 24 18 94 bd 8a c7 f6 be 41 ff 5a 3d 3f 91 27 be
       -0.07231167 -0.4819911 0.053466085 -0.16364
000070 c7 85 b9 3d c6 30 72 3e 8f f8 83 3e 32 d1 53 bd
       0.09058719 0.23651418 0.25775573 -0.051713176
000080 22 f9 fc 3d 29 01 73 3d 29 b7 aa 3d e8 a2 87 be
       0.12352206 0.05932728 0.08335716 -0.26491475
000090 ef b0 fe 3d 89 8f 78 be 7f 56 8b bd 3a 04 3c 3e
       0.12436091 -0.24273504 -0.06803607 0.18360987
0000a0 8b 84 a5 3e 46 16 6f bd a1 23 25 3d 3f 9e bf be
       0.32327685 -0.05837085 0.04031718 -0.3742542
0000b0 83 c1 9f 3e c4 d1 ec 3e 1a 6c 03 3f a0 1b ff 3d
       0.31202325 0.46253788 0.51336825 0.12456441
0000c0 c2 c6 8c bc 80 54 0b 3f 3f aa 91 be cb 10 95 3d
       -0.017184619 0.5442581 -0.284502 0.07278594
0000d0 5c 14 ab be 7f 41 90 be bf 22 0f 3e 82 c5 7b 3d
       -0.3341397 -0.2817497 0.13978098 0.061467655
0000e0 6f 96 8c bb 41 06 c2 bd f0 d1 77 be 70 59 a4 3c
       -0.004290394 -0.09473849 -0.24201179 0.020062178
0000f0 a7 bc 03 bd 1c 43 49 3e 0a 69 f6 bc 8a 8f 85 be
       -0.032162335 0.19654506 -0.030079383 -0.26086074
000100 ff 89 97 be 62 08 b0 bd 66 44 b7 be fb b1 75 3e
       -0.2959747 -0.08595349 -0.3579437 0.23993675
000110 2e a6 b3 3e da 84 0a be d6 8b 65 3e a0 af 34 bd
       0.35087723 -0.13527241 0.22416624 -0.0441128
000120 ac 9e 62 be 69 f0 94 bc a1 08 94 bc ee 46 88 3e
       -0.22130841 -0.018181043 -0.01807052 0.26616615
000130 41 88 ca 3d a4 95 41 be 9b 44 26 be 54 54 49 3e
       0.098892696 -0.1890474 -0.16237108 0.19661075
000140 93 1c c2 3d 5a e1 27 3e 60 73 8b 3e 93 37 b4 be
       0.09478106 0.16394559 0.27236462 -0.3519865
000150 ec 7a 06 3e 30 80 42 be 1d d0 2b be ad dc 13 3d
       0.13132828 -0.18994212 -0.16778608 0.036099125
000160 9f dd 95 3d 08 52 18 bd 17 9a 48 3e 85 7f 2f bd
       0.073176615 -0.037187606 0.1959003 -0.04284622
000170 b2 da 2b bd ba 6e 8e bd ec f0 45 3e 17 42 96 3d
       -0.04195661 -0.06954713 0.19330186 0.073368244
000180 cb 9e d8 be 71 d3 d8 3d 0f 97 12 be 2f fd 41 be
       -0.4230865 0.10587204 -0.14315437 -0.18944238
000190 ac 04 80 be d8 f9 21 3e 20 fb 0a bc 39 03 48 be
       -0.25003564 0.15817964 -0.008482724 -0.1953248
0001a0 95 06 81 3e 6b 12 91 3d 4d 33 33 bd b7 92 b6 3d
       0.25200334 0.07083591 -0.043750096 0.089147024
0001b0 73 a9 d0 3c 76 b8 a0 3d 95 dd 49 3d ca 78 42 be
       0.025471425 0.07847683 0.049283583 -0.1899139
0001c0 56 86 13 3c 82 53 2e bd 46 fa b7 3e f2 4c a0 38
       0.009004196 -0.042560108 0.3593313 7.643727e-05
0001d0 bc 63 4e 3e ee af 6e be b3 fe 39 bd cb 38 00 be
       0.20155233 -0.233093 -0.045408916 -0.12521665
0001e0 f6 d1 a6 be fe 7b 1a 3c 18 fb 07 3e f7 d1 c8 bd
       -0.32582062 0.009428976 0.13279378 -0.098056726
0001f0 33 0a 02 3e 66 de 31 bc 00 8b c8 3d 83 2c d4 3c
       0.12699203 -0.010856247 0.09792137 0.025900131
000200 1a 19 0a bf bd 72 56 be 70 5f 0e 3e 35 51 26 be
       -0.5394455 -0.20942207 0.13903594 -0.16241916
000210 cc b5 72 3e 76 ad ac 3c 1a 3c 03 3e 9d 29 88 be
       0.23702163 0.021078806 0.12815896 -0.26594248
000220 50 3c ad be c0 52 62 3e 80 9f b8 bc 22 52 6d be
       -0.33835077 0.22101879 -0.022536993 -0.23175862
000230 6f 92 4d be 31 aa 45 3e 27 15 3d be 76 a4 cd bd
       -0.20075391 0.19303204 -0.184651 -0.10041134
000240 de 95 6b be ac 29 fd 3d 60 82 02 bf d7 c2 ef bd
       -0.23006389 0.12361464 -0.50980186 -0.117070846
000250 4e 41 a8 3d 71 87 9f be e3 a5 aa be 0c b1 27 be
       0.08215581 -0.3115802 -0.33329687 -0.16376132
000260 17 8b 5f 3e 9c a8 45 3e 92 97 e7 bd 31 68 26 bd
       0.21830402 0.193026 -0.113082066 -0.04062671
000270 5a 28 ad 3e 9b fb 36 3e 19 4f 20 bd 56 08 93 be
       0.33819848 0.17869417 -0.039137933 -0.28717297
000280 7d 96 22 3f ac a5 4b 3a 70 3e 81 be da 7c c0 be
       0.63510877 0.00077685225 -0.2524295 -0.37595254
000290 39 3e 15 be 2b 1a a4 3e d3 c4 75 3e 0c e1 7d bc
       -0.14574517 0.32051215 0.24000864 -0.01549555
0002a0 3c d9 a2 bd 33 b0 58 be f7 5d 9d bd 25 04 ac 3d
       -0.079515904 -0.21160965 -0.07683938 0.08399228
0002b0 c6 6b 18 3d 48 2b 96 3e 4d d4 c4 bd 63 31 26 be
       0.037212156 0.29329896 -0.09610806 -0.16229777
0002c0 78 5e 10 be fc 92 f1 bd 8d fa c0 be 18 aa 62 be
       -0.14098537 -0.11795613 -0.37691155 -0.22135198
0002d0 4e 5b a2 3e c3 02 f8 bc 79 c8 9a 3e 51 38 1b bd
       0.31710285 -0.030274754 0.30231073 -0.037895504
0002e0 b3 74 a1 3a b0 d4 54 be 71 e2 05 be ce 54 c0 bd
       0.0012318104 -0.20784259 -0.13074662 -0.09391175
0002f0 e9 0d ce 3d dd 5a 19 be eb 90 2d bc e5 be a8 be
       0.10061247 -0.14976068 -0.010593633 -0.3295814
000300 3c 80 a7 bd 93 2a 48 3e b4 65 2a 3c 55 b8 e6 3e
       -0.08178756 0.19547491 0.0104002245 0.4506251
000310 d9 c6 5a be be 5e 23 be 20 da 14 be 84 a8 86 3d
       -0.21364917 -0.1595411 -0.14536333 0.065751106
000320 22 8b 96 3c e2 1a 54 be 0c 42 17 bf dd ea 3e be
       0.01837689 -0.2071338 -0.59085155 -0.1864428
000330 27 81 9e 3d b6 b7 a8 3e e6 94 ff bd 81 9b bd 3e
       0.077394776 0.3295266 -0.12479572 0.37032703
000340 5e 25 0a be 71 4a 02 3e 85 4b bf bc 6a 85 1d be
       -0.13490817 0.1272371 -0.02335144 -0.15382925
000350 2b c2 d5 bd 34 98 b9 3d 43 5c d6 3b b3 26 55 3e
       -0.10437425 0.090622336 0.00654176 0.20815544
000360 6a 28 46 be 16 16 9c 3e e4 8a 35 be ea a4 9a be
       -0.19351354 0.304856 -0.17728764 -0.30203944
000370 07 e7 18 3f 86 b6 03 3f 3e 9e ea bd 7c ef 3f bd
       0.5972752 0.51450384 -0.114559636 -0.04685925
000380 2f 11 29 bd 57 b5 4c 3e 7a 08 8f be 29 2a aa bd
       -0.041276153 0.1999105 -0.27936155 -0.08308823
000390 a6 f4 28 39 3d 32 2b be cd b9 88 3e 6c a8 5e 3e
       0.00016112867 -0.16718383 0.26704255 0.21743935
0003a0 da c6 e0 be 59 4c 24 3e 6f 7a c6 3e 0f 9b 5e 3e
       -0.43901712 0.1604475 0.38765284 0.21738838
0003b0 ff d2 77 bd 8f 4f e2 3d 00 c0 38 3e 34 1b a4 3e
       -0.060503956 0.11050331 0.18041992 0.32052004
0003c0 1a 90 9f bd 79 05 7d bd 2c a4 b2 3c d1 92 19 3f
       -0.07791157 -0.061772797 0.021806799 0.5998965
0003d0 42 ae 58 be 97 7e 47 be 64 34 d3 bd c6 2f c8 3e
       -0.21160224 -0.19481884 -0.10312727 0.39098948
0003e0 06 94 03 bc ac 17 36 be 0f 8f 7f be b8 8b 9d 3e
       -0.008030897 -0.17782468 -0.24956916 0.3077066
0003f0 26 a7 24 be 70 0e cf 3e e5 85 82 3e 9d 0e b6 3c
       -0.16079387 0.40440702 0.25492778 0.022223765
