models/NeuralLSVModel_upperbound_7e-07.pt (torch, 973390 bytes, 255 tensors)

weight f4 [50, 3]
00000000: a6c5 713d eee1 2d3d c98f afbe 2378 78be
00000010: 0a95 0d3f 5910 a13e 5ac9 ae3e 894c c0be
00000020: 5669 4a3e 99b5 13bf 2411 88be d903 00bd
00000030: bb4e 303f 3cd1 16be 8d66 e83d 87bc 053e
00000040: 371f ed3c f197 a33e 5492 c93e aa10 20bc
00000050: e0e0 ebbe df83 913e 2957 a53e 18bf 623c
00000060: a1a1 3a3e f1a1 0abd 2ed7 0a3e 7e7d 07bf
00000070: 11e9 02bd c380 87bc 589a d2be 6f88 4c3e
00000080: 137a 253f 2bf2 a2be 7462 f23e b681 debc
00000090: 24cc 443e c918 e0bc 34cc 0c3e 11a5 a33e
000000a0: 5c61 503d 4f78 653e c9d2 fbbd c5c8 4a3e
000000b0: 910c ad3d 18b7 1c3f bc7d a8bd d186 113e
000000c0: ca16 073d a5c2 00bf ae01 6d3e 322e 4abd
000000d0: 928d 903e b98f a6bc 2124 51be f8ca 603e
000000e0: 9e48 9bbe 8983 51bf 8824 c23e 1ca1 c1be
000000f0: bae6 4d3e 32a4 d03d e0f7 9a3e 8a37 023e
00000100: c4b8 56bd 9fc6 e5be 7ca9 123d 32ec 7d3e
00000110: 04b1 923e 4a5a 393e d6a3 b83e 6e82 5b3e
00000120: a0f3 39be 1942 853e b9da e23e b736 8a3e
00000130: cc1e 47bd 7dd5 603e 9253 a4bb 5a9e 54bd
00000140: 4a68 023f d384 0ebe 7790 93be 3e0b f3be
00000150: d70c 123f a9e2 25be e016 5f3e 2b06 a9be
00000160: 2d63 e8bd bce1 783e fc04 a7bd 242a cebe
00000170: 99a4 bbbe f7a3 01be e95d 88be ed23 873e
00000180: 0bc3 a63e caf0 fa3e fbd8 a83c a1a6 b8be
00000190: 6aef babe 4ff5 0c3e 45c3 ce3c eca1 5e3e
000001a0: 23c5 c0be e2b3 8bbe 1f1b a53e 6910 c13e
000001b0: 985c cc3d 7b8b 773e e31b 273d c239 2a3e
000001c0: 444c 57bd eac1 f43e 344a 7cbe 6dc0 25be
000001d0: f0e4 c13b cd71 54be 3608 d93d 311b bc3d
000001e0: 8d0b 413d ec3e 343e 2fcc de3e 2672 91bc
000001f0: 05a9 183f 5dc0 003e 8e57 003f 5e99 80bd
00000200: 1b3e 82bd 1363 2f3e 6d7c a6be 54f5 c13e
00000210: 36ff 873d b1ec c83e d4e2 4d3e 5c9b ad3e
00000220: b7e4 3d3d 2a6a d23d b8f1 5bbe 4de8 213a
00000230: a246 223e 434b 023d b611 0cbe f3e5 0fbe
00000240: 8b44 553e 6765 f63c 11ea 2fbe c5d7 a8bd
00000250: 0846 a0be 7450 543e
0.059026383 0.04245179 -0.34289387 -0.24264579 0.5530554 0.31457785 0.34137994 -0.37558392
0.19766745 -0.5769897 -0.26575577 -0.03125367 0.68870133 -0.14728254 0.11347685 0.13060199
0.028945548 0.3195186 0.39369452 -0.009769598 -0.46070004 0.28420922 0.3229306 0.013839506
0.18225719 -0.033845846 0.13558647 -0.5292586 -0.03196055 -0.01654089 -0.4113338 0.1997392
0.64639395 -0.31825384 0.4734074 -0.02716146 0.19218498 -0.027355568 0.13749772 0.31961873
0.0508741 0.22409175 -0.122960635 0.1980315 0.084496625 0.6121688 -0.08227107 0.14211585
0.032980718 -0.50297004 0.23145172 -0.04936046 0.2823301 -0.020332204 -0.20423938 0.21952426
-0.3032884 -0.8184133 0.37918496 -0.3781823 0.20107546 0.10187568 0.3026724 0.12716499
-0.0524223 -0.44878098 0.035806164 0.24797133 0.28650677 0.18100849 0.36062497 0.21436474
-0.18159342 0.2602699 0.44307497 0.2699487 -0.048613355 0.2195644 -0.005014845 -0.05190883
0.5094038 -0.13917856 -0.28821155 -0.47469515 0.5705084 -0.16199745 0.2178607 -0.33012518
-0.11347041 0.24304861 -0.081552476 -0.40266526 -0.36649016 -0.12660204 -0.26634148 0.26394597
0.3257068 0.49011832 0.020611277 -0.36064628 -0.36510783 0.13765453 0.025239596 0.21741456
-0.37650403 -0.27285677 0.32247254 0.37707832 0.09978598 0.24174301 0.04079808 0.16623595
-0.052562967 0.47804195 -0.24637681 -0.16186686 0.005917184 -0.20746537 0.10597269 0.09184874
0.047130156 0.17602128 0.43515155 -0.017754626 0.59632903 0.12573381 0.501336 -0.062792525
-0.06359502 0.17127638 -0.32516804 0.37882483 0.066404745 0.3924308 0.2010606 0.33907592
0.046360698 0.102741554 -0.21478927 0.0006176278 0.15847257 0.031810056 -0.13678631 -0.14052562
0.20826928 0.03007765 -0.17179133 -0.0824428 -0.3130343 0.20733815

bias f4 [50]
00000000: 9017 c53d 534f 023f ab7d 74be cca3 fcbe
00000010: 5f73 293e 7440 31bc 3a70 9fbe ecca 043f
00000020: 63be aa3e 8756 b7be cb5d 7c3e 9583 cebc
00000030: 0c95 88bd 1ea2 083f 8d65 0ebe 211d d73d
00000040: 91c4 eabe 9043 84be aafd d5be 083b c4bd
00000050: 2614 54be 2595 8ebe 0416 0e3d 212c 04bf
00000060: c3e7 fdbe 7b2a d93d e0e7 f6be 93d5 033f
00000070: 281e 103f c3e1 d6be 042f 63be b7d3 8bba
00000080: a8df 2b3e 15e9 2d3e ecab c8be 401d a83e
00000090: 8e24 c1be 82ca cebd fbd9 9b3e c488 12bf
000000a0: ba94 f8be 55e2 81be 6286 9e3e 4a0b 2d3e
000000b0: 1dc4 f6be 6526 b03e b543 9bbe 0aeb 543e
000000c0: ba2e cbbe b5fd c93e
0.09623635 0.5090229 -0.23876064 -0.49343717 0.16547917 -0.0108185895 -0.3114031 0.51872134
0.3334838 -0.35808203 0.24645154 -0.025209228 -0.066690534 0.5337237 -0.13905926 0.10503603
-0.45853093 -0.25832796 -0.41795093 -0.09581572 -0.20710811 -0.27848163 0.034688964 -0.51629835
-0.49590883 0.10603806 -0.48223782 0.51497763 0.56296015 -0.41969118 -0.22185904 -0.0010667954
0.16784537 0.16983445 -0.39193666 0.32834816 -0.37723202 -0.10097219 0.30439743 -0.5723994
-0.4855097 -0.2536799 0.309619 0.16898838 -0.48196498 0.34404293 -0.30325094 0.20792785
-0.39684087 0.39451376

weight f4 [50, 50]
00000000: 0220 343e 289c 773e 38bd 713e 6848 81be
00000010: 1647 53be bfee 043e 42b4 b3bd 2e64 b8be
00000020: d3ed 773e b3ff 993c 9fe7 8e3d 0cf1 c03d
00000030: 8f91 8f3d 15b5 a83e 58c8 893e 150b fcbd
00000040: 624b 07be 3337 b93c cd36 68be ef8c 7ebd
00000050: 931c 263e ac45 72be 5d08 3d3d 0609 cdbe
00000060: ed1b 933e 31f4 37bc 0708 03bf 310e 17be
00000070: be93 dfbd c660 833e 0d95 02bf e237 43be
00000080: 724b 63be d46b 94bd fc58 debd 1c5f c73d
00000090: b42c 47be 11da 70be 66f9 8bbe c38f 14bd
000000a0: 3597 acbd 3a91 733c 7305 1d3e f587 81be
000000b0: 8489 d03c 56e7 383e cf7f 85bd 19d4 183e
000000c0: 2ef8 06be ae60 953e 9ec9 b23e f93e 25be
000000d0: 1095 26be dc2e 243e 4c3d b03b 93ed 98bc
000000e0: 39d6 f6bd 32ae a63e 4974 2bbe 81ae 35be
000000f0: 1b6c 8e3c fb2c 03be 8e1b d23c 2b7d c0bb
00000100: 9be8 01be 1977 d4bd 40c5 b7be 862e 373e
00000110: 71ca 2fbd f863 503e 6651 adbe e06b 1e3e
00000120: 2334 133e c62e 4d3e 8c8d 1ebe 790b 8abd
00000130: 454d 83be d223 5c3e ad6d 603d b5f9 793d
00000140: e7e8 7bbe 4209 50ba 02bf 0c3f 7989 443e
00000150: 6101 21be bf1b e0bc 4c1d 743c 0af9 b4be
00000160: 2ca8 b5bc 06c7 48be ae87 69be 7702 063e
00000170: 15db b6bd b7ec bcbd f130 1cbe 7730 0fbe
00000180: d231 623c 9ac5 453e dda3 eabc f677 e43e
00000190: ceae a83e 2601 65be 07a4 86be 0d35 94be
000001a0: 4b65 1b3d b68e 6e3e 7c14 4f3d f106 f63d
000001b0: 3e9e c33c b0f4 3fbe a9f3 96be 24f2 2bbd
000001c0: f30d e5bd bd7c c1bd f2da a9bb 1585 ff3d
000001d0: 90fc f5bb b658 d33d 6e22 353d 233d 52be
000001e0: e4f4 9a3b 9987 eb3d 4d39 e53d 25c9 5f3e
000001f0: 206a 07be 7e4e 05bf 196a aabe 288e 57be
00000200: 9d81 a23d 5c55 b7be 1c22 123d 544d a9be
00000210: 4c85 ab3d 0c89 c43d 5536 633e d1e5 053e
00000220: bf05 27bd acc3 9f3d a84a aabd 13ca ad3e
00000230: 792a 963d f0f4 743d 1b5a 093f b420 b3bd
00000240: 5dcd 723e 9588 49be f3ba d73d 3a3d 23be
00000250: c382 24be 5075 43be 8cfb c9bc e95e 9c3d
00000260: eea0 d43d 3cba 573b 1f4c cbbd 270f 42be
00000270: f5eb 5bbe 4c85 0b3e f034 aebe b409 71be
00000280: c55f 89bb 4ec7 f7bd 4d5e 1e3e d490 09be
00000290: c3af 9f3e f621 c33c 2643 64be ecb7 2d3f
000002a0: b3c8 113e 015b 92bd c638 f9bd 0480 9c3d
000002b0: f40e 1e3e b29b 9b3d 9ce0 74be 5a21 1a3e
000002c0: 2cb8 8dbd 3052 943e 3338 b53d 84ad 2e3e
000002d0: f503 773d fade bf3e 3dce 16bb 712f 003e
000002e0: 516c f8bd 703f 8bbd 25ef d3bd 110e d43d
000002f0: 2fe4 debe be99 6a3e f280 babe 5563 6e3b
00000300: 9ef0 dbbe 4545 95be e457 bf3d b9f8 f33d
00000310: bf8b b1be 45bc a8bd 728b 8e3d f3d4 cbbd
00000320: 3cb4 76be 1e4a febd c193 d03d 24ec 2bbe
00000330: 82db dbbe 8f73 acbd a679 5ebd cc16 c2bd
00000340: 74a6 a9bd 904e dabd a848 61be ae76 64be
00000350: e5e6 923d 56eb 263e 881d 023e 1f20 d0bd
00000360: bfbb f43d 203b 5dbd 2195 463e 84e3 8f3e
00000370: 22fe 94be 0489 8b3d c690 8bbe a447 52bd
00000380: b023 b2bd 79b0 623e bae7 a43c 4c47 26be
00000390: a278 debd d0ae 6dbd 2fc0 903e b4dc 4e3d
000003a0: 62a3 ebbd 64f4 b53e 6b44 50bd 764a 07bf
000003b0: af0d 5e3e 6b34 c83d 81a4 343d de89 cf3b
000003c0: 488f 183e 9f3e 143e 6737 74be fb04 6e3e
000003d0: 8299 993b bcec d03d 0a6c ed3e cb67 d13e
000003e0: 3555 053f 1d01 bc3d dabb 143e d471 9dbe
000003f0: 6c34 c43d 2f91 08bf 515e 3f3e 314e fbbe
0.17590335 0.24180663 0.23607337 -0.25250554 -0.20632586 0.129817 -0.08774616 -0.3601393
0.24211816 0.018798685 0.06977772 0.09420976 0.07010185 0.32950655 0.26910663 -0.12306801
-0.1321235 0.022609329 -0.22677155 -0.062146123 0.16221838 -0.2365939 0.046150554 -0.40045947
0.28732243 -0.011227653 -0.51184124 -0.14751507 -0.109168515 0.2565977 -0.51008683 -0.19064286
-0.22196749 -0.07247129 -0.10856816 0.097349375 -0.19450647 -0.23520686 -0.27338713 -0.036269914
-0.08427278 0.014866168 0.1533411 -0.2529904 0.025456198 0.18056998 -0.06518518 0.14924659
-0.1318061 0.29175323 0.34919447 -0.16137303 -0.162678 0.160335 0.005378401 -0.018667972
-0.120525785 0.32554775 -0.16743578 -0.17742349 0.017385533 -0.12810127 0.025647905 -0.005874296
-0.12686388 -0.103742786 -0.35892677 0.17888841 -0.042917673 0.20350635 -0.33851165 0.15470839
0.14375357 0.20037374 -0.15483683 -0.067404695 -0.2564489 0.2149804 0.054792095 0.061029155
-0.24600564 -0.000793595 0.54978955 0.19193067 -0.15723182 -0.02735698 0.014899563 -0.35346252
-0.022174917 -0.19607171 -0.22805664 0.13086878 -0.08928505 -0.09224837 -0.15253045 -0.13983332
0.013805823 0.1931366 -0.02864259 0.44622773 0.32945865 -0.2236372 -0.26297018 -0.28946725
0.037938397 0.23296627 0.050556645 0.12013043 0.023879167 -0.18745685 -0.29482773 -0.04197897
-0.11184301 -0.0944762 -0.005183571 0.12476555 -0.0075069144 0.10319655 0.044222288 -0.20531134
0.0047289003 0.115004726 0.1119257 0.21854074 -0.13224077 -0.52072895 -0.3328407 -0.21050322
0.07934878 -0.35807312 0.03567706 -0.3306681 0.08375034 0.09596452 0.22188695 0.13075949
-0.040776964 0.07800993 -0.08315021 0.33943233 0.0733232 0.059803903 0.53653115 -0.08746472
0.23711152 -0.19681008 0.105337046 -0.15941325 -0.16065507 -0.1908772 -0.02465608 0.0763529
0.103822574 0.00329174 -0.09926628 -0.18951093 -0.21476729 0.13625067 -0.34024763 -0.23538858
-0.004192325 -0.12098561 0.1546566 -0.13434154 0.31188783 0.023819905 -0.2229124 0.6785877
0.14236717 -0.07146264 -0.12169032 0.076416045 0.15435392 0.07598056 -0.23913807 0.15051785
-0.069198936 0.28968954 0.0884861 0.17058378 0.060306508 0.37474805 -0.0023011111 0.12518097
-0.12130035 -0.06799209 -0.103483476 0.103542455 -0.43533465 0.2291021 -0.36426502 0.0036375124
-0.42957014 -0.2915441 0.09342936 0.119126745 -0.3467693 -0.082390346 0.06960191 -0.09952726
-0.24092191 -0.124164805 0.10184432 -0.16789299 -0.4294091 -0.084204786 -0.05431523 -0.094770044
-0.082837015 -0.10659516 -0.22000372 -0.22310898 0.07172946 0.16300711 0.12706578 -0.101623766
0.11949872 -0.054011464 0.19392826 0.28103268 -0.29100138 0.06813243 -0.2725889 -0.051337853
-0.08698213 0.22137631 0.020130027 -0.16238135 -0.10862853 -0.058028042 0.28271624 0.050503448
-0.11505772 0.35538018 -0.0508465 -0.52847993 0.21684907 0.09775623 0.044102196 0.0063335737
0.14898407 0.14477013 -0.2384926 0.23244087 0.004687489 0.102014035 0.4637149 0.408995
0.5208314 0.091799 0.14524785 -0.30750906 0.09580311 -0.5334653 0.18688323 -0.49083093

bias f4 [50]
00000000: 83e0 92bd 216f 7fbd feb0 9ebd bdab 0fbd
00000010: 2f51 c2bd 876f a33d 550b 8d3d bd40 3f3d
00000020: d776 13bd 0889 95bd 6d92 e3bd 35b3 2f3d
00000030: 9678 d63d c090 8a3d ea88 b93d d95b d4bd
00000040: c7bf 4a3d 213e 2a3d 3a79 bcbc 9306 303d
00000050: c17e 503c 02ef 143e 925e 8cbd f9b4 0fbe
00000060: 5f98 09be b86b f9bd ccc9 71bd 5f04 673d
00000070: cc8c 073e cb4c 8b3d 20f3 e23c 4766 cbbd
00000080: c07d 2fbd 8989 833d 1e09 703d aeac 27be
00000090: 42d0 0f3e e62c 19bd 937e 313d 7a3a dabd
000000a0: c8ee 153e 3fd7 3e3d 013e 6b3d 42c4 c13d
000000b0: 1c31 043e 0f2a d7bd 15e1 8fbd d4f7 d8bd
000000c0: ce33 b63d 8feb e2bd
-0.071717285 -0.06236184 -0.07748602 -0.03507589 -0.09488141 0.079802565 0.06886927 0.0466926
-0.036002006 -0.07301527 -0.11111913 0.042895515 0.10472219 0.0676589 0.090593174 -0.10369081
0.0494993 0.041563157 -0.023007024 0.04297502 0.012725533 0.14544299 -0.06853975 -0.1403388
-0.13437031 -0.12178749 -0.05903034 0.056400653 0.13237303 0.068017565 0.027703822 -0.09931617
-0.042844534 0.06422717 0.058602445 -0.16374466 0.14044288 -0.037396334 0.0433336 -0.10655685
0.14641869 0.046591993 0.05743218 0.09461261 0.12909359 -0.10506069 -0.07025353 -0.105941445
0.088966 -0.110800855

weight f4 [50, 50]
00000000: 1c7e 963d d947 4a3e f282 473e b7ee 2cbe
00000010: 3dd5 f93e 0967 cebd de14 cdbc 6777 9cbe
00000020: 51aa 503d 0cfe 14be a154 a03d f4e9 47be
00000030: 2822 0dbc 98e3 7cbe 8f45 52be 14df bd3c
00000040: 7330 843e 1d6b 88bd ff9e 8a3e 22d1 ed3b
00000050: 236e a2bc 7c3d 013f f9ee 8dbd 7123 90bd
00000060: 8dd1 b3be 212b b0be 8445 4bbe 276d 9dbb
00000070: 7408 b4bb e38e a23e 476c bf3d 45f6 303e
00000080: 5564 a2be 105a 853e 3591 e33d 019f 4cbd
00000090: bcf4 2d3e bba8 26be 61e5 59bd fd81 dfbd
000000a0: 3148 643e b8fd 573e c36f 2e3e eb23 a0be
000000b0: b3fe c93e ed82 91bb 4d49 a93c 492d 1c3d
000000c0: dbb8 803c b33e 4bbe e52b 11be 577f 1cbe
000000d0: 6f75 8f3e beec d33e f65c c8bd 7339 273d
000000e0: 1b01 033e 6ed6 fdbe 49e0 6a3e 34ad 85be
000000f0: 27f5 a7be c051 f0bd a7b6 e03d 9e5b 4a3e
00000100: eef6 acbe 935f a3be 311c b93e a562 d3be
00000110: be52 9e3e 31b9 103d 6414 06bd f4cd 853e
00000120: 4254 863d eb3e 743e 28e5 e03c 8b5c 56be
00000130: d971 223d 6fa2 433d 72d7 c9bd a81d 34bd
00000140: e05c 9a3e be27 3c3e 9ae0 ddbd 7cdc 8c3c
00000150: 1090 1a3e 714c 843d 4db4 9c3d 1929 41be
00000160: 542c 603e 6866 dfbd de5f cd3e 30a6 8dbc
00000170: bd80 973e 72d0 a5bd 0e40 1fbe 3431 95be
00000180: 3921 b6be c12f 9dbd de7e 99be 7ccb 903e
00000190: 5292 66bd 4461 643e e25d ae3d d80b c4bd
000001a0: 2dd1 5abd 2fdc 41bd 6671 263e f51c 81bd
000001b0: 24ea d5be e1d0 0e3d b991 b33e cd40 0fbe
000001c0: 3856 8a3e 4d07 d5bd dc16 b4bd d688 cf3d
000001d0: 8f4c e1bd 03fd 9b3d b3ac 8c3e 439c 8ebe
000001e0: dbbf 3f3e 6996 d8bd d9e8 2dbd 892c b4be
000001f0: aeec 3c3c fbab b23d 8769 6f3d 1ef9 4f3e
00000200: 809c e6bb e144 933e f4b4 5a3e 319c 0fbe
00000210: 5782 9abb 737d 3ebe da25 9d3e 4fa8 a5be
00000220: 5da8 1f3e d7b0 efbc c643 203e 3255 243e
00000230: db29 02be f482 45bc 857e 413e bd3a 103e
00000240: 2c8b 2abe 9331 1e3e 5f39 3e3e d66d aabc
00000250: 3502 f1be b8de 7ebe 0364 713e f98a b33d
00000260: e655 75be e5ad 1d3d f830 2cbe 971e bf3e
00000270: da25 653e b7c7 d6bc ac01 f23d 44ec 01be
00000280: 8c47 823d 8bc8 6f3d 84cf 7e3e c0f0 cebc
00000290: b67e b63e c44e 093e dd40 90be 9dc7 3abe
000002a0: c7cf 15be 7c4b 143e 9031 43be 0bdc 983e
000002b0: c7b1 c2bd 8e93 2a3e 3b7c 95bd 1976 75bd
000002c0: 81ea 4f3e 8248 1c3e b17e 43bd e815 1fbe
000002d0: 4c82 39be 7ee4 8bbe 9412 433e 1a5e 18be
000002e0: d902 7abd 2f3e 953c 2c0c 2abe 96cc d93d
000002f0: 189d 2d3e 10f8 703e 792f a5bd 7b17 1e3e
00000300: ae3d ab3c b755 cd3d 6af7 8dbe 2d5a ea3d
00000310: 0f8b 97bd 0c48 7a3c b6d7 9d3e db55 bf3e
00000320: 4d12 13bd 1382 cebe 817f 51be 3264 3fbe
00000330: 667a 6ebd 9f99 b0be b5f8 05be a00f 3e3e
00000340: 996c 143e 2585 abbe 8be1 9dbe eb94 d5bc
00000350: a859 15be 76a3 16bc cf88 38be 8083 023f
00000360: 5c22 843e 9bc5 a3be 98cd 5f3e 205a 89be
00000370: 2117 2cbe c233 023c 8f07 823e 7274 5bbe
00000380: 8bfb 9dbe 12fe 853e df6f 983e f057 89bb
00000390: 7910 3abe 9f75 5f3e 91d7 c9be b335 b13d
000003a0: c7c1 0d3e 5801 c1bd 8fc9 f53d 03f1 98be
000003b0: 8039 273e 0293 42bd e11b 02bd 5046 8abe
000003c0: 0ce5 eb3d fced 923e 9b1b 8abe 079d 06bf
000003d0: f138 463e a6f7 21be 7b8c 54be f8cb 0abd
000003e0: 7e0c debe 3688 123e ce5c 843e 3177 293d
000003f0: 6859 1dbe 3c3a 46be f028 543d 555e 3bbe
0.07348272 0.1975397 0.19483545 -0.16887937 0.487955 -0.10078246 -0.025034364 -0.30559847
0.050943676 -0.14550036 0.07828642 -0.1952284 -0.0086141005 -0.24696195 -0.20534347 0.023177661
0.25818214 -0.06661055 0.2707443 0.0072575966 -0.019827908 0.5048444 -0.06930346 -0.0703801
-0.35120812 -0.34407905 -0.19850737 -0.0048042717 -0.0054941718 0.3174964 0.09346824 0.17281444
-0.31717172 0.26045275 0.111116804 -0.049956325 0.1698789 -0.16275303 -0.05319727 -0.10913465
0.22293164 0.2109288 0.17034821 -0.31277403 0.39452133 -0.0044406564 0.020664835 0.038129125
0.015713146 -0.19848137 -0.141769 -0.15282951 0.28019282 0.41391557 -0.09783356 0.040826272
0.1279339 -0.4957766 0.2293712 -0.26108706 -0.32804224 -0.117343426 0.10972338 0.19761512
-0.33782142 -0.31908855 0.3615432 -0.41286197 0.30922502 0.035332862 -0.03273429 0.26133692
0.0655904 0.23852126 0.02745302 -0.2093374 0.039659355 0.04776233 -0.09855546 -0.043973595
0.30148983 0.18374535 -0.10833855 0.017194979 0.15094018 0.064598925 0.07651577 -0.18863334
0.2189191 -0.10908204 0.40112203 -0.017291158 0.29590407 -0.080963984 -0.15551779 -0.29139102
-0.35572222 -0.07675124 -0.29979604 0.28280246 -0.056291886 0.22302729 0.085140005 -0.095725715
-0.05342214 -0.047329124 0.16254196 -0.06304351 -0.41780198 0.03486717 0.35072115 -0.13989563
0.27018905 -0.10401783 -0.087934226 0.10133521 -0.110009305 0.076166175 0.2747551 -0.27853593
0.18725531 -0.105755635 -0.04245839 -0.35190228 0.011531038 0.08724209 0.058450248 0.20309874
-0.007037699 0.28763488 0.2135809 -0.14024426 -0.0047152448 -0.18602543 0.3069294 -0.32354972
0.15591569 -0.029259128 0.15650854 0.16048124 -0.12711279 -0.012055147 0.1889592 0.14084907
-0.16654652 0.15448599 0.18576573 -0.020804327 -0.47071996 -0.24889648 0.23573308 0.08766741
-0.23958549 0.038495917 -0.16815555 0.37328026 0.2237772 -0.026218278 0.11816725 -0.12687784
0.06361303 0.058540862 0.24883848 -0.025261283 0.35643548 0.13408953 -0.28174487 -0.18240209
-0.14630042 0.1448192 -0.19061875 0.2985538 -0.095065646 0.1665785 -0.07299086 -0.05992708
0.203043 0.15262035 -0.047728244 -0.155357 -0.1811611 -0.27322763 0.19050056 -0.14879647
-0.061037872 0.018218128 -0.16606206 0.10634725 0.16954458 0.23532128 -0.08065695 0.15438645
0.020903435 0.100261144 -0.27727824 0.11442981 -0.0739957 0.015275966 0.30828637 0.3737019
-0.035906125 -0.40333614 -0.20458795 -0.18690565 -0.058222197 -0.34492204 -0.13083155 0.18560648
0.14494552 -0.3350002 -0.30836138 -0.026071986 -0.14584982 -0.009194246 -0.18020938 0.50981903
0.25807464 -0.31986699 0.21855772 -0.26826572 -0.16805698 0.00794691 0.25396392 -0.21431139
-0.30855975 0.26170403 0.2977285 -0.004191391 -0.18170346 0.21822213 -0.39422277 0.086528204
0.13843451 -0.094240844 0.12001335 -0.29871377 0.16330528 -0.04750348 -0.03176487 -0.2700677
0.115182966 0.28697193 -0.26974186 -0.52583355 0.19357659 -0.15817127 -0.20756714 -0.033885926
-0.43368906 0.14309773 0.25852054 0.041373435 -0.15366137 -0.19358152 0.051796854 -0.18297704

bias f4 [50]
00000000: cf2f 91bd 52f4 eb3c c52c 30bd 8042 00be
00000010: b6ff bfbd 5936 3c3d cb89 d13d e4d9 87bd
00000020: 7949 113e 4931 003e a456 b5bd 1492 003e
00000030: ef93 f5bd fd5a 223d cd64 23be 542d cf3b
00000040: 0b9b 033e 3c58 ab3c d121 813c 7da3 873b
00000050: 7248 b43d 3b74 5abb ff34 aebd 8e95 03be
00000060: e7a4 293d ad8c 04be 1e0a 883d a66f 70bd
00000070: c1f8 eb3d 6c51 19be 5bcb 9d3d dafe a23d
00000080: 4c94 e63d 86b4 4d3d 91ab 94bd a701 cebd
00000090: 8baa 033c 387e d0bd 7315 56ba 89be c2bb
000000a0: bd95 a1bc e1af e53d e2ce 303d 681c 28bd
000000b0: dfc2 1d3d 33ec 903d aede 4c3c 6656 023e
000000c0: f587 0fbd 8f00 e13d
-0.07089197 0.028803024 -0.043011446 -0.12525368 -0.09374945 0.045950267 0.1023136 -0.06633356
0.14188184 0.12518801 -0.08854416 0.12555724 -0.11991107 0.039637554 -0.15956421 0.006322542
0.12852113 0.020916097 0.015763195 0.0041393624 0.0880288 -0.003333344 -0.08506202 -0.1285002
0.04141703 -0.12944289 0.06642555 -0.058700226 0.115220554 -0.14972466 0.077048026 0.07958765
0.11258754 0.05022099 -0.07259286 -0.10058909 0.008036266 -0.10180324 -0.00081666483 -0.0059431237
-0.019724721 0.11215187 0.04316605 -0.041042715 0.03851592 0.070763014 0.012504263 0.12728271
-0.035041768 0.10986435

weight f4 [50, 50]
00000000: fb8f 4d3e 451a 63be d9b2 ea3d 7f64 073e
00000010: 46be 0dbe f376 bfbd a6ba 923e b9dd c43e
00000020: 4908 39be 1dbe 6ebd 78a1 73bd 2b6e c3be
00000030: 59f7 11be 3058 ad3e a88e ecbd cd94 d8bc
00000040: 26a7 b3bc 0061 6f3e a06e ef3d 33de 243d
00000050: c8da d2bc 750e 1ebe cba7 b1be 1d71 6dbc
00000060: 9705 54bd bc6a a2be cb64 26be b806 be3c
00000070: 5fe1 b53d a677 d2bd 2001 593e 9788 38bd
00000080: dafd 3e3d 6ae9 b43e 83de 1a3d 2bc0 093d
00000090: 153b 133e b06b 853e 6c30 83be d579 783b
000000a0: 4916 7a3e cdac 58bd 658f 48bd 9606 c13d
000000b0: 82c2 a63d b099 ca3e 9af0 1ebe 7568 ed3d
000000c0: 191c cebd ea2d b93d b8e7 cd3e 6d05 55bc
000000d0: b06f ecbd dffb 52be 467a 0cbb 5533 cbbe
000000e0: ef20 0cbf 4463 31be ecf6 863e cc82 58be
000000f0: b19e 20bd 8f53 73bd 59ae 56be db8c f0be
00000100: 009a 453e 4599 17be b10d d6be 8c73 fdbd
00000110: a3a0 3abd 0821 38bd 8d4a a63d b246 24be
00000120: c46d bc3e 8596 a5be 1d0d 91bd 8754 d83d
00000130: cb95 573d 1ca0 333d d782 a03e 7279 24be
00000140: 21e1 4fbc 8424 5abe cfee a5be b8d1 6cbd
00000150: 0eff 17be 20a6 a5bd 54d1 f43e 7844 2e3d
00000160: e24c 953b 61e2 e9bd 6701 d8be c0aa 01bd
00000170: 8f3a 93bd 2c86 06bf 24e3 4dbd c68a 7e3d
00000180: dbb7 c33c ce33 573e f48d 303d 2abf c63e
00000190: 3c74 053e 1117 563e ebcf a43d 73dc 45be
000001a0: 0f64 593e 2256 bc3c 115b a53d 373a f53d
000001b0: 9fb3 ea3d c08c 523d 48d2 06be 37b5 45be
000001c0: 1394 eebd b870 fa3d 7b1b 36be 2640 bfbe
000001d0: 562c 853e 9fd5 4d3e ed99 9f3d 9fc6 3dbd
000001e0: 5965 273e a0c8 553e a951 72be 3a4d 85bd
000001f0: fab2 5dbe 6c4c 7d3d a1d0 103d 738e 9dbd
00000200: f4ed c33d def7 edbd ee49 083e cb53 3cbe
00000210: 9c0b 2b3e 591f b0be 1bf6 183e 4a87 03bc
00000220: 3de0 28be 2c7e c33d e4ed ecbe 9732 66be
00000230: 1891 04bd a415 c3be 7302 883e 31d3 96bd
00000240: 215b a5bd ccc6 23bf 8220 a7bd 19a8 a53e
00000250: 1be2 fc3d f2c6 f53e 6e5c 55be 7133 68be
00000260: d687 843e 0dbf 1ebc a7ac 76bc 6750 80be
00000270: aa92 05bc 2257 12bd 7fc0 a23e 04d8 be3d
00000280: 98d0 9ebb e50c a6bc 3c73 073e 020c 0b3e
00000290: 1340 5e3d 012d cb3d 1d5a 943e c3b9 533e
000002a0: 5ed6 be3d a2fa b63e 74cd a7be abbd e9be
000002b0: 736a 103e 8c2d 2fbc 15b9 f13d ae48 ae3c
000002c0: 7db0 b83c be06 1d3b 56c9 b53d 48d7 91bd
000002d0: 9313 5dbe e9de c6be ded0 263e dc12 42bc
000002e0: bf33 4e3e 7225 68bd 5402 cb3e 360e 6b3e
000002f0: 525d 033d 58c4 aebc b643 59be 86ad 603c
00000300: fa8e e5bd 9b2d 02be 7318 a9bd 59a3 883e
00000310: 0d03 acbd 3592 74be 8d65 883d c415 1c3d
00000320: 17e6 dd3d ab6c 243d e152 263e 176d 853d
00000330: b0cc d63d b416 003e 091e 34be e74a cabd
00000340: e68a 8abe ba96 d43e 0b04 363e 707b 93be
00000350: 2bdf 933e b615 393e 294c 82be ba37 c8be
00000360: 3782 f03e e321 233e 8648 003d ef6f 103f
00000370: e7f7 c83e 5c1d 70bd 0818 5c3d 02e1 1abe
00000380: bb1e 79bd bbef d53c d509 5ebe aba9 89bd
00000390: 0c7f 36bd ab4f 48be 545a 903e 476d debd
000003a0: 95d5 9fbc cd74 053f f360 0ebe 2c19 18be
000003b0: 2053 39be fa6c 54be cb9f b03c 9ca2 033e
000003c0: b8ce aa3e edf0 083e 9e6b fabd 2dd5 bd3e
000003d0: 31f0 b03d d393 993e 24d3 69be 2bce a33d
000003e0: b9dc 863e 6761 3b3d e50c 46be 2616 fbbc
000003f0: bb75 013b b1b1 68bd aef8 cd3d 110f 6fbe
0.20074455 -0.2217799 0.11459894 0.1322193 -0.13842115 -0.0934886 0.28658026 0.3845041
-0.18069567 -0.058286775 -0.05948016 -0.3816999 -0.14254512 0.33856344 -0.11550647 -0.026438141
-0.021930289 0.23376846 0.11691022 0.04025097 -0.025739089 -0.15435202 -0.34698328 -0.0144923
-0.051763143 -0.31722057 -0.16249387 0.023196563 0.08880877 -0.102767274 0.21191835 -0.045052137
0.04662881 0.3533433 0.03780986 0.03363053 0.14378007 0.26058722 -0.2562288 0.0037914414
0.24422564 -0.05289917 -0.048964877 0.09425084 0.08142568 0.3957038 -0.1552147 0.11592189
-0.10063953 0.090419605 0.4021585 -0.013001782 -0.1154474 -0.20603894 -0.0021435185 -0.396876
-0.5473775 -0.17323023 0.2636026 -0.21143645 -0.03921384 -0.05940586 -0.20964946 -0.46982464
0.19297028 -0.14804561 -0.4180732 -0.123755544 -0.04556335 -0.044953376 0.08119688 -0.16042593
0.36802495 -0.323414 -0.07082579 0.10562997 0.052633088 0.043853864 0.31349823 -0.16061953
-0.012687952 -0.21302992 -0.3240876 -0.05781719 -0.1484339 -0.080883265 0.47815955 0.042545766
0.0045562843 -0.114201315 -0.4218857 -0.03165698 -0.071889035 -0.5254848 -0.050265446 0.062144063
0.02389138 0.21015856 0.043104127 0.38817722 0.13032621 0.20907237 0.0804747 -0.19322376
0.21229576 0.02299029 0.0807401 0.11973994 0.11460041 0.05140376 -0.13166153 -0.19307409
-0.11649337 0.12228531 -0.1778392 -0.3735363 0.26010388 0.20101021 0.07793031 -0.046331998
0.16347255 0.20877314 -0.23663963 -0.065088704 -0.21650305 0.06184046 0.035355214 -0.07693186
0.0956687 -0.116195425 0.13309452 -0.1839134 0.16703647 -0.34398916 0.14937632 -0.008027861
-0.1649179 0.0954555 -0.46275246 -0.22480236 -0.032364935 -0.38102448 0.2656437 -0.073645
-0.08074022 -0.63975215 -0.08160497 0.3235481 0.12347814 0.48003346 -0.2083604 -0.22675873
0.25884885 -0.009689105 -0.015055812 -0.25061342 -0.008152643 -0.035727628 0.31787488 0.093185455
-0.0048466437 -0.02026982 0.13227552 0.135788 0.054260325 0.09920693 0.28975 0.20676331
0.09318231 0.35738093 -0.32773936 -0.45652518 0.14103107 -0.010692012 0.1180288 0.02127489
0.022545094 0.0023960317 0.088762924 -0.0712114 -0.21589498 -0.38841942 0.16290614 -0.011845317
0.20136927 -0.056676336 0.39650214 0.2295464 0.03207142 -0.021333858 -0.21217236 0.013713246
-0.11208911 -0.1271271 -0.082566164 0.26687124 -0.083990194 -0.23883899 0.06659994 0.038106695
0.10834902 0.040142696 0.16242553 0.06514948 0.1048826 0.1250866 -0.17589583 -0.09877568
-0.27059096 0.41521245 0.1777498 -0.28805113 0.288812 0.18074688 -0.2544873 -0.39105016
0.46974346 0.15930896 0.031319164 0.564208 0.39251634 -0.05862175 0.053733855 -0.15124896
-0.060820322 0.026115289 -0.21683438 -0.06721815 -0.044554755 -0.19561641 0.28193915 -0.10860687
-0.019511024 0.5213135 -0.1390417 -0.14853352 -0.18098116 -0.20744696 0.02156057 0.12855
0.3336084 0.13373156 -0.122275576 0.37076703 0.08639563 0.29995593 -0.2283445 0.07998308
0.26340273 0.045747187 -0.19340856 -0.03065021 0.001975401 -0.056810085 0.100571975 -0.23345591

bias f4 [50]
00000000: 7d02 c7bd 26f2 5a3d 6ad4 18bd 4777 b5bd
00000010: 8d33 013d 5e3c ac3d 71f3 c13d d488 b63d
00000020: f0ae e63d 9322 b1bd 20f8 b43c f90b ffbd
00000030: 53e7 60bd b460 c8bd d028 12be 3ce1 c7bc
00000040: d4c7 a23d 3464 f73d 5b0c 09be dda5 1f3d
00000050: 971a e9bd 67b2 b0bd 4b67 ce3d 843e 5ebd
00000060: 6049 0b3b 2620 b4bd 7c5e d1bd 7004 3fbd
00000070: 5cc3 c1bd 7d25 b8bc a5c7 46bd 761f 8fbd
00000080: 678c f33d ecbc c43c 3ffa 05be 00d1 c03d
00000090: 3d58 11be 6927 db3c 6e19 ca3d 7052 8dbc
000000a0: 4c7e 19bd 999a f6bd 7daf d53d 3eb7 b63d
000000b0: 1848 0ebe 13f0 0a3e 82c4 e53d f5cf b33d
000000c0: c286 413d 6cff a4bc
-0.097172715 0.053453587 -0.03731195 -0.08860641 0.031543303 0.084099516 0.09470261 0.08912817
0.112638354 -0.08649173 0.022090971 -0.124534555 -0.054908108 -0.0978407 -0.14273381 -0.024399392
0.079482704 0.12079659 -0.1338362 0.03897654 -0.11382025 -0.086277775 0.10078295 -0.05425884
0.0021253452 -0.08795194 -0.102230996 -0.04663509 -0.0946109 -0.022478813 -0.04853024 -0.069884226
0.11892014 0.024015866 -0.13083743 0.094148636 -0.14193816 0.02675219 0.098681316 -0.017251223
-0.03747396 -0.12041206 0.10433862 0.089216694 -0.13894689 0.13568144 0.112191215 0.08779899
0.047247656 -0.020141326

weight f4 [1, 50]
00000000: 00dd 07be efbc 34bc f810 b33e 7f48 b83e
00000010: 9ba8 c53c 5178 a2be 8cbb b5be 75b8 1c3e
00000020: 2cda c5bd c643 e3be 0791 3ebd c8b1 f6be
00000030: 4bf0 44be 44b2 aebe fca4 5bbe fd7a d73d
00000040: 5d8b 963d 8bd9 ca3d 2b3d 1a3f 6c2b 1f3f
00000050: cb6a fdbc e383 fc3e 8722 2cbe d5b6 a63e
00000060: 14e7 babc 927b d7be cbe6 5b3d 82c2 1a3f
00000070: 79a9 a8bd 8478 873c f9bd 63be f2a6 1bbe
00000080: 2139 d0be 7956 0abe 3bff 383f 83f1 9bbe
00000090: 4f40 b2bd 01be bbbd 0df2 113f 2a89 683c
000000a0: cc13 0e3e 381e df3e b801 11be 9c29 3dbf
000000b0: db1a e23e fde1 3cbe d6bb 46bd c71c 353e
000000c0: 34dc 743e b1b2 49be
-0.13267899 -0.011031373 0.34973884 0.3599281 0.024128249 -0.3173242 -0.3549465 0.1530474
-0.096607536 -0.44387645 -0.046525028 -0.4818251 -0.1923229 -0.3412038 -0.21449655 0.10521505
0.073508 0.09904774 0.60249585 0.6217563 -0.030934712 0.49319372 -0.16810046 0.32561365
-0.022815265 -0.42086464 0.0536869 0.60453045 -0.08235449 0.016536959 -0.22240438 -0.15200403
-0.40668586 -0.13509549 0.7226445 -0.30457696 -0.08703672 -0.091671 0.57009965 0.014192859
0.1387474 0.43577743 -0.14160812 -0.73891616 0.44161114 -0.18445583 -0.048518978 0.17686759
0.23912126 -0.19697072

weight f4 [50, 3]
00000000: 95d9 6a3e 776f c4be 0b36 09be af49 2e3e
00000010: 71f4 e53e 4f40 d3bd db8e 81be e163 f5bc
00000020: 3b66 04bf bb99 9dbe 67bf 673e ff8b d5bd
00000030: a3b4 473e 9b00 9abe 1cd7 cb3d 15ec 84bd
00000040: 46da b0be b214 ae3e b09c 02bf 1e8d 0b3d
00000050: e2f5 13bf 7188 46bd 90bc c03e dce9 35be
00000060: 1a56 373f 1454 1f3d 978e b23e fe4b 183e
00000070: 4aa7 8e3d a4b8 0e3e 3fa3 96be 9703 cbbe
00000080: cdee 83be 8889 4abe 0bd6 aabd cd52 243d
00000090: 1a7f e9be 7592 de3c 1b75 7d3e 2dc7 85be
000000a0: cad8 793e d600 933e 2965 29be 2a7f 54be
000000b0: e031 5dbd 3235 df3e 30dd 8b3e 8d2b dc3d
000000c0: 6532 b6bd 6b7d 24bd 8f1e 5fbe 6f83 8d3e
000000d0: 75ae 513d 17c9 c83e 19d3 363e 7f4d bcbd
000000e0: c0d5 d93c 7c90 f7bd 7411 893e 05ab 39bf
000000f0: 38ff 9dbb 9e44 18bd 1cdb a3be f62b 0c3e
00000100: 6e5a fdbd f4c2 7bbe 251b 88bd ecec 57bd
00000110: 1d03 593e 3b0f 563e de2b 3ebd d3d2 063f
00000120: da41 8b3e 5fc5 603d dab6 c6bd f6ab 8dbe
00000130: e9cf 10bf 05aa 28ba 5026 743c 865e c83d
00000140: 5ad9 12be a608 8f3d 34fa 7c3e ddd1 d33d
00000150: dea2 ce3e 8cae c13e e943 623e aef9 953e
00000160: 59cc 8abc b1e9 4d3f 09b1 25be 6f63 ad3d
00000170: 2a1f 373d 2104 17be d40d 173f 85b1 0bbd
00000180: 1611 8b3e 4e3e c8be 5976 0bbf 222a 96b9
00000190: 2e85 9a3c 7855 793e db6b d4bd 08e9 d53e
000001a0: 8a12 163e a7c0 043e 840f 4cbe efab 9a3d
000001b0: 6b54 933d 4816 9c3c e57b 8cbe 2426 723e
000001c0: e0bf 443c e100 94be ae8f a03e 93ce a03e
000001d0: d47a afbd 6eeb 64be b651 563d 54a2 fcbe
000001e0: 37e5 0ebf 81e6 883d ce09 22be 1949 a7bd
000001f0: a0ee b53e cc55 cbbe 406a a0bd 0f77 8cbd
00000200: 8720 3b3e f0f4 833e 65ee 16be 12ba 183f
00000210: c59c a0be 5061 f13c 92cd af3d 090a 4abe
00000220: d33b a1bc 1ccc 74be b1bd 483d b41f d43e
00000230: a809 a7be e6a2 26be 308b 5fbe ed23 09bc
00000240: edf1 45bd 268c 8dbd 2753 a8bc ad70 08bf
00000250: 298b 24bd 8cf3 493e
0.22934563 -0.3836629 -0.13399522 0.17020296 0.44913056 -0.10315 -0.25304303 -0.029954853
-0.5171849 -0.3078135 0.22631608 -0.10427093 0.19502501 -0.30078587 0.09953138 -0.064903416
-0.3454153 0.34000164 -0.51020336 0.034070127 -0.5779706 -0.048469964 0.37643862 -0.17764992
0.71615756 0.038898543 0.34874412 0.14872739 0.069655016 0.13937622 -0.29421422 -0.39651176
-0.25768128 -0.19779027 -0.08341607 0.040118027 -0.45604783 0.027169446 0.24751703 -0.26128522
0.24399105 0.28711575 -0.16542496 -0.20751634 -0.054002643 0.43595272 0.2731719 0.10750494
-0.08896331 -0.04015867 -0.21789001 0.27639338 0.051191766 0.3921592 0.17853965 -0.09194469
0.026591182 -0.12088105 0.26771128 -0.7252658 -0.004821684 -0.037174813 -0.32003105 0.13688645
-0.12370764 -0.24586087 -0.066458024 -0.05271618 0.21192594 0.20904247 -0.046428554 0.5266544
0.27198678 0.054875728 -0.09702845 -0.27670258 -0.56567246 -0.0006434026 0.014901713 0.09783654
-0.14340726 0.069840714 0.2470482 0.103427626 0.40358633 0.3782848 0.22096218 0.29292053
-0.016943144 0.8043471 -0.16180815 0.08466231 0.044707455 -0.14747669 0.59005475 -0.034104843
0.27161473 -0.39110035 -0.5447746 -0.0002864162 0.018862333 0.2434901 -0.10372134 0.4177935
0.1465551 0.12964116 -0.19927794 0.07552325 0.07193836 0.019053593 -0.27438274 0.23647362
0.012008637 -0.2890692 0.3135962 0.31407604 -0.085683495 -0.22355434 0.05232402 -0.49342597
-0.55818504 0.0668459 -0.15824053 -0.08168239 0.3553362 -0.39713895 -0.078327656 -0.06858646
0.18274127 0.2577281 -0.14739378 0.5965892 -0.31369606 0.029465348 0.08584131 -0.1973039
-0.019681847 -0.23905987 0.04900903 0.41430438 -0.32624555 -0.16273078 -0.2183044 -0.008370382
-0.04832642 -0.06911497 -0.020547463 -0.5329693 -0.040171776 0.19721812

bias f4 [50]
00000000: 51fe 6abe a74d 01bf 5d05 e83e 8d52 f9be
00000010: 363d a4be 47d7 c23d 0cae 5c3e fb7a 7cbe
00000020: 22e8 5bbe 75c3 de3e f69f fabd 169a dd3e
00000030: 2a00 a9be 25c0 ff3e 1e5a f13e c597 da3d
00000040: 6375 82be 01dc 14be 16eb 99be 2eb2 8c3e
00000050: 0946 d2be ef64 dcbe 9d85 a8be 892d 803e
00000060: 80ee a9be a99b 71be 2049 443e 02dd 543e
00000070: cef7 ddbe 939f d03e dcc8 aa3e a4f7 a9bd
00000080: 1b94 8cbe 03df c63e 01e0 a33e f35a 83be
00000090: 4f76 debe a3c2 0c3f 5119 8cbe e96f 81be
000000a0: 8809 c6be 04c9 a73d 7ca5 19be 9c4b 983e
000000b0: 8ffd 42be bf18 26be 117d 4abd 0eb0 513e
000000c0: 72af 4fbe db32 2cbd
-0.22948577 -0.50509113 0.45316592 -0.48695794 -0.3207795 0.09513717 0.21550769 -0.24656288
-0.2147527 0.43508497 -0.122375414 0.4328162 -0.33007938 0.49951282 0.47139066 0.10673479
-0.25480184 -0.1453705 -0.3006217 0.2747969 -0.41069058 -0.43045756 -0.3291444 0.2503474
-0.33189774 -0.23594536 0.1916852 0.20787433 -0.43353122 0.40746745 0.3335637 -0.08299187
-0.27456746 0.3884202 0.3200684 -0.25655326 -0.43449637 0.5498449 -0.27363065 -0.25280693
-0.38679147 0.081926376 -0.15004534 0.29745185 -0.19042037 -0.16220377 -0.04943568 0.20477316
-0.20281771 -0.042040687

weight f4 [50, 50]
00000000: cd97 973d 2cc9 9b3d ebb8 c83e 3289 943d
00000010: 1cec d0bd 640a 74be d96b 6f3e bccc af3d
00000020: 2f4a a43e 505e 0bbe fe15 7e3d 5f4c 6bbe
00000030: e240 d23e c571 74bd f511 753e 33bd e6be
00000040: cfc0 65be 74c1 b8be 2b6d fbbd 227e 903e
00000050: 1f12 d1bd 2644 8f3e b5be 693c 3f9b 483e
00000060: 4da0 633d 4eb5 ddbd 022d 81bd 3186 e6bc
00000070: d278 c13e 0aae c0be abb5 593c 07d3 08be
00000080: bba6 34be bfcd 383e bec4 dabd 0051 ca3d
00000090: 2602 033e 6e38 b63c e1ad b1bb b039 d3bd
000000a0: 665a 0abe 7df4 c8bb 2786 c13d ebc1 cebd
000000b0: 89df 9f3d e842 243c 4344 9b3b 8f23 b8bd
000000c0: 5a5d 8abe 89f4 e53d d2dd 663d 0c9e a8bb
000000d0: 004a f13e b2b7 dabd 3455 523d 73cf 9b3e
000000e0: a490 e73d 276a b53d 68f0 203e ab37 cb3e
000000f0: d233 313e e254 08ba f6d6 5d3d d03e afbe
00000100: 3d6a c8bd 3005 83be af4c d7bd 5b10 05be
00000110: 3acc d6bd 9483 063e 1a0d 6d3e faf0 9fbe
00000120: e9e6 10bf 9bc7 693d 6d06 a0be 4b76 59bd
00000130: 52cb 933d 325d 3b3e 9795 c7be 6eed 8bbd
00000140: f64f f8bd ec91 333d c43b d4be a550 a03e
00000150: 1e08 85bd 63a6 b6be e421 173e 238c e23c
00000160: 37d2 1dbe 27ed 553e 6d70 36be dd63 11bd
00000170: ba15 0dbe da94 84be 4224 4abe c255 993d
00000180: 352d 46bd a99d 313e 8413 793e 6fc6 103e
00000190: ceef 31be 92d9 aa3e ad97 21bd 91d7 af3d
000001a0: e246 6d3e d3fe acbe a028 4bbd e8ad 6c3d
000001b0: 2435 e0bd bfa3 313e a510 833d e42b 913e
000001c0: 6a38 723e 2c12 643e cc7e 9a3d e3ea 203f
000001d0: acb8 41bd 30ee 5ebe ef5b ccbd a711 b53d
000001e0: da85 5cbe 3b06 d8be e121 373c 5660 9d3d
000001f0: 6a53 2bbe 6644 a53e 386b 953e 609c 993e
00000200: 164e c3bd 6b23 433e 4bc4 f0be 4336 ddbd
00000210: 1e6a 953e 8238 b13e fce3 2c3e 305b 923e
00000220: 95f4 763d 5469 dcbd 2f6a e8bd 6f50 29be
00000230: 7c57 87be 2160 693e cfa4 843e 48fd d4be
00000240: fe47 903e 6243 acbe 140e f13d 93fe 9a3e
00000250: c3fe fc3d 534e aabd a687 64bc 7960 1e3d
00000260: 42d1 e2bd 53c6 00bf 6446 0fbc ea35 cf3d
00000270: 7286 d1bd e814 47bd dc94 a23e 5f67 a63d
00000280: 8027 e6bd e298 e0bd f7eb 38be 1b51 8abe
00000290: 912a 8ebe 2217 ac3d 2f23 93bd 1e22 50bd
000002a0: ada7 a93e 4c6c 2f3d 6900 99bc 571c 803d
000002b0: 5e0a 863d 18d7 c83c 71e4 a43d b61a e9bd
000002c0: b79b 39be d3f3 3abe 7ec4 af3e 33e7 91be
000002d0: 55d7 623e 38d7 d63e 5ed3 7dbd 5b23 6cbe
000002e0: 1920 523c 67d0 9ebe 30bc 1fbe 1da5 91bd
000002f0: fb63 0fbe b661 2b3e 02df 413e c447 5ebc
00000300: d9e2 7e3e 2b66 beb8 fbca a0be f82c 443e
00000310: 32c1 773e 4286 3f3c 5015 0fbd bf8a d13d
00000320: ffdc 04be 8180 bcbe 8c37 553e 28d2 9d3e
00000330: 7237 08be 5971 403e 65ca 0dbc df99 b3be
00000340: 2412 463e 24fc 84bd d48f 1abe d34e 8c3e
00000350: c1ed 9bbe d293 3d3e 76a5 133e bab1 75bd
00000360: ca27 de3d b40c c9be c8ee 98bb 1ad8 91be
00000370: 4eb9 0cbe f41e 033d e55b 06be 6686 20bd
00000380: 0a8e 973c 3e02 f8bd 6828 9ebe 30e8 1cbe
00000390: 1811 803c bbea 79bd c550 1cbd 1fae 253e
000003a0: 4ffb 4bbe abf1 99be f086 cebe 70fd 38bd
000003b0: 2038 7c3e 3152 4a3d 9a24 eb3e 63e5 b73d
000003c0: b903 17bd 6830 eebd 1ed6 2f3e 5f34 803e
000003d0: 8fce 5e3d baa4 a5bd c5d4 283d 8b4d 01bf
000003e0: 7aa2 a0be b21d b83c 9b8c 173f c986 8ebe
000003f0: f0b1 babe ca4d 37be 90f1 513e c34f 11bd
0.074020006 0.0760673 0.3920358 0.072527304 -0.10201284 -0.23832089 0.23380984 0.08583972
0.32087848 -0.13610196 0.062032692 -0.22978352 0.41065127 -0.05967881 0.23932631 -0.45066223
-0.22436832 -0.36085093 -0.122766815 0.28221232 -0.102085344 0.2798168 0.0142666595 0.19590472
0.055572797 -0.10825597 -0.06307413 -0.02814016 0.3778749 -0.3763278 0.013287942 -0.1336175
-0.17641728 0.18047236 -0.10682057 0.09878731 0.12793788 0.022243705 -0.0054223393 -0.103137374
-0.13511047 -0.006132661 0.09449416 -0.10095581 0.07806308 0.010025717 0.004738362 -0.08991157
-0.27024347 0.11228282 0.056363888 -0.005145794 0.4712677 -0.10679568 0.051350787 0.3043171
0.11306885 0.088581376 0.15716708 0.3969091 0.17304924 -0.0005200637 0.05416008 -0.3422761
-0.09785888 -0.25589895 -0.10512673 -0.1299452 -0.10488172 0.1313613 0.23149529 -0.31238538
-0.5660234 0.057075124 -0.31254902 -0.05309133 0.07216515 0.1829727 -0.38981315 -0.068323955
-0.12124626 0.043840334 -0.41451848 0.31311527 -0.06495689 -0.35673818 0.14759022 0.027654713
-0.15412222 0.20891248 -0.17816325 -0.035495628 -0.1377782 -0.25894815 -0.19740394 0.0748706
-0.048382957 0.17345299 0.24323851 0.14138196 -0.17376634 0.33369118 -0.03945129 0.08586038
0.23171571 -0.33788165 -0.04959929 0.057783037 -0.10947636 0.1734762 0.06399659 0.28353798
0.23654333 0.22272557 0.07543716 0.6285841 -0.047295257 -0.21770549 -0.099784724 0.088412575
-0.21535435 -0.42192253 0.011177511 0.0768439 -0.16731039 0.32278746 0.29183364 0.30002117
-0.09536378 0.1905648 -0.4702476 -0.10801365 0.29182523 0.34613425 0.16883844 0.28585196
0.060291845 -0.10762277 -0.11348378 -0.16534589 -0.26433933 0.22790577 0.2590699 -0.41599488
0.28179926 -0.3364516 0.11770263 0.3027235 0.123532794 -0.083157204 -0.013948357 0.038666222
-0.11075069 -0.5030262 -0.00874481 0.10117705 -0.102307215 -0.048603922 0.31754196 0.08125185
-0.11238003 -0.1096666 -0.18058763 -0.27015004 -0.2776685 0.0840285 -0.07184445 -0.050813787
0.3313574 0.04282789 -0.018676953 0.062554054 0.06544946 0.024516627 0.08051384 -0.11382048
-0.18125807 -0.18257074 0.343296 -0.28496704 0.22152455 0.41961074 -0.061969154 -0.23060362
0.0128250355 -0.31018373 -0.15599132 -0.07111571 -0.14002983 0.16736493 0.18932727 -0.013566915
0.24891223 -9.078936e-05 -0.31404862 0.19157779 0.24194792 0.011689724 -0.034932435 0.10231542
-0.12974928 -0.3681679 0.2082197 0.308244 -0.133024 0.18793239 -0.008654212 -0.35078332
0.19342858 -0.064934045 -0.15093929 0.27403888 -0.3045483 0.1851342 0.14418587 -0.059983946
0.10847433 -0.39267504 -0.004667137 -0.28485185 -0.13742563 0.03201194 -0.13120992 -0.039190672
0.018500347 -0.12109803 -0.30890203 -0.15322948 0.015633151 -0.061014872 -0.038162965 0.16179703
-0.19920085 -0.3006719 -0.40337324 -0.04516357 0.24630785 0.04939479 0.45926362 0.08979299
-0.036868785 -0.116303265 0.17171523 0.25039956 0.05439621 -0.0808806 0.041218538 -0.50508946
-0.3137396 0.022475097 0.5919892 -0.27837208 -0.3646388 -0.17900768 0.20502305 -0.035476457

bias f4 [50]
00000000: f2d4 e53a bd1c 00be 694d 08be c026 a9bc
00000010: ea3a 0bbe 7e53 ecbd fd20 b23b 67f6 f73d
00000020: 35bd 323d 3b35 cabd 472a 0bbd b9dd 8ebd
00000030: 4205 e5bc ae36 193d ca9b b4bd 58a6 08be
00000040: f505 a3bd e85d 963d 9879 313a 7247 b83c
00000050: ec2d 25bd 42fc fe3d 665b 3ebd 7ba5 fd3d
00000060: 0ee7 5b3c 6b46 81bd dcde 0cbd 0e0b b93d
00000070: febe 0dbe 6f60 04be 2288 27bd 852b df3d
00000080: d3e9 143d e496 043e 55db 7bbd 6df3 633c
00000090: ce4a 50bd 6924 043e 4cdb 55bd ecd2 f33d
000000a0: 820c a0bd d7c4 fcbd 9b3e c13d 866f 293d
000000b0: a95d debd 4d15 e739 d629 993d c616 1dbd
000000c0: 34a4 62bd cc16 b33d
0.0017534776 -0.12510963 -0.1331078 -0.02064836 -0.13596693 -0.11539362 0.0054360614 0.121075444
0.043637473 -0.09873434 -0.033975866 -0.06975884 -0.027956609 0.037405662 -0.08818777 -0.13344705
-0.079601206 0.0734213 0.0006770133 0.022495005 -0.040326998 0.12450458 -0.046473883 0.123850785
0.013421787 -0.06312259 -0.034392223 0.09035312 -0.13842389 -0.12927411 -0.04090131 0.108969726
0.036355805 0.12948185 -0.06148847 0.013913018 -0.05085259 0.12904514 -0.05221109 0.119054645
-0.07814886 -0.12342232 0.09435769 0.041366123 -0.10857708 0.00044075624 0.07478683 -0.038351797
-0.055332378 0.087445825

weight f4 [50, 50]
00000000: d0d1 463d 3592 403e 7de2 5ebc c1d5 94be
00000010: 6848 0e3e 8eeb 98be 4047 fabe 5f44 94be
00000020: 28a7 253e 7d7c 2dbe aba4 143e b7ba c43e
00000030: 5e56 0ebe da87 5bbe b140 8ebd 2a85 753c
00000040: c565 cc3d 162b e63d 121c 9c3e ba22 973e
00000050: 8b3f bb3d ffb0 b23e f6cb 91be b287 953c
00000060: 8958 8ebd 1117 a2be 1323 8b3c e6a8 a6bd
00000070: 5ca1 a23d 4546 123e a576 ac3d be27 043e
00000080: dc18 22bd b8a3 c03e 6481 32be 9f15 513d
00000090: 65db d83d a627 3b3e 7f13 d7bc 6151 7fbe
000000a0: 96c7 c73d 22d6 87be 1b19 5e3d 20a1 e63d
000000b0: ea97 adbe 311e 353d 0766 6abe 0abe 3cbe
000000c0: d8d4 083e 0d10 bbbe 5972 7dbd 9281 f33c
000000d0: 9d05 89be 35b9 093e c58c 0a3e 8a11 acbe
000000e0: 1fb0 01be ecc6 5d3e b852 0bbe a651 80bc
000000f0: b970 843c a5d7 103f e028 263e a1e3 a23c
00000100: 8f58 89be 727a edbd 514f 0fbd 0d64 e0be
00000110: a43e 90bc 0168 f3bd 3fbb ae3e e175 c43d
00000120: 9c99 013d c078 1a3e ca43 66be 8921 46be
00000130: be89 f1bd c5ef f6bd 0483 ce3e 4082 6e3d
00000140: ebeb 103e 902b 70bd 50c0 2f3d ab93 103f
00000150: 19b9 053e 2a6a 9fbd a974 0bbe 6edc 58be
00000160: 857c a63c 1cba 37be 7e22 96bd 974e 363e
00000170: 0914 01be 4471 95be b658 ffbe 5833 323e
00000180: fdc7 d73d 4dc3 a6bd 435b ad3c a8d6 653d
00000190: cdb9 d7bb f9a7 20be 9cdb 4e3e 6b91 9bbd
000001a0: 60fc d6bd 9847 81bd 7d50 8ebe 9a4e 1f3b
000001b0: 980d ac3d ac9e 0ebe 23f2 56bc 5f9e c3be
000001c0: 75af 373e 9d6d 0ebd 8d5a 813e 0c10 9b3d
000001d0: 1306 2b3f 7e9a 673e 2df1 ccbe e545 4cbe
000001e0: 2c67 863d 7356 fa3d 1163 923e 4037 653e
000001f0: 2b4c 17be d7c8 56be 57dc 8cbc fd66 16bd
00000200: 48c2 6dbd 9d5c 763d d3fe 1d3d b39a eabe
00000210: 9fb8 37be db6f 1f3e e71a 2d3e c368 5bbe
00000220: 4e80 013e eafa 553d 0b35 7c3e 6478 e33d
00000230: 9c78 7bbc cf80 02bf 073e d0bc abb2 42be
00000240: 62f5 eabd 17c2 e9bc 28ad c43c 19c8 b83d
00000250: d9e0 d63d c128 3fbe 3bd0 ab3e a48e bc3d
00000260: 6f7d 96bd d23c 0bbe 7e2a ea3d daca 96be
00000270: 5bb9 003d 6ecd febd 13ae 5e3b 0430 a4be
00000280: 18d4 2bbe 949e 423e 91a4 60be 5f08 f1bd
00000290: 6a2a b2be 325f 3d3d 6dc9 b7bd a2e2 3bbd
000002a0: 5fb2 bd3e ec45 313e c9f3 3fbe 4237 8c3e
000002b0: f183 e1bd 68ae b4bd d3a4 c03d 59e6 e8bc
000002c0: cfff 59bd 7aca 3cbe 5498 29be ca41 2c3e
000002d0: efe2 04bf ad3e df3d d1f8 cbbd eddc 3ebc
000002e0: 8ea3 81bd 8ab5 a83e f20f 6fbd e10c 493e
000002f0: e514 243d 319a d63d e749 1a3c 09e2 b43d
00000300: 7f8b 373d e8c3 b5be 14b8 623e f415 a33e
00000310: 5bb6 563d 5352 e83d c341 67be 33d3 d9bd
00000320: 9cc3 af3e d1c1 743e 71e9 853d b6ce 03bd
00000330: e9e4 46be 547c 633d d5db 923e 7d7e c9be
00000340: 6a68 a63e c157 a13d 0252 69be 85c9 933e
00000350: bcc7 d83e 6acf 7dbe 3cbe bb3e 070f 0d3e
00000360: 6d41 c93e c945 fdbe 98fe a3bd 63b4 31bd
00000370: e5ed c23d 8a6c dd3d a530 493e 1854 193c
00000380: 8ef8 1bbd 7fbb 593e a757 d2bd 522a 5dbd
00000390: c036 e0bd a2b9 afbe 7e01 6ebe 32d0 bb3d
000003a0: b7d2 553e ab9d dd3c c77f 703e e58f 4ebe
000003b0: 88eb 7ebd f819 273c 9cea abbe bf9c cb3e
000003c0: 41f0 ba3e 684b f33e d36b 82bd 18d9 82be
000003d0: 80d9 903d a5d2 6cbc dde5 24be 919f 293f
000003e0: 72cf 103e 1a4a e4bd e30a 99be 6854 fe3c
000003f0: cd6f bc3d 8421 fabd 888c 013e 3e72 4cbd
0.048539937 0.18805774 -0.013603804 -0.2906933 0.13894808 -0.29867214 -0.48882484 -0.28958413
0.16177046 -0.1694202 0.14515941 0.38423702 -0.13900134 -0.21438542 -0.06945933 0.014985362
0.099803485 0.11238687 0.30490166 0.29518682 0.09142979 0.34900662 -0.28475922 0.018253181
-0.069504805 -0.31658223 0.016984498 -0.081376836 0.07940933 0.14284618 0.08421067 0.12905785
-0.03957449 0.37624907 -0.17432171 0.05104601 0.10588721 0.18276843 -0.026254414 -0.24933387
0.09754865 -0.26530558 0.05422316 0.11261201 -0.33904964 0.044218246 -0.22890483 -0.18431869
0.13362443 -0.36535683 -0.06187663 0.02972487 -0.26762095 0.13449557 0.13530262 -0.3360713
-0.12664841 0.21657914 -0.13605773 -0.015663933 0.016167032 0.5657905 0.1622653 0.019883933
-0.26825377 -0.1159562 -0.03498775 -0.43826333 -0.017607994 -0.118850715 0.34127232 0.09592796
0.031640634 0.15085125 -0.22486797 -0.1934873 -0.1179385 -0.12057451 0.40334332 0.058229685
0.14152496 -0.058635294 0.042908013 0.56475323 0.1305889 -0.07783921 -0.13618721 -0.21177837
0.020323047 -0.17942089 -0.073307976 0.17803417 -0.12605299 -0.29187977 -0.4987237 0.17402399
0.105361916 -0.081427194 0.021161681 0.056112915 -0.0065834285 -0.15689076 0.20200962 -0.07596096
-0.104973555 -0.063124835 -0.27795783 0.0024308325 0.0840103 -0.13927716 -0.013119253 -0.38206765
0.17938025 -0.034772504 0.25264397 0.0757142 0.66806144 0.22617528 -0.40027753 -0.19948538
0.06562647 0.1222352 0.28591207 0.22384357 -0.1477515 -0.20975052 -0.01719491 -0.03671931
-0.05804661 0.060146917 0.038573097 -0.4582115 -0.17941521 0.15570013 0.16904794 -0.21426682
0.126466 0.052241243 0.2462961 0.11106947 -0.01534858 -0.50977796 -0.025420202 -0.19013469
-0.11472584 -0.028534932 0.024008349 0.090225406 0.10492105 -0.1866789 0.33557305 0.09206894
-0.07348143 -0.1359742 0.11433886 -0.29451638 0.03142677 -0.12441526 0.0033978268 -0.32067883
-0.16780126 0.19005805 -0.21937777 -0.11769175 -0.34797984 0.046233363 -0.08973966 -0.04587043
0.3705015 0.1731183 -0.1874534 0.27385908 -0.11011494 -0.08822328 0.09406438 -0.02843015
-0.053222474 -0.18436614 -0.16562015 0.16821972 -0.51908773 0.10900626 -0.09959567 -0.0116493525
-0.06330024 0.32951003 -0.058364816 0.19633819 0.04005899 0.104786284 0.009417034 0.08832175
0.04481077 -0.35501027 0.22140533 0.31852686 0.05242 0.11343827 -0.2258368 -0.10635986
0.34328926 0.2390206 0.06538666 -0.032179557 -0.1942326 0.05553849 0.28683344 -0.39354315
0.32501537 0.07878066 -0.2278519 0.28864685 0.42339885 -0.24786153 0.36668575 0.13775264
0.39307728 -0.49467304 -0.08007544 -0.04338492 0.09518031 0.10811718 0.19647463 0.009358428
-0.038078837 0.2126293 -0.102706246 -0.053995438 -0.10947943 -0.34321314 -0.23242757 0.091705695
0.20881163 0.027052721 0.23486243 -0.20172079 -0.06223634 0.0101990625 -0.3357743 0.39768025
0.36511424 0.47518468 -0.06368222 -0.25556254 0.07072735 -0.014454518 -0.16103311 0.66259104
0.14141634 -0.11146946 -0.29891118 0.031046107 0.09201012 -0.12213424 0.12651265 -0.049913637

bias f4 [50]
00000000: 1c6e 2a3d 7265 c73d 2cce e8bd a262 c1bd
00000010: 2702 cebd 01d5 8b3d 0141 7e3d f6db f53d
00000020: 4305 c2bc b575 f93d 7516 40bd c4c0 253d
00000030: f513 3b3d 1253 88bd 186a 5fbd 56ee 053e
00000040: dc9b aabd ce05 a53d f5fe ca3d 8cd9 eabb
00000050: 9123 433d c89d 4ebd 696f 07be 6a56 cf3c
00000060: 8119 8abc 9ead a7bd fde3 fabc c4b6 84bd
00000070: b702 223d a1fd 7cbd 6aae 173b 8952 a43d
00000080: 2a09 f43d 84ae 963b 2b26 b7bd e644 ee3d
00000090: 6860 253d d137 a6bd b2dd cd3c b92a f4bd
000000a0: 599f 63bd 12cd e53d 145b 903c 9870 e0bd
000000b0: ff3c 0c3e 361e ccbd 8dc9 a03c 1d51 843d
000000c0: 7b55 e3bd b80a 053e
0.041608915 0.09736146 -0.11367449 -0.09442641 -0.10059004 0.06827737 0.06207371 0.12004845
-0.02368415 0.12180654 -0.046896417 0.04046704 0.04567333 -0.066564694 -0.05454454 0.13079199
-0.08330509 0.08057748 0.099119104 -0.007167047 0.04764134 -0.05044344 -0.13226093 0.02530976
-0.016857864 -0.08187412 -0.030626291 -0.06480172 0.03955337 -0.061765317 0.002314473 0.08023555
0.119158104 0.0045984406 -0.08942827 0.11634235 0.040375143 -0.08116115 0.025130127 -0.11922211
-0.055571888 0.11220755 0.017621554 -0.109589756 0.13695143 -0.099667 0.019627357 0.06460784
-0.111002885 0.1299237
