models/NeuralLVModel_lowerbound_5e-08.pt (torch, 512281 bytes, 146 tensors)

weight f4 [50, 2]
-0.013088101 -0.0123591935 0.041118223 -0.16189049 0.13506907 -0.25853482 -0.40575135 0.4856706
-0.16559362 0.043077387 0.27017748 -0.16836718 0.22554123 0.010923822 -0.034197323 -0.10269553
0.01861199 -0.1310386 0.18343765 0.4128802 -0.18724154 0.053665444 0.24337348 -0.471049
0.12523733 -0.11902226 -0.64028454 0.24533878 -0.5157421 0.27525407 -0.660639 -0.20441262
0.26409543 -0.11785988 0.042916935 -0.07509923 -0.22047333 0.21119887 -0.17939499 0.26884833
0.1340236 -0.16216506 0.17928326 0.5469675 0.13133687 -0.82437706 0.2574258 -0.15067448
0.19127691 0.3698826 -0.33560848 -0.1383427 0.43551823 0.108223006 0.17210475 0.27129653
-0.6263883 -0.27440178 -0.025000397 -0.091077186 -0.62230575 -0.52128404 -0.14509752 0.5709193
0.42264682 0.23566297 0.22390804 0.05639133 0.546157 -0.22145085 0.21629308 0.04554447
-0.27076477 0.2526637 0.11572877 -0.048202544 -0.19784947 0.48343393 -0.19389209 0.38011414
0.19590953 0.047741782 -0.03434787 0.23861721 0.03832086 -0.07418788 -0.29548967 -0.022647362
-0.021823915 0.024451755 -0.13593309 -0.17331704 -0.36115104 -0.63751835 -0.7555999 0.2570255
-0.27744555 -0.33185598 0.6464624 -0.34882167
00000000: 796f 56bc 377e 4abc 956b 283d 9fc6 25be
00000010: 8c4f 0a3e ad5e 84be a4be cfbe d1a9 f83e
00000020: 6091 29be ea71 303d b454 8a3e 7268 2cbe
00000030: 48f4 663e d5f9 323c 7e12 0cbd 0952 d2bd
00000040: 2c78 983c fc2e 06be 14d7 3b3e 0965 d33e
00000050: 3fbc 3fbe 4cd0 5b3d e636 793e 562d f1be
00000060: 373e 003e f1c1 f3bd b0e9 23bf 173a 7b3e
00000070: ad07 04bf 1aee 8c3e a31f 29bf 8b51 51be
00000080: 8437 873e 8560 f1bd abc9 2f3d a0cd 99bd
00000090: c3c3 61be 8444 583e 52b3 37be 7da6 893e
000000a0: 7c3d 093e 990e 26be 0896 373e 1006 0c3f
000000b0: 2c7d 063e 600a 53bf 51cd 833e 694a 1abe
000000c0: 18de 433e 4161 bd3e e0d4 abbe b5a9 0dbe
000000d0: 3ffc de3e 06a4 dd3d 3a3c 303e 61e7 8a3e
000000e0: fc5a 20bf 647e 8cbe a2cd ccbc ad86 babd
000000f0: 6e4f 1fbf df72 05bf 7294 14be c427 123f
00000100: 2a65 d83e a251 713e 2648 653e 98fa 663d
00000110: f2d0 0b3f 03c4 62be ef7b 5d3e d78c 3a3d
00000120: aea1 8abe 235d 813e 3503 ed3d 0870 45bd
00000130: 0d99 4abe a784 f73e a68b 46be 529e c23e
00000140: 829c 483e e38c 433d 5ab0 0cbd 1258 743e
00000150: 56f6 1c3d d1ef 97bd 6c4a 97be f686 b9bc
00000160: 11c8 b2bc 0c4f c83c 0b32 0bbe 067a 31be
00000170: cae8 b8be 6734 23bf ff6e 41bf d998 833e
00000180: 580d 8ebe 07e9 a9be 8f7e 253f c198 b2be

bias f4 [50]
0.020202765 0.450208 -0.3849963 -0.11659968 0.3656594 -0.6278478 0.105751485 -0.114602506
0.08982286 0.07650333 0.6059392 -0.020360425 0.14251134 -0.5634966 0.26965597 -0.5972182
0.33577305 0.6466369 0.45268303 0.19224063 -0.6110138 -0.35404533 0.4716541 -0.06691044
-0.6639821 -0.3344082 0.4518756 0.23343897 0.11081941 0.19399993 -0.12765092 0.21412596
0.03744498 -0.00020841674 0.6259605 -0.60657346 -0.36086258 0.28294012 0.61805636 -0.46273488
0.2205444 -0.65497434 -0.07821138 0.17564198 0.5867168 0.23207076 -0.27812588 0.21082754
0.1741258 0.0711329
00000000: 4580 a53c aa81 e63e 3c1e c5be d0cb eebd
00000010: b537 bb3e a2ba 20bf 3c94 d83d b8b4 eabd
00000020: 0cf5 b73d c7ad 9c3d d51e 1b3f e8ca a6bc
00000030: 7eee 113e 5041 10bf 5910 8a3e 4be3 18bf
00000040: 72ea ab3e ff89 253f 12c6 e73e bada 443e
00000050: 676b 1cbf 6e45 b5be a57c f13e 5708 89bd
00000060: bbfa 29bf 8d37 abbe 3d5c e73e a00a 6f3e
00000070: 49f5 e23d eba7 463e ecb6 02be d643 5b3e
00000080: e85f 193d 718a 5ab9 f33e 203f 6648 1bbf
00000090: fbc2 b8be 87dd 903e f138 1e3f 96eb ecbe
000000a0: 64d6 613e 66ac 27bf 4a2d a0bd 7edb 333e
000000b0: 1233 163f f5a3 6d3e 8466 8ebe 2de3 573e
000000c0: 094e 323e 20ae 913d

weight f4 [50, 50]
0.5281335 -0.09340304 0.28981462 -0.05719456 0.2476373 -0.008273849 0.057570923 0.37865582
0.100817494 0.2537418 0.30524993 -0.080180764 -0.04902039 0.0010830646 -0.036936436 -0.09206072
-0.07601914 -0.50535256 0.08299522 0.31781766 0.1839031 -0.31438953 -0.1129948 0.0575156
-0.008535005 -0.07974559 -0.646005 0.14709476 -0.2191403 0.22857708 0.5272572 0.18852428
-0.20187323 0.19319318 -0.12150421 0.09060787 0.063474156 0.25219652 -0.16611208 0.13075459
-0.3702956 -0.4172383 -0.19343466 0.153782 0.049246307 0.11138616 -0.02312369 0.39182058
0.15280274 0.2124088 -0.22613621 0.09920986 0.16479324 -0.1487897 0.05841537 0.007663255
0.11517797 -0.12809013 0.06581679 -0.30822018 -0.15127532 -0.08518663 -0.0034143236 0.25292566
0.1984531 0.073228166 -0.012305769 -0.20537034 -0.4309666 0.2588568 -0.2659772 0.24091418
0.16900471 0.01056065 0.027984653 -0.0028000074 0.04389828 -0.2052799 0.10272284 -0.32999673
-0.01559791 -0.18796036 0.098844066 0.39194232 -0.3476267 -0.109724864 0.04811132 -0.3790093
-0.20970428 0.3441209 0.1269012 0.011912978 0.017799746 0.14389576 -0.24189728 -0.04653144
-0.03677838 0.2003135 -0.116918944 -0.20819291 -0.0077056577 0.21109864 -0.5809379 0.20496893
0.26074073 -0.28815678 0.07060595 0.14097226 0.31049457 -0.13254638 0.21249591 0.005800822
-0.18512897 -0.25407895 0.1653624 -0.20435767 -0.026898876 0.35316494 0.10173284 -0.16473801
0.18044178 -0.012179135 -0.38675386 0.26206413 -0.053541046 0.040704142 0.060792174 -0.0062509547
-0.01254161 -0.052627776 -0.4836066 -0.22277114 0.0709687 -0.0176521 -0.034086015 0.17078896
0.017615318 -0.04260134 -0.34074876 0.09884218 0.027617518 0.046717618 -0.015587954 -0.085072994
0.2401681 -0.08446448 0.0017078962 -0.198051 0.15649723 0.45646763 0.1433586 0.25651193
-0.20576364 -0.07063589 -0.16070731 0.10429428 0.18258409 0.19063525 -0.0762338 0.18388115
-0.0020970122 0.11639681 0.14450537 -0.15163209 0.014485108 0.13441347 -0.023885164 0.042719267
0.11977615 0.21919194 -0.1343591 -0.089430846 0.033059053 -0.14971687 -0.3047734 0.062443808
-0.07401277 -0.11530886 -0.03364954 0.1445264 -0.1656184 -0.44861734 0.005832282 0.2063299
0.25261208 0.18234171 0.040156636 0.011224584 0.23463053 -0.078225225 0.22251327 0.005476357
0.5226636 -0.030809386 0.053088922 0.04501853 0.102743 -0.26859725 -0.10936709 0.09202726
-0.10983674 0.044583555 -0.023641191 0.2583001 0.23065571 -0.17507418 -0.21743709 -0.050265454
-0.030334437 -0.116340555 0.22140934 0.24578792 0.26834595 0.21257053 0.003398556 0.21661742
0.115907885 -0.045101266 -0.39141342 0.2607883 -0.030773861 0.04433335 0.3698517 -0.22525471
-0.21794058 -0.041970298 0.046743788 0.30742294 0.083155476 0.012994125 0.21521513 -0.08172593
0.22722164 0.116706334 0.085658036 0.14987774 -0.20701185 0.015500202 -0.050408415 -0.3924909
-0.29654202 -0.059519105 0.12158553 0.108656965 -0.18062373 -0.090225436 0.04747155 0.015298579
-0.21441948 0.3386094 0.096063435 -0.14419585 -0.018467393 0.08479978 0.021925608 0.09830371
00000000: c233 073f 184a bfbd 9562 943e d844 6abd
00000010: a294 7d3e 0a8f 07bc 7dcf 6b3d 2ddf c13e
00000020: 6779 ce3d 72ea 813e b849 9c3e d035 a4bd
00000030: 9bc9 48bd 9ef5 8d3a a94a 17bd 558a bcbd
00000040: ecaf 9bbd c95e 01bf 66f9 a93d ffb8 a23e
00000050: 1851 3c3e aaf7 a0be d169 e7bd 7a95 6b3d
00000060: 68d6 0bbc a851 a3bd 9560 25bf 02a0 163e
00000070: 5166 60be 1c10 6a3e 54fa 063f 820c 413e
00000080: dbb7 4ebe 6fd4 453e 33d7 f8bd 9e90 b93d
00000090: bdfe 813d e71f 813e 4919 2abe 88e4 053e
000000a0: 6397 bdbe 42a0 d5be bc13 46be 0779 1d3e
000000b0: 7fb6 493d 6d1e e43d e56d bdbc b59c c83e
000000c0: 5278 1c3e b181 593e 4090 67be 8a2e cb3d
000000d0: 8fbf 283e 545c 18be f444 6f3d 0b1c fb3b
000000e0: 6de2 eb3d 0f2a 03be f4ca 863d 09cf 9dbe
000000f0: ebe7 1abe 5476 aebd d8c2 5fbb 797f 813e
00000100: 4a37 4b3e a6f8 953d 239e 49bc 9a4c 52be
00000110: a7a7 dcbe e188 843e 2a2e 88be 35b2 763e
00000120: 920f 2d3e 9406 2d3c 1240 e53c 5480 37bb
00000130: afce 333d e534 52be 5a60 d23d 55f5 a8be
00000140: 608e 7fbc ae78 40be c26e ca3d aaac c83e
00000150: 20fc b1be 6eb7 e0bd 6010 453d 820d c2be
00000160: b8bc 56be 9d30 b03e 63f2 013e a72e 433c
00000170: c6d0 913c 6959 133e ecb3 77be c097 3ebd
00000180: eda4 16bd fb1e 4d3e 3373 efbd 8630 55be
00000190: be7f fcbb 3e2a 583e 59b8 14bf 60e3 513e
000001a0: cf7f 853e 4989 93be da99 903d 085b 103e
000001b0: 25f9 9e3e 3dba 07be 8798 593e d214 be3b
000001c0: 7392 3dbe a316 82be c354 293e 2343 51be
000001d0: 085b dcbc 09d2 b43e 4f59 d03d 15b1 28be
000001e0: bbc5 383e ff8a 47bc 9a04 c6be 452d 863e
000001f0: db4d 5bbd 63b9 263d 3701 793d cfd4 ccbb
00000200: 537b 4dbc 3990 57bd 499b f7be 1e1e 64be
00000210: 0a58 913d 239b 90bc c79d 0bbd 4de3 2e3e
00000220: 004e 903c be7e 2ebd 9f76 aebe c56d ca3d
00000230: 223e e23c f95a 3f3d 9e64 7fbc c03a aebd
00000240: a0ee 753e b7fb acbd 7ddb df3a e2cd 4abe
00000250: cf40 203e 20b6 e93e 99cc 123e 8855 833e
00000260: b4b3 52be 8da9 90bd 7590 24be 3d98 d53d
00000270: 53f7 3a3e e335 433e 7720 9cbd 574b 3c3e
00000280: 076e 09bb 7361 ee3d 37f9 133e 7145 1bbe
00000290: f252 6d3c afa3 093e d2aa c3bc 66fa 2e3d
000002a0: 334d f53d da73 603e 6f95 09be 8527 b7bd
000002b0: ee68 073d 614f 19be 420b 9cbe 14c5 7f3d
000002c0: 0294 97bd 0d27 ecbd 1ad4 09bd bbfe 133e
000002d0: df97 29be 2cb1 e5be ba1c bf3b 2548 533e
000002e0: 5f56 813e c9b7 3a3e 497b 243d 51e7 373c
000002f0: fc42 703e 8c34 a0bd 85da 633e 0373 b33b
00000300: 48cd 053f f763 fcbc c573 593d 5a65 383d
00000310: ec6a d23d 9485 89be dafb dfbd ca78 bc3d
00000320: 16f2 e0bd 3f9d 363d 2cab c1bc e93f 843e
00000330: 0331 6c3e a546 33be d4a7 5ebe 26e3 4dbd
00000340: ed7f f8bc f543 eebd 21b9 623e d4af 7b3e
00000350: a464 893e 17ac 593e 4fba 5e3b f5d0 5d3e
00000360: 1d61 ed3d 1bbc 38bd 5767 c8be 0b86 853e
00000370: 7719 fcbc e396 353d 345d bd3e 2ca9 66be
00000380: d12b 5fbe 0ce9 2bbd 6a76 3f3d 8a66 9d3e
00000390: 6b4d aa3d 4fe5 543c 5b61 5c3e ed5f a7bd
000003a0: caac 683e bb03 ef3d 7b6d af3d 8d79 193e
000003b0: eafa 53be 8ff4 7d3c 0e79 4ebd 91f4 c8be
000003c0: 5bd4 97be 4eca 73bd d601 f93d 8b87 de3d
000003d0: 6df5 38be 1dc8 b8bd 8771 423d e4a6 7a3c
000003e0: c890 5bbe 365e ad3e e8bc c43d 14a8 13be
000003f0: ee48 97bc 82ab ad3d 559d b33c 7553 c93d

bias f4 [50]
-0.080154106 0.11697651 -0.120079696 -0.10770293 -0.046276893 -0.13811538 0.07254103 0.118723944
-0.099346586 -0.10466819 0.06678586 -0.105372876 -0.09338333 -0.021284059 -0.106209345 0.061132982
-0.008687511 -0.04120532 0.0015304533 0.099042825 0.10693003 0.022532769 -0.11964197 -0.14434122
0.0075443294 0.091655575 -0.11682197 0.021406638 0.11700908 0.05792715 0.118628144 0.03239732
0.02207335 -0.10869804 -0.023470039 -0.06394212 0.023978911 0.038173936 -0.13975348 0.022022566
-0.08605742 -0.13662516 0.08967608 0.123033956 -0.09582268 0.015674626 -0.088161245 -0.056244094
-0.09377761 0.00617507
00000000: d627 a4bd 6191 ef3d 58ec f5bd 5b93 dcbd
00000010: d78c 3dbd 1e6e 0dbe 6490 943d 8a25 f33d
00000020: 3976 cbbd 475c d6bd 06c7 883d bccd d7bd
00000030: c23f bfbd e85b aebc 4984 d9bd 9466 7a3d
00000040: 1056 0ebc e9c6 28bd 7e99 c83a f7d6 ca3d
00000050: 22fe da3d a496 b83c d906 f5bd 2fce 13be
00000060: 6c36 f73b ebb5 bb3d 5b40 efbd f95c af3c
00000070: 75a2 ef3d 0545 6d3d 50f3 f23d 0db3 043d
00000080: 2cd3 b43c 149d debd 3d44 c0bc 16f4 82bd
00000090: 6c6f c43c 465c 1c3d 891b 0fbe ab68 b43c
000000a0: df3e b0bd 77e7 0bbe 18a8 b73d 3af9 fb3d
000000b0: ae3e c4bd 1368 803c e28d b4bd 3560 66bd
000000c0: 7a0e c0bd 3e58 ca3b

weight f4 [50, 50]
-0.22329211 0.27712283 0.09425466 0.18393183 -0.023223536 0.16449282 -0.053723965 0.22830704
0.16149753 0.007966314 0.19295779 -0.6545224 0.14339666 0.1264146 -0.1887885 -0.23785184
-0.080618285 0.00518607 0.12299974 -0.06237038 -0.16501519 0.036419936 -0.09208228 0.30184126
-0.23482853 -0.09753441 -0.058445815 0.40123814 -0.113153495 -0.011983205 0.21940742 0.08814579
-0.14334828 0.22961953 -0.091272004 0.08879581 0.09890217 -0.0041628894 0.102532975 -0.2620232
0.16657679 -0.575358 0.13467567 -0.064554684 0.4130138 0.17875396 -0.17930347 -0.28772053
-0.053341944 -0.051496826 -0.17589532 -0.007771052 -0.2096371 0.093399346 -0.2753739 -0.15171517
0.17346935 -0.04227037 0.06205045 0.16719975 0.0375753 0.3395803 -0.17307562 0.27045047
-0.21002847 0.15333408 -0.06448645 -0.060600664 0.17835198 0.35715738 -0.27234793 -0.0010348404
-0.06037509 -0.032161564 0.09729547 -0.064359285 0.004914054 -0.005522101 -0.083994806 0.11726989
0.012375363 -0.30389258 -0.07696042 0.18192394 -0.19322993 0.059315246 -0.033766743 0.15916951
0.32274994 -0.016531643 -0.13488868 0.025912452 -0.5081369 0.046949863 -0.020846585 -0.0536538
0.24547711 -0.109071866 -0.10256048 0.037468586 -0.06179735 0.083066605 -0.14258665 0.25607815
-0.27458107 -0.03949383 0.11458099 0.24062546 0.3330925 0.08689022 0.029325696 0.22484116
0.042735737 -0.1439887 -0.14544883 -0.123925775 0.21668708 0.15711336 -0.19735977 -0.033823866
-0.4379078 -0.10693881 0.008323829 -0.47172406 0.018992022 -0.06511481 0.2661516 0.0715042
-0.29134658 0.06687719 -0.0067602852 0.117079556 -0.013621933 -0.038068283 -0.30917382 0.2648829
0.30674726 -0.017617116 0.18098623 -0.1443417 0.13329686 0.047501877 0.45148316 -0.22646601
0.08211583 0.32375842 0.054208614 -0.3339589 -0.14837204 0.30336526 0.20290159 -0.09937342
-0.0029800227 -0.26902226 0.098483846 0.19006982 0.029207975 0.2253591 -0.032457005 0.43085107
-0.116388544 -0.30819753 -0.11792193 0.03088553 0.0071179355 -0.036154937 -0.2650914 -0.14931934
-0.051490262 0.014510436 -0.39869842 0.26596934 -0.07013235 -0.17781213 -0.073164634 -0.062287517
0.041237045 -0.20517592 0.5074728 -0.23317702 -0.42216054 0.023445167 0.0734835 -0.0733734
-0.075454086 0.10713076 -0.0010127181 -0.22654513 0.34412754 0.16534626 -0.46652418 0.32499608
-0.07680283 -0.116231576 -0.37510225 -0.8197771 -0.31892142 0.22962064 -0.037414275 0.14505352
-0.30108035 0.066543885 0.028529087 0.11811507 0.15934853 -0.38823953 -0.10636566 0.0016894354
0.0011558628 -0.24340543 0.08703608 0.06359181 -0.11079789 0.3751816 -0.22580254 -0.053029828
-0.45044914 0.0974628 0.094461404 -0.020588135 0.16640769 -0.106271066 0.19864704 0.09946433
-0.00932944 0.08166713 0.18244341 0.3677731 0.055794697 -0.31743234 0.0063576857 -0.16586329
-0.21380535 0.24451151 -0.0068162275 -0.027288241 0.20911469 -0.07578763 -0.13388607 0.034312654
-0.15074532 0.10994344 0.12229717 -0.06296947 0.43213743 0.22878931 0.33694375 0.065678656
0.09744863 -0.10988011 0.12849192 0.3010274 0.078561395 -0.26895568 -0.26944354 -0.51698583
00000000: b0a6 64be 0be3 8d3e 9608 c13d a058 3c3e
00000010: 493f bebc ce70 283e a90d 5cbd 52c9 693e
00000020: 9c5f 253e 2585 023c ba96 453e c88e 27bf
00000030: 93d6 123e d472 013e c651 41be 6f8f 73be
00000040: 331b a5bd e9ef a93b 4ae7 fb3d 1578 7fbd
00000050: bef9 28be 122d 153d a295 bcbd f08a 9a3e
00000060: e476 70be 1fc0 c7bd e164 6fbd 166f cd3e
00000070: 05bd e7bd 3455 44bc 57ac 603e c885 b43d
00000080: e4c9 12be 6221 6b3e d1ec babd 94da b53d
00000090: 398d ca3d d968 88bb cffc d13d e827 86be
000000a0: 1b93 2a3e a94a 13bf 6be8 093e 3f35 84bd
000000b0: 8b76 d33e 470b 373e 549b 37be 1b50 93be
000000c0: 157d 5abd 56ee 52bd e71d 34be 4fa4 febb
000000d0: 1cab 56be 2848 bf3d cffd 8cbe 395b 1bbe
000000e0: f3a1 313e b223 2dbd 9d28 7e3d 6936 2b3e
000000f0: 8fe8 193d 78dd ad3e bc3a 31be 7c78 8a3e
00000100: b411 57be 9c03 1d3e 7911 84bd 6738 78bd
00000110: e7a1 363e 55dd b63e 3071 8bbe 7ba3 87ba
00000120: df4b 77bd d8bb 03bd d942 c73d cdce 83bd
00000130: 1306 a13b bef2 b4bb 7805 acbd 322b f03d
00000140: 09c2 4a3c cf97 9bbe 6d9d 9dbd 454a 3a3e
00000150: 11de 45be 8bf4 723d ff4e 0abd 55fd 223e
00000160: 7b3f a53e 5e6d 87bc 4220 0abe 5a46 d43c
00000170: 4315 02bf 804e 403d 75c6 aabc 16c4 5bbd
00000180: 5a5e 7b3e 1261 dfbd 3b0b d2bd a978 193d
00000190: 381f 7dbd d31e aa3d 3c02 12be ad1c 833e
000001a0: e495 8cbe 48c4 21bd 70a9 ea3d 8566 763e
000001b0: 1a8b aa3e 80f3 b13d 713c f03c c33c 663e
000001c0: ab0b 2f3d c671 13be 8af0 14be cccc fdbd
000001d0: 38e3 5d3e 53e2 203e ae18 4abe e58a 0abd
000001e0: 7335 e0be bc02 dbbd ab60 083c d185 f1be
000001f0: 2895 9b3c ea5a 85bd 0645 883e cb70 923d
00000200: 612b 95be e8f6 883d 6285 ddbb 68c7 ef3d
00000210: 872e 5fbc 7ded 1bbd 084c 9ebe bb9e 873e
00000220: fa0d 9d3e c551 90bc 7454 393e 50ce 13be
00000230: f97e 083e 5491 423d cd28 e73e b5e6 67be
00000240: 582c a83d aac3 a53e da09 5e3d a9fc aabe
00000250: d7ee 17be b152 9b3e 6fc5 4f3e 4b84 cbbd
00000260: 7c4c 43bb 49bd 89be e6b1 c93d aaa1 423e
00000270: 9045 ef3c 89c4 663e a3f1 04bd 8398 dc3e
00000280: 1e5d eebd 11cc 9dbe 0e81 f1bd a703 fd3c
00000290: 923d e93b 3317 14bd 0fba 87be 2be7 18be
000002a0: 74e7 52bd 2ebd 6d3c 3322 ccbe 222d 883e
000002b0: 8da1 8fbd 6214 36be 57d7 95bd 3221 7fbd
000002c0: 2de8 283d a319 52be bde9 013f f5c5 6ebe
000002d0: 6d25 d8be 1410 c03c 847e 963d cb44 96bd
000002e0: ac87 9abd 5f67 db3d 2ebd 84ba 72fb 67be
000002f0: 7c31 b03e 8850 293e 42dc eebe e365 a63e
00000300: cd4a 9dbd d20a eebd 670d c0be e9dc 51bf
00000310: ab49 a3be ac21 6b3e b63f 19bd e988 143e
00000320: 3427 9abe 2948 883d d5b5 e93c 50e6 f13d
00000330: 432c 233e 55c7 c6be 3dd6 d9bd 0c70 dd3a
00000340: 5280 973a 463f 79be f93f b23d 6c3c 823d
00000350: 01ea e2bd cd17 c03e c838 67be ce35 59bd
00000360: 45a1 e6be 949a c73d fb74 c13d 73a8 a8bc
00000370: c766 2a3e a5a4 d9bd 216a 4b3e f4b3 cb3d
00000380: 82da 18bc 1941 a73d 72d2 3a3e c14c bc3e
00000390: fb88 643d 7e86 a2be 2254 d03b 11d8 29be
000003a0: caef 5abe 3a61 7a3e a95a dfbb 978b dfbc
000003b0: 2922 563e 8c36 9bbd 6e19 09be 6d8b 0c3d
000003c0: fb5c 1abe 072a e13d f076 fa3d 23f6 80bd
000003d0: 1e41 dd3e bf47 6a3e e483 ac3e 8882 863d
000003e0: 2693 c73d d308 e1bd 6393 033e 4320 9a3e
000003f0: cce4 a03d 8fb4 89be 81f4 89be 2f59 04bf

bias f4 [50]
-0.11257207 -0.042117532 0.09061978 -0.010943655 0.09326146 -0.05417937 0.07743336 -0.004697288
-0.06901947 -0.10648894 -0.06574262 0.0002738758 -0.019654965 0.047422595 0.02126369 0.09984526
0.111539304 0.044944525 -0.032166526 -0.083924204 0.09323305 -0.101306126 0.13508983 0.12673649
0.11404334 -0.14548184 -0.09821477 0.13081041 0.011894765 0.08404397 -0.049537264 0.0016516508
-0.0425673 -0.07202959 -0.109080315 0.014206592 0.11322255 0.08092257 -0.052341152 0.0021873214
-0.030914377 -0.00591493 -0.14604266 -0.09204948 0.084751695 0.039982725 0.04968958 0.10138433
0.055228252 -0.11154206
00000000: 2f8c e6bd 6f83 2cbd dd96 b93d 044d 33bc
00000010: ddff be3d 30eb 5dbd 6295 9e3d b5eb 99bb
00000020: 145a 8dbd e016 dabd 11a4 86bd fd96 8f39
00000030: 7303 a1bc 323e 423d 3131 ae3c ac7b cc3d
00000040: b86e e43d c017 383d 0cc1 03bd 74e0 abbd
00000050: f8f0 be3d 9679 cfbd fd54 0a3e 36c7 013e
00000060: 8e8f e93d 31f9 14be d324 c9bd 2af3 053e
00000070: 43e2 423c 3f1f ac3d 96e7 4abd 347c d83a
00000080: 0d5b 2ebd 4084 93bd 8065 dfbd c4c2 683c
00000090: 39e1 e73d bbba a53d ad63 56bd 2a59 0f3b
000000a0: 2640 fdbc 07d2 c1bb 358c 15be 7084 bcbd
000000b0: 4c92 ad3d edc4 233d 4d87 4b3d 96a2 cf3d
000000c0: 0537 623d 2a70 e4bd

weight f4 [50, 50]
-0.18701982 0.0317022 -0.036722828 -0.12394078 0.23101163 0.17106776 -0.16053016 -0.18190806
0.07822559 -0.13609834 0.22455353 -0.058870863 -0.08135974 -0.08122805 0.29771036 -0.13190901
-0.34634876 0.10159607 0.09407065 -0.09042901 0.24993812 0.0035235689 0.54552317 -0.36067066
-0.21600972 -0.17440714 0.053252123 -0.118594065 0.067742296 0.28959945 -0.21821125 0.19187081
0.19738321 0.12025753 0.19789909 -0.15952301 -0.19646211 -0.10263061 -0.16997717 -0.30965215
-0.4441596 0.09240477 0.064489186 0.09646479 -0.45693266 0.22044575 0.13000599 0.24596626
0.13748972 -0.22464083 -0.8029922 -0.23742296 0.18752614 0.002398503 -0.23614722 0.10866207
-0.078678414 0.12515111 -0.058861185 -0.08405117 -0.048629176 -0.22153516 -0.09098817 0.008150563
-0.114805035 -0.006733421 0.029607054 -0.29051912 0.14702493 0.36687106 0.057706993 -0.43391082
-0.10177864 -0.03658099 0.18481568 -0.025649324 -0.03760374 -0.21597327 -0.20900595 -0.19528647
0.15679912 0.11409847 0.3673652 -0.08195338 0.22919178 0.043649156 -0.20605321 -0.0053780344
0.016866872 -0.14859547 0.15156937 0.39422795 0.22022423 -0.07631512 -0.086205006 -0.08672225
0.25721154 0.016585978 -0.32845783 -0.027010938 0.11604382 -0.030094257 0.028344736 -0.15143096
0.032165278 -0.3261906 -0.016464373 -0.2715687 0.4358104 0.156495 -0.012621602 0.11212805
0.051938493 0.19291571 -0.10812597 0.06949022 -0.06371972 -0.07093266 0.49456096 0.044778172
-0.3178397 -0.31659472 0.17960246 0.0692508 -0.27833202 0.01390621 0.26636267 -0.2573986
-0.41747692 -0.12092592 0.08803815 -0.093568176 0.15485021 0.2529819 -0.030934205 -0.06191725
-0.11959431 -0.091862515 -0.099592716 0.5467782 -0.23197514 -0.19840123 0.023704413 -0.11640535
0.044874195 -0.08318716 -0.1437529 0.44503453 -0.16716859 -0.37466186 0.28603637 -0.34931406
-0.07660981 0.26771358 0.008689462 -0.27680558 -0.06917298 0.29915872 0.08306883 0.16833009
0.19501989 0.18173268 0.36277726 0.06955834 -0.107308894 -0.25180632 -0.33610797 0.10002935
-0.16826798 0.19001906 -0.13724342 0.16420965 0.3126621 0.3137857 0.10750902 0.1544522
0.20765084 0.15278205 -0.20783962 -0.033099115 -0.2711955 -0.27036113 0.14831963 0.20571329
-0.39457253 -0.39026567 0.2767686 -0.27077007 -0.39605808 -0.31709662 0.28672788 -0.01636859
0.12202671 -0.25007188 -0.17495057 0.09594317 0.0048262617 0.029361008 0.07135754 0.010236627
0.014599511 -0.37231222 -0.33837947 -0.03335324 -0.06906999 0.17724411 -0.49500206 -0.31161115
-0.2813619 0.08563489 -0.21088615 -0.21933874 -0.19544032 -0.03663542 -0.14906585 0.14145848
0.066502415 0.19724458 -0.4190469 0.28269878 0.014829023 -0.18844888 0.030122222 0.06570083
0.07655961 0.2501188 0.1853621 0.13672113 0.13477997 -0.42634246 0.1144314 -0.2782693
0.35671315 0.14837533 0.06666899 0.26436722 0.31492373 0.0025163654 -0.16585363 -0.2390293
-0.2551456 -0.0037722 -0.24564391 -0.08761446 -0.28255767 -0.005983313 -0.11849749 0.21808976
-0.063773714 -0.27555656 0.62159854 0.12869686 0.045845363 0.03149588 -0.828099 -0.35358503
00000000: 2082 3fbe 2bda 013d ad6a 16bd aad4 fdbd
00000010: 508e 6c3e 632c 2f3e 0562 24be 1b46 3abe
00000020: bd34 a03d 5d5d 0bbe 5cf1 653e 9322 71bd
00000030: ef9f a6bd e45a a6bd 7e6d 983e 2813 07be
00000040: a054 b1be 9a11 d03d 1da8 c03d d832 b9bd
00000050: c7ef 7f3e adeb 663b 68a7 0b3f d3a9 b8be
00000060: a731 5dbe c997 32be e61e 5a3d 72e1 f2bd
00000070: 79bc 8a3d 6146 943e c572 5fbe c879 443e
00000080: d31e 4a3e 9449 f63d 0fa6 4a3e 005a 23be
00000090: 5d2d 49be ff2f d2bd 7f0e 2ebe ba8a 9ebe
000000a0: e368 e3be b63e bd3d e812 843d 558f c53d
000000b0: 14f3 e9be 88bc 613e 4a20 053e 94de 7b3e
000000c0: 1bca 0c3e 3f08 66be e690 4dbf 011f 73be
000000d0: da06 403e 3430 1d3b 94d0 71be 388a de3d
000000e0: 2622 a1bd 9d27 003e 6d18 71bd 0523 acbd
000000f0: 632f 47bd 1dda 62be 0158 babd f089 053c
00000100: e71e ebbd 07a4 dcbb 7e8a f23c ecbe 94be
00000110: b48d 163e 86d6 bb3e 2b5e 6c3d 8f29 debe
00000120: 5271 d0bd f3d5 15bd 5240 3d3e 881e d2bc
00000130: 6106 1abd 1928 5dbe a805 56be 2df9 47be
00000140: f38f 203e 75ac e93d 4b17 bc3e 2cd7 a7bd
00000150: 40b1 6a3e 75c9 323d 9dff 52be 393a b0bb
00000160: 652c 8a3c 6929 18be 0035 1b3e 3fd8 c93e
00000170: 7682 613e 1a4b 9cbd 408c b0bd 6f9b b1bd
00000180: 3bb1 833e 51df 873c a02b a8be 0b46 ddbc
00000190: 62a8 ed3d 3b88 f6bc 3833 e83c b810 1bbe
000001a0: bdbf 033d 7402 a7be 4be0 86bc 0d0b 8bbe
000001b0: 8a22 df3e 3a40 203e d6ca 4ebc 64a3 e53d
000001c0: 75bd 543d b28b 453e 2671 ddbd e350 8e3d
000001d0: 7c7f 82bd 2445 91bd 1837 fd3e 5169 373d
000001e0: e3bb a2be b418 a2be b5e9 373e 5dd3 8d3d
000001f0: 8981 8ebe dfd6 633c b060 883e c0c9 83be
00000200: 89bf d5be 02a8 f7bd 584d b43d aca0 bfbd
00000210: 0e91 1e3e d886 813e bb69 fdbc f19c 7dbd
00000220: dded f4bd 6a22 bcbd 44f7 cbbd a8f9 0b3f
00000230: e48a 6dbe b129 4bbe c22f c23c ee65 eebd
00000240: 01ce 373d 085e aabd f633 13be 91db e33e
00000250: 3e2e 2bbe aed3 bfbe 5c73 923e 4bd9 b2be
00000260: 9be5 9cbd c111 893e 3f5e 0e3c 76b9 8dbe
00000270: 90aa 8dbd 552b 993e fe1f aa3d b95e 2c3e
00000280: 4bb3 473e 2218 3a3e f1bd b93e 9a74 8e3d
00000290: c4c4 dbbd c2ec 80be 5816 acbe 30dc cc3d
000002a0: 714e 2cbe 5b94 423e 8a89 0cbe 9326 283e
000002b0: 3f15 a03e 85a8 a03e b02d dc3d b828 1e3e
000002c0: 6ca2 543e e672 1c3e e9d3 54be f092 07bd
000002d0: 23da 8abe c66c 8abe 1ae1 173e 81a6 523e
000002e0: 6905 cabe e7d0 c7be 9db4 8d3e 60a2 8abe
000002f0: 20c8 cabe 7d5a a2be ffcd 923e 6c17 86bc
00000300: 24e9 f93d 6c09 80be 3e26 33be da7d c43d
00000310: 9e25 9e3b 7f86 f03c e723 923d 87b7 273c
00000320: ca32 6f3c b59f bebe 1340 adbe 689d 08bd
00000330: 9174 8dbd 7b7f 353e e970 fdbe 7f8b 9fbe
00000340: ab0e 90be 5861 af3d 8af2 57be 569a 60be
00000350: 8221 48be 060f 16bd b8a4 18be 7eda 103e
00000360: 6b32 883d 7cfa 493e 518d d6be e5bd 903e
00000370: 6ef5 723c bef8 40be e1c2 f63c 288e 863d
00000380: 49cb 9c3d 920f 803e 90cf 3d3e a000 0c3e
00000390: c303 0a3e 8f49 dabe 035b ea3d 5079 8ebe
000003a0: 1ba3 b63e b4ef 173e c089 883d 245b 873e
000003b0: af3d a13e 9be9 243b 89d5 29be 19c4 74be
000003c0: 72a2 82be 0437 77bb 148a 7bbe 366f b3bd
000003d0: 66ab 90be ab0f c4bb d0ae f2bd ec52 5f3e
000003e0: cb9b 82bd c015 8dbe 1521 1f3f 1cc9 033e
000003f0: 59c8 3b3d d301 013d 4cfe 53bf 1909 b5be

bias f4 [50]
0.012795852 -0.015534824 0.025198285 -0.027959876 -0.13669808 -0.06724627 0.03768021 0.083914086
-0.007085095 -0.026335688 0.08353131 -0.12750953 -0.14545228 -0.050395582 -0.05815107 0.1338107
0.105953224 0.030398736 -0.1393848 0.103267595 -0.011101604 0.0846685 0.14085399 -0.07456182
0.02723994 -0.07839882 -0.02258948 -0.077175185 0.012688958 0.1360589 -0.07343891 0.1063523
0.01191132 -0.065910645 -0.065615505 0.12806073 -0.11405981 -0.1014144 -0.047940947 0.09979088
0.10740767 -0.13759103 -0.09494328 -0.09775087 -0.05736318 -0.009333134 0.062575966 0.007748253
0.09331423 -0.050477464
00000000: b1a5 513c c685 7ebc a26c ce3c 1c0c e5bc
00000010: 95fa 0bbe 6ab8 89bd 9056 1a3d 26db ab3d
00000020: 162a e8bb f1bd d7bc 7712 ab3d dc91 02be
00000030: 71f1 14be 996b 4ebd d12f 6ebd ac05 093e
00000040: 01fe d83d c506 f93c e4ba 0ebe f67d d33d
00000050: 81e3 35bc ae66 ad3d 073c 103e deb3 98bd
00000060: 4b26 df3c 8f8f a0bd 930d b9bc 060e 9ebd
00000070: 59e5 4f3c 0653 0b3e 2467 96bd 3ccf d93d
00000080: b227 433c 29fc 86bd 6c61 86bd 5a22 033e
00000090: 3198 e9bd 5ab2 cfbd ba5d 44bd 295f cc3d
000000a0: 8df8 db3d aae4 0cbe 9f71 c2bd 9c31 c8bd
000000b0: a7f5 6abd 00ea 18bc d427 803d 0fe5 fd3b
000000c0: 881b bf3d 75c1 4ebd

weight f4 [1, 50]
0.029297577 -0.2402972 0.120822184 -0.43139085 0.043789797 -0.107316814 0.7004826 -0.19528691
-0.017945534 -0.17576657 0.07311344 -0.3260445 0.040470343 0.31263945 -0.025569897 0.34715033
-0.10343394 -0.24998301 -0.10356423 0.27457005 0.05037683 -0.30549583 0.30441892 0.70103455
-0.053664986 -0.17844117 0.37481856 0.24296856 0.2979393 0.34619138 0.16343156 0.29098326
-0.18714857 -0.28804624 0.310014 -0.57098836 -0.41342497 0.69091415 -0.07390771 -0.0904131
0.12993239 0.24563883 0.48210174 0.7201386 -0.18719138 -0.26782066 -0.15329811 -0.2501279
-0.07456947 0.4337594
00000000: 7901 f03c 7810 76be 9f71 f73d 43df dcbe
00000010: ee5c 333d ebc8 dbbd d452 333f 4bf9 47be
00000020: 8302 93bc 27fc 33be 80bc 953d 4eef a6be
00000030: 3bc4 253d 4712 a03e f677 d1bc b0bd b13e
00000040: 2cd5 d3bd 8cfb 7fbe 7c19 d4bd 7294 8c3e
00000050: ef57 4e3d f369 9cbe ccdc 9b3e 0077 333f
00000060: d1cf 5bbd 48b9 36be 38e8 bf3e c0cc 783e
00000070: 808b 983e ff3f b13e 9a5a 273e c2fb 943e
00000080: e0a3 3fbe cc7a 93be 28ba 9e3e 4b2c 12bf
00000090: 70ac d3be c0df 303f ed5c 97bd 812a b9bd
000000a0: ff0c 053e bf88 7b3e 0ad6 f63e 015b 383f
000000b0: 19af 3fbe ca1f 89be 2efa 1cbe c410 80be
000000c0: e1b7 98bd b615 de3e

weight f4 [50, 2]
-0.16957049 0.4807306 0.2263084 -0.0046247235 0.33647984 -0.26991355 -0.081507295 0.1703139
0.38914514 0.09103012 -0.11089984 0.12966776 -0.34555113 0.012449651 -0.35529202 0.099050514
-0.17011614 -0.12712812 -0.20460044 -0.028530192 -0.6633901 -0.058069147 -0.49095652 0.36756968
-0.4155024 -0.052117106 0.39964977 -0.10342969 -0.029730892 -0.0609249 -0.43737218 0.1534725
0.07483582 0.05546733 -0.046190128 -0.510121 -0.2638752 0.4658065 -0.27695194 -0.15449062
0.17777936 -0.045666065 -0.09958538 -0.027683722 -0.32629314 0.0014839794 0.07389035 0.37678033
-0.07095741 -0.1509895 0.050323673 -0.2602257 -0.24057223 0.53183186 0.0032567556 -0.8687186
0.13098764 -0.40366805 0.18060063 0.0001568371 -0.26458523 0.16025624 -0.114117354 0.4446986
0.2474356 0.21944603 -0.31206208 0.37599072 0.3141999 0.8120639 0.2553376 0.072204016
-0.076733 -0.47123557 -0.43935153 -0.06455047 0.45272642 -0.24858147 -0.05801059 0.29356048
0.03953575 0.58832747 -0.11091123 -0.018259909 0.38676587 0.2777122 -0.13570891 -0.198679
-0.38841194 0.021258943 0.2869439 0.2076581 -0.41845542 -0.25773615 -0.030580092 -0.42687643
-0.04050664 0.5108756 -0.10995011 0.2231652
00000000: e3a3 2dbe 5222 f63e 64bd 673e fe8a 97bb
00000010: 1647 ac3e 1c32 8abe 4ced a6bd c466 2e3e
00000020: 083e c73e 006e ba3d 751f e3bd a0c7 043e
00000030: 14ec b0be 9ff9 4b3c d6e8 b5be ffda ca3d
00000040: ed32 2ebe e02d 02be c782 51be 26b8 e9bc
00000050: efd3 29bf ead9 6dbd a75e fbbe 1832 bc3e
00000060: bbbc d4be bf78 55bd e59e cc3e f2d2 d3bd
00000070: 338e f3bc 638c 79bd 3fef dfbe e527 1d3e
00000080: 8643 993d b631 633d dc31 3dbd 4a97 02bf
00000090: a61a 87be 317e ee3e a5cc 8dbe ca32 1ebe
000000a0: cb0b 363e 570c 3bbd 6bf3 cbbd f9c8 e2bc
000000b0: e50f a7be 1682 c23a d353 973d 5ae9 c03e
000000c0: 1e52 91bd fe9c 1abe 3220 4e3d 4e3c 85be
000000d0: 9158 76be 2226 083f 4b6f 553b 5864 5ebf
000000e0: a021 063e 94ad cebe 5fef 383e a374 2439
000000f0: b777 87be 361a 243e 5cb6 e9bd 89af e33e
00000100: c25f 7d3e 76b6 603e 9ac6 9fbe db81 c03e
00000110: cfde a03e 6be3 4f3f 9cbb 823e b3df 933d
00000120: 3126 9dbd ca45 f1be aff2 e0be 0933 84bd
00000130: c2cb e73e 248c 7ebe 839c 6dbd 8f4d 963e
00000140: 3df0 213d a19c 163f 6d25 e3bd ce95 95bc
00000150: 2d06 c63e 4b30 8e3e 47f7 0abe 8272 4bbe
00000160: eedd c6be 3c27 ae3c 50ea 923e 53a4 543e
00000170: ca3f d6be fef5 83be 1a83 fabc 8c8f dabe
00000180: 4aea 25bd bec8 023f 862d e1bd 6b85 643e

bias f4 [50]
0.05977447 0.093892656 -0.23299564 -0.51996017 0.5408276 -0.5510053 0.2586153 -0.59151465
0.66640973 -0.23689133 -0.6910178 0.53783363 -0.6501225 -0.37659496 0.21018198 0.39550257
-0.39980483 -0.416131 0.13446659 0.30542293 0.1764466 0.3082141 0.49025255 0.5841339
0.5974785 0.4048183 -0.6278513 -0.318571 -0.27964258 0.11471524 0.39505878 -0.67212015
0.4084593 -0.43914732 0.42806494 -0.04436455 0.1434572 -0.24218911 -0.38875875 -0.30693012
-0.337347 -0.30877632 0.11427779 0.3070471 -0.107384436 0.31337473 -0.096534066 -0.64521575
-0.513003 0.6012483
00000000: 13d6 743d cb4a c03d 6996 6ebe 1c1c 05bf
00000010: ad73 0a3f af0e 0dbf 3969 843e 816d 17bf
00000020: d499 2a3f a493 72be 8be6 30bf 77af 093f
00000030: 6e6e 26bf 0ed1 c0be f239 573e 507f ca3e
00000040: 38b3 ccbe 1f0f d5be 9cb1 093e 6560 9c3e
00000050: 6bae 343e 3dce 9d3e 6202 fb3e cd89 153f
00000060: 5af4 183f 5844 cf3e ddba 20bf bd1b a3be
00000070: 502d 8fbe d3ef ea3d 2545 ca3e 1110 2cbf
00000080: 9421 d13e ebd7 e0be 542b db3e 9ab7 35bd
00000090: 72e6 123e 6c00 78be 630b c7be f225 9dbe
000000a0: bfb8 acbe ee17 9ebe 790a ea3d 4735 9d3e
000000b0: 5fec dbbd a772 a03e a7b3 c5bd dc2c 25bf
000000c0: 2a54 03bf 69eb 193f

weight f4 [50, 50]
-0.43462417 0.26161754 0.23471436 -0.09379992 0.5622033 0.276109 0.25118053 0.012931332
-0.15638435 0.38313025 0.069447845 -0.26689938 -0.14172554 0.2883569 -0.016891157 0.13993798
0.099840604 -0.40687707 -0.53879815 -0.27099928 -0.06861182 -0.09302606 -0.09701382 -0.113129385
0.0001430522 -0.08611879 -0.10632445 -0.18389502 0.22690897 0.041324005 0.060326703 0.23493728
-0.29747432 -0.093264185 0.06921881 0.09961848 -0.07517416 0.20120166 0.73011494 0.07926022
-0.13141403 0.07132768 0.15514171 0.3062098 -0.015843738 -0.35367864 -0.11856482 0.32271585
-0.09965321 -0.10712419 0.074068666 -0.33149847 -0.2068804 -0.1461331 -0.20457897 0.03231689
0.17577715 -0.0829983 -0.17586468 0.008490176 -0.25623444 -0.23656149 0.13120323 0.34136018
-0.11585641 1.1895062 0.042390727 -0.13509883 0.2555683 -0.17978182 -0.08769747 0.33280104
0.07760284 0.0066890274 0.16438419 -0.094200104 -0.014004586 0.4762672 -0.084117815 -0.085078955
-0.47639015 0.06696745 0.24113072 -0.21942067 -0.19280349 -0.07033506 0.19652627 -0.10482557
0.318476 -0.0709737 0.118013136 -0.2724344 0.26969776 0.38469347 -0.11804119 0.1755577
0.12095858 0.07353074 0.0699126 0.54336345 -0.08609115 -0.21891649 -0.21182156 -0.043227788
-0.21820436 -0.14251609 -0.22601917 -0.30250326 -0.3296162 0.33214858 0.056790676 0.11995818
-0.12111406 0.010619897 -0.12636791 -1.2794706 0.08134351 0.46018445 -0.6590922 -0.19906425
0.02857775 -0.15885241 0.22294067 0.097834095 0.062369775 -0.103184 -0.4190505 -0.014102954
0.02506176 0.038753852 -0.060451336 -0.17585693 0.23455444 0.101531215 0.19019133 0.21388116
0.15799904 -0.07847815 -0.008683503 0.1347769 -0.19251044 0.15323535 0.21410134 0.3336843
-0.2445548 0.034132734 0.24458176 0.026602833 -0.0312317 0.104750216 0.01970972 -0.023627358
-0.088620946 0.032591734 -0.024209037 0.45664874 0.28281575 -0.026230318 -0.11772132 -0.12486382
0.25673458 -0.16279693 0.013554518 -0.7677075 -0.008482123 0.12238779 0.0651432 0.34952143
0.09316877 -0.027378697 -0.4455299 -0.030950192 0.11269742 0.26363733 -0.062303055 -0.090064116
0.061039966 -0.22704881 0.0043793083 0.20329542 -0.34728518 -0.115795255 -0.061379634 0.28748137
0.0026184162 0.027079165 -0.43410742 -0.40124953 -0.72427595 -0.27486315 0.3145614 -0.26642844
-0.09268597 0.095309354 -0.195201 -0.19912215 -0.043386173 -0.0813948 -0.043493148 -0.032575842
-0.04604574 0.13683413 0.028115105 -0.045064274 0.33442897 0.11088378 -0.4197178 0.36087027
-0.14787844 -0.094191484 0.3729241 0.31239608 0.22722405 -0.2386035 0.03584477 0.008622018
-0.23202626 0.037244156 0.12846255 0.0012232404 -0.014913084 0.019512422 -0.25617734 0.037226398
-0.15891717 -0.18195303 0.13490011 0.22376594 0.11329974 -0.2527392 0.00906677 0.16479887
0.14011665 0.03536727 -0.022819059 -0.31480238 0.08841068 -0.27407488 -0.2941069 0.21255119
0.2636499 -0.3377673 -0.35636628 -0.1816358 -0.17158349 -0.3889811 -0.29489183 0.03818302
-0.11392634 -0.31871256 -0.31991205 -0.20988019 -0.010824814 0.039594017 -0.11801543 -0.14783838
00000000: 0f87 debe bcf2 853e f658 703e 2c1a c0bd
00000010: 8eec 0f3f 295e 8d3e bc9a 803e f0dd 533c
00000020: 3823 20be a629 c43e ac3a 8e3d 09a7 88be
00000030: 8020 11be 84a3 933e 535f 8abc e74b 0f3e
00000040: 3b79 cc3d 3152 d0be adee 09bf 6bc0 8abe
00000050: 5b84 8cbd 7284 bebd 2faf c6bd 61b0 e7bd
00000060: 4800 1639 0c5f b0bd a2c0 d9bd fa4e 3cbe
00000070: d35a 683e 5c43 293d 2219 773d 6693 703e
00000080: 8e4e 98be 4b01 bfbd 97c2 8d3d c604 cc3d
00000090: e9f4 99bd cf07 4e3e d0e8 3a3f 2f53 a23d
000000a0: 6691 06be 3f14 923d 78dd 1e3e 88c7 9c3e
000000b0: baca 81bc 5e15 b5be 1dd2 f2bd 033b a53e
000000c0: fb16 ccbd ed63 dbbd 50b1 973d 2bba a9be
000000d0: 75d8 53be eaa3 15be 267d 51be b75e 043d
000000e0: edfe 333e 03fb a9bd df15 34be 611a 0b3c
000000f0: 2931 83be 2d3d 72be 245a 063e c3c6 ae3e
00000100: 2046 edbd bd41 983f e6a1 2d3d 5957 0abe
00000110: d9d9 823e ba18 38be bb9a b3bd e664 aa3e
00000120: 3dee 9e3d a12f db3b 5454 283e fceb c0bd
00000130: 7e73 65bc 4bd9 f33e f645 acbd e03d aebd
00000140: 69e9 f3be 3b26 893d f9ea 763e d0af 60be
00000150: 476e 45be d40b 90bd 2f3e 493e caae d6bd
00000160: 490f a33e a95a 91bd dfb0 f13d 867c 8bbe
00000170: d315 8a3e 8bf6 c43e 94bf f1bd 66c5 333e
00000180: 22b9 f73d 4997 963d 562e 8f3d de19 0b3f
00000190: 8f50 b0bd a52b 60be c0e7 58be 9f0f 31bd
000001a0: f770 5fbe bdef 11be 9271 67be b5e1 9abe
000001b0: 74c3 a8be 610f aa3e 579d 683d a2ac f53d
000001c0: a60a f8bd 14ff 2d3c 9766 01be b1c5 a3bf
000001d0: 6d97 a63d 4c9d eb3e 44ba 28bf 80d7 4bbe
000001e0: e31b ea3c 35aa 22be 8f4a 643e 3e5d c83d
000001f0: 7377 7f3d 2252 d3bd ca8d d6be 1410 67bc
00000200: 524e cd3c 5cbc 1e3d d29b 77bd d713 34be
00000210: 0a2f 703e 99ef cf3d 84c1 423e aa03 5b3e
00000220: 80ca 213e 27b9 a0bd 4045 0ebc f502 0a3e
00000230: 7521 45be bae9 1c3e 623d 5b3e abd8 aa3e
00000240: 936c 7abe c4ce 0b3d a473 7a3e 2fee d93c
00000250: 9fd9 ffbc 4887 d63d 4776 a13c 298e c1bc
00000260: e67e b5bd e97e 053d 0852 c6bc ddcd e93e
00000270: 3acd 903e f7e0 d6bc e017 f1bd 9ab8 ffbd
00000280: b772 833e 3db4 26be c513 5e3c 7b88 44bf
00000290: 9af8 0abc 73a6 fa3d cc69 853d 79f4 b23e
000002a0: 45cf be3d 4a49 e0bc 7f1c e4be 428b fdbc
000002b0: e8cd e63d 79fb 863e 7d31 7fbd 8973 b8bd
000002c0: 0b05 7a3d 7c7f 68be 4d80 8f3b ad2c 503e
000002d0: 5dcf b1be 1026 edbd 3669 7bbd c230 933e
000002e0: bc99 2b3b 20d5 dd3c 5443 debe 9470 cdbe
000002f0: 266a 39bf ddba 8cbe 310e a13e 4f69 88be
00000300: 24d2 bdbd 8d31 c33d c5e2 47be ade6 4bbe
00000310: b3b5 31bd 51b2 a6bd df25 32bd 3f6e 05bd
00000320: 759a 3cbd 3f1e 0c3e a651 e63c 5195 38bd
00000330: 463a ab3e 0917 e33d 40e5 d6be fdc3 b83e
00000340: 726d 17be 77e7 c0bd e8ef be3e 61f2 9f3e
00000350: 6cad 683e 7a54 74be f7d1 123d 5d43 0d3c
00000360: 4b98 6dbe 548d 183d b08b 033e 2355 a03a
00000370: 0256 74bc 84d8 9f3c ad29 83be b57a 183d
00000380: 2fbb 22be e551 3abe 4123 0a3e e622 653e
00000390: b209 e83d 0867 81be ca8c 143c 09c1 283e
000003a0: bd7a 0f3e 45dd 103d 09ef babc c72d a1be
000003b0: a910 b53d 8b53 8cbe 2e95 96be 05a7 593e
000003c0: 1ffd 863e d6ef acbe a475 b6be bcfe 39be
000003d0: 95b3 2fbe 8828 c7be 10fc 96be cc65 1c3d
000003e0: 3752 e9bd 4b2e a3be 83cb a3be d5ea 56be
000003f0: 905a 31bc 562d 223d 13b2 f1bd f262 17be

bias f4 [50]
-0.09569993 -0.14173378 0.14464386 0.06383721 0.05964988 -0.095804565 0.10568525 0.0075883563
-0.05433233 -0.08639331 -0.07439895 -0.13346218 0.075381026 -0.030100899 -0.019490879 0.044313107
-0.048467122 -0.08417358 0.122402415 -0.1548384 -0.010035064 -0.15563388 0.13478827 -0.12779224
0.025276076 -0.028227665 -0.12156821 -0.06619745 -0.024846647 -0.14090534 -0.013702666 0.061971415
-0.030281646 -0.007024312 -0.018016042 -0.06695671 0.049198896 0.04724736 -0.020195067 -0.106146805
0.08029222 -0.10695514 0.004705896 -0.0930175 -0.102316745 -0.068953186 -0.0014072529 0.12999967
-0.12017669 0.122505054
00000000: 53fe c3bd a922 11be 851d 143e 15bd 823d
00000010: 6f53 743d 2f35 c4bd 8271 d83d bfa7 f83b
00000020: 948b 5ebd faee b0bd 7a5e 98bd 4faa 08be
00000030: 5e61 9a3d 2996 f6bc 56ab 9fbc a981 353d
00000040: 7685 46bd 3363 acbd 1eae fa3d f58d 1ebe
00000050: 1c6a 24bc 7d5e 1fbe f005 0a3e f8db 02be
00000060: c60f cf3c b43d e7bc c1f8 f8bd 8792 87bd
00000070: 328b cbbc 7d49 10be 2681 60bc bdd5 7d3d
00000080: 3711 f8bc 332c e6bb 6196 93bc 9920 89bd
00000090: c884 493d 7386 413d 2070 a5bc 7f63 d9bd
000000a0: 3f70 a43d 4c0b dbbd eb33 9a3b f67f bebd
000000b0: 718b d1bd 5437 8dbd 9273 b8ba a21e 053e
000000c0: 321f f6bd eee3 fa3d

weight f4 [50, 50]
0.21498695 0.036400627 -0.34066376 -0.25536862 -0.025508381 -0.14813827 -0.13955228 0.10686062
-0.18008561 0.09402842 0.02540325 0.09308293 0.54781693 -0.21889526 -0.19756848 0.13640091
-0.313761 -0.3166314 0.15109558 0.0021519742 -0.058250364 0.50804174 -0.1676312 0.08296065
-0.077202894 -0.048451945 0.24786384 0.06793713 -0.1698739 -0.14753315 -0.21853942 0.03203703
0.37374878 -0.0460189 -0.123732485 0.22569333 -0.3047831 0.16334061 -0.16758177 0.040550318
-0.038192913 -0.24161495 0.38895348 -0.3050215 0.21622019 -0.088939354 -0.19499916 0.23044534
0.23841852 0.39752993 -0.07407269 0.070635386 -0.34784815 -0.22015926 -0.23728918 0.15487926
-0.25342304 0.0017177418 -0.2070366 -0.038338408 -0.24868016 -0.5689153 0.3105982 0.12462339
0.12048727 0.24584919 -0.2436718 -0.008962914 0.14827104 -0.021720164 -0.1010171 -0.23162407
-0.10189071 -0.3188039 0.13410059 0.022738095 -0.076875195 0.09126043 0.01038606 0.109628
0.18021642 -0.15220499 0.2844384 0.24257326 -0.07863014 -0.22761133 -0.082228735 -0.06716206
-0.18041696 0.06526822 0.23349068 -0.17323643 -0.37434915 0.37772262 -0.15611777 0.0054840106
0.2210134 -0.058471855 -0.007107346 -0.026106602 -0.08091509 0.25697246 0.118364766 -0.33100504
-0.118373364 0.049194835 -0.35971862 -0.11330315 -0.11136689 -0.025312332 0.32112363 0.13479741
-0.24978481 0.18946318 -0.038923353 0.010435997 0.08456621 0.2022838 0.16934538 0.07843671
-0.37897584 -0.27986103 -0.028250176 -0.12213787 -0.2958859 -0.07843513 -0.2560816 0.14299119
0.22240591 -0.14774431 0.16069981 -0.2181584 -0.12541279 0.1576322 -0.0007453122 0.076913364
0.36545518 -0.098961845 -0.17503995 0.2523275 0.1874647 -0.1304459 0.13816737 -0.07528499
0.36221215 0.063286476 -0.13644008 -0.18009317 -0.0419832 0.3799773 0.011107989 -0.28105122
-0.036991313 -0.19392703 -0.2832926 0.111139245 -0.011629397 0.075737976 -0.040847056 0.011592022
0.19532982 -0.34131324 -0.37348795 0.08122696 0.349686 0.020669604 -0.31548354 0.520137
-0.33087194 -0.2585517 0.039275024 -0.117452346 -0.011855031 -0.19418344 0.44158056 -0.1947758
-0.12895684 0.2505544 -0.062410347 -0.41504407 -0.21985553 0.049484305 -0.0010462317 -0.07926667
0.22100636 0.021749033 0.18269901 0.47358546 0.12658975 -0.33731157 0.08896415 -0.1836633
-0.25279894 -0.16086596 0.03148546 -0.06989 0.01617823 -0.27222356 -0.16940476 0.33193186
-0.11811035 -0.18256639 0.16863175 0.30675626 0.40143186 -0.15562314 0.19157597 0.3607583
-0.2278633 0.028972883 0.1735288 0.027138073 -0.14297093 -0.27837884 0.05639973 -0.1606285
0.11525662 0.12670903 -0.25886342 -0.29629418 -0.25638527 -0.31637695 0.026983188 0.144504
-0.06253312 0.10437307 -0.1902171 -0.0058628274 -0.1987146 -0.034104392 0.14164259 0.061229557
0.22547498 -0.118112035 -0.024635972 0.014657298 -0.49653628 0.12668738 -0.0012187663 -0.024212964
0.28904802 0.020891406 -0.281876 -0.14389046 0.046969894 -0.1969089 0.09781717 0.24969944
0.026870895 0.051435333 -0.02511124 0.094678596 0.45484596 -0.38592696 -0.55847263 0.20811492
00000000: 8a25 5c3e d318 153d 7b6b aebe adbf 82be
00000010: f4f6 d0bc 8fb1 17be cbe6 0ebe bed9 da3d
00000020: 5d68 38be f991 c03d 7a1a d03c 43a2 be3d
00000030: bb3d 0c3f 1426 60be 644f 4abe aeac 0b3e
00000040: 48a5 a0be 831d a2be cdb8 1a3e 2308 0d3b
00000050: ef97 6ebd 060f 023f 83a7 2bbe 46e7 a93d
00000060: 8d1c 9ebd 8c75 46bd 05d0 7d3e 9f22 8b3d
00000070: 6cf3 2dbe ee12 17be ccc8 5fbe 4339 033d
00000080: 005c bf3e 507e 3cbd 7567 fdbd 271c 673e
00000090: 880c 9cbe c342 273e 8e9a 2bbe 1718 263d
000000a0: 2c70 1cbd e969 77be e924 c73e c72b 9cbe
000000b0: d368 5d3e d625 b6bd dcad 47be ddf9 6b3e
000000c0: fc23 743e 0b89 cb3e 6cb3 97bd 49a9 903d
000000d0: 2719 b2be 6e71 61be effb 72be ab98 1e3e
000000e0: aac0 81be da25 e13a 6701 54be bc08 1dbd
000000f0: 03a6 7ebe 6fa4 11bf ba06 9f3e 8c3a ff3d
00000100: 08c2 f63d e4bf 7b3e 1a85 79be 30d9 12bc
00000110: 5dd4 173e 7cee b1bc 0ee2 cebd dc2e 6dbe
00000120: 14ac d0bd 443a a3be aa51 093e 3e45 ba3c
00000130: be70 9dbd c0e6 ba3d 4b2a 2a3c a584 e03d
00000140: a78a 383e a0db 1bbe e9a1 913e 2065 783e
00000150: d708 a1bd f212 69be 8a67 a8bd 438c 89bd
00000160: 39bf 38be 58ab 853d 2e18 6f3e e464 31be
00000170: b1aa bfbe dc64 c13e 56dd 1fbe 37b3 b33b
00000180: 5651 623e 2f80 6fbd bde4 e8bb 83dd d5bc
00000190: d0b6 a5bd e591 833e 3a69 f23d 7e79 a9be
000001a0: bc6d f2bd 8680 493d 0a2d b8be 7b0b e8bd
000001b0: 5314 e4bd cf5b cfbc 516a a43e 5508 0a3e
000001c0: 97c7 7fbe a302 423e 186e 1fbd befb 2a3c
000001d0: 0d31 ad3d 7c23 4f3e e068 2d3e 6da3 a03d
000001e0: 1f09 c2be f249 8fbe ea6c e7bc 6b23 fabd
000001f0: 5b7e 97be 99a2 a0bd 211d 83be 486c 123e
00000200: 60be 633e 494a 17be 7e8e 243e ea64 5fbe
00000210: 366c 00be 566a 213e 0e61 43ba c184 9d3d
00000220: f11c bb3e 82ac cabd ac3d 33be 1231 813e
00000230: bff6 3f3e 9c93 05be bf7b 0d3e 042f 9abd
00000240: df73 b93e 579c 813d f3b6 0bbe 586a 38be
00000250: 93f6 2bbd 628c c23e 48fe 353c f2e5 8fbe
00000260: 3484 17bd cf94 46be ba0b 91be f99c e33d
00000270: 3a89 3ebc 831c 9b3d 3e4f 27bd 77ec 3d3c
00000280: 8a04 483e 9cc0 aebe d039 bfbe 525a a63d
00000290: 0b0a b33e 4d53 a93c 0f87 a1be b327 053f
000002a0: 0c68 a9be e360 84be d9de 203d db8a f0bd
000002b0: 9b3b 42bc 06d8 46be d916 e23e 4f73 47be
000002c0: 430d 04be ab48 803e fea1 7fbd a880 d4be
000002d0: cf21 61be 0eb0 4a3d b621 89ba 9056 a2bd
000002e0: 7e4f 623e 072b b23c 7315 3b3e cb79 f23e
000002f0: bea0 013e 1ab4 acbe d632 b63d 3b12 3cbe
00000300: dd6e 81be 0cba 24be e6f6 003d 7d22 8fbd
00000310: 3588 843c e360 8bbe 7178 2dbe f9f2 a93e
00000320: d7e3 f1bd aff2 3abe cdad 2c3e 280f 9d3e
00000330: 7a88 cd3e ac5b 1fbe 7e2c 443e 50b5 b83e
00000340: ff54 69be 8a58 ed3c 89b1 313e aa50 de3c
00000350: f966 12be ac87 8ebe 6703 673d cc7b 24be
00000360: aa0b ec3d 03c0 013e bf89 84be dfb3 97be
00000370: ee44 83be 29fc a1be d90b dd3c dbf8 133e
00000380: 5d11 80bd 8cc1 d53d 45c8 42be f61c c0bb
00000390: d77b 4bbe 0cb1 0bbd c10a 113e d8cb 7a3d
000003a0: eae2 663e b9e4 f1bd 61d1 c9bc 2a25 703c
000003b0: 013a febe 56ba 013e 03bf 9fba 445a c6bc
000003c0: 1afe 933e 7424 ab3c 0d52 90be 0558 13be
000003d0: 8163 403d 7da2 49be 5e54 c83d 36b1 7f3e
000003e0: 5a20 dc3c dbad 523d 16b6 cdbc dae6 c13d
000003f0: 92e1 e83e 3898 c5be 10f8 0ebf 141c 553e

bias f4 [50]
-0.13049874 0.041793793 -0.06861595 -0.066242196 0.04823396 -0.06012335 -0.1583165 -0.09362014
-0.12368547 -0.01459518 -0.10889636 0.0039583556 0.07538601 -0.017919784 -0.09799998 -0.16284414
0.11456958 0.03551642 -0.024342634 0.15115245 -0.008072757 -0.12039616 -0.13719395 -0.08203797
-0.10924388 -0.06073319 0.006240199 -0.034414977 0.064257376 -0.042734124 0.1250667 -0.13172975
-0.09045268 -0.033853006 -0.061074052 -0.06117932 -0.16967154 -0.0075334157 -0.13013628 -0.032397203
-0.061312594 0.0708972 -0.100158535 0.025340794 0.035868082 -0.017797764 -0.11342095 0.0255155
-0.10380028 0.103406295
00000000: 76a1 05be f82f 2b3d 8586 8cbd fda9 87bd
00000010: f990 453d e743 76bd b81d 22be eabb bfbd
00000020: cf4e fdbd 9f20 6fbc 0e05 dfbd 18b5 813b
00000030: fb63 9a3d 83cc 92bc 37b4 c8bd 9dc0 26be
00000040: 75a3 ea3d aa79 113d 346a c7bc b5c7 1a3e
00000050: 9943 04bc 4392 f6bd 927c 0cbe 8603 a8bd
00000060: 41bb dfbd 5ec3 78bd 957a cc3b b8f6 0cbd
00000070: 5f99 833d fa09 2fbd 7c11 003e 2ae4 06be
00000080: 413f b9bd 73a9 0abd c928 7abd 2b97 7abd
00000090: 60be 2dbe dfda f6bb 7242 05be eeb2 04bd
000000a0: ea22 7bbd 8d32 913d eb1f cdbd 7f97 cf3c
000000b0: 69ea 123d 9ecc 91bc 3e49 e8bd e205 d13c
000000c0: 3e95 d4bd aec6 d33d
